actorHRes.pth (torch, 362960 bytes, 14 tensors)

input_layer.weight f4 [128, 72]
0.08703715 -0.019664716 -0.2212609 -0.14740714 -0.030370181 -0.16573405 0.000638964 -0.10539524
-0.10268644 0.020806625 0.01071554 0.005760489 -0.057434823 -0.04388989 -0.0727658 -0.07810488
-0.049817495 -0.07177344 0.25960022 -0.055838943 -0.18953647 -0.12502246 -0.05413358 0.07525286
-0.21819143 0.10548521 -0.03938107 -0.014061933 -0.14451586 0.21685365 -0.19895843 0.012617463
0.07928625 -0.08921842 0.1319823 -0.040752508 -0.14579527 0.101453215 0.05318713 -0.18998618
-0.072115436 0.017102113 0.01206687 -0.20044136 0.012894032 -0.06644493 -0.09877168 0.048357856
-0.087333426 -0.014188384 0.06432075 -0.083202496 0.025062544 0.0164535 -0.029266516 -0.07536452
-0.1164023 -0.036264747 -0.09417686 -0.06432154 -0.0917983 -0.06635848 0.05261915 -0.18845433
-0.18493702 -0.010739859 0.019003874 -0.15714574 0.09696164 -0.11902763 0.250216 0.15557413
-0.03897658 -0.068473496 0.0230652 0.104197785 0.053116087 0.018212631 0.01960421 -0.014885943
0.0766226 0.102167726 0.06544127 0.063043274 -0.031788588 0.15059705 0.05248888 -0.050242558
-0.043804374 0.037471764 0.1557031 0.08966794 -0.062417116 -0.08286327 -0.069108576 0.010008862
-0.17219853 0.08175011 -0.0222879 0.081416644 -0.01777928 0.0032783083 -0.10598604 0.1040405
-0.07596603 0.1263062 -0.05706104 0.21776728 0.09754614 0.040473636 -0.04489729 0.055577938
-0.2256338 0.056275252 -0.06908824 0.12952778 -0.05303285 -0.14985915 0.04718651 -0.007901374
-0.14118057 0.0047923205 -0.07498083 0.033835422 0.02574545 -0.025524296 -0.06874823 0.12739044
-0.1260551 0.015524087 -0.08775486 0.041643392 -0.061726466 -0.0057701874 -0.07363061 0.0073558055
-0.06306946 -0.063697234 -0.014197194 0.044414587 -0.14987841 0.024004804 0.07089582 0.15206692
-0.11442647 0.019076806 -0.16446814 0.16940108 -0.014827947 -0.035831094 0.04968252 0.060466394
0.04528905 -0.14108776 -0.05168793 0.215086 0.07228385 0.09031245 0.07010331 0.12751178
0.04495293 -0.03175482 -0.10966586 0.1600765 0.10009377 -0.05238266 0.008903793 0.047600303
-0.118781544 0.032496657 -0.018803326 -0.073053315 -0.015833892 -0.015982686 -0.051949166 -0.021060495
-0.035347745 -0.045569353 -0.06620103 -0.25981274 -0.015387589 -0.12882397 -0.042034496 -0.36205962
-0.10238435 0.012505381 0.057009373 -0.01775097 -0.005433665 -0.14396352 -0.03464262 -0.04962402
-0.1968592 0.007654329 -0.01223127 -0.11117181 -0.055118877 0.071816996 0.10108839 -0.20731463
0.02499952 0.1162595 0.079272136 -0.2656494 -0.01637941 0.12359001 0.05127769 -0.29116908
-0.18053168 -0.046969302 -0.033735868 -0.25941557 -0.06328909 -0.03024706 -0.16913745 0.05829152
-8.838722e-05 -0.03994776 -0.017795805 -0.015761143 0.05502515 0.05833428 -0.113140516 -0.09568326
-0.09964247 0.011400712 0.062106863 -0.0064467625 0.08477472 -0.017296296 0.12412692 -0.020787008
-0.021557799 -0.0016750417 0.09647421 0.011478059 -0.14573985 -0.090858065 -0.08740637 0.042266652
0.016726736 0.024372173 -0.039870694 -0.113593675 -0.057391908 -0.21030577 -0.071458496 0.12977621
0.06988122 0.11030408 -0.062293474 0.01239405 -0.0470585 0.123407684 -0.106653005 0.08733624
00000000: 8940 b23d e617 a1bc 3892 62be e6f1 16be
00000010: e3ca f8bc 30b6 29be 2680 273a 76d9 d7bd
00000020: 454d d2bd a872 aa3c 3b90 2f3c 7cc2 bc3b
00000030: c740 6bbd e3c5 33bd 3c06 95bd 74f5 9fbd
00000040: 6e0d 4cbd f4fd 92bd 52ea 843e 60b7 64bd
00000050: d915 42be e305 00be 2cbb 5dbd 2c1e 9a3d
00000060: 936d 5fbe a108 d83d 0b4e 21bd 0664 66bc
00000070: f7fb 13be e20e 5e3e c2bb 4bbe 7ab9 4e3c
00000080: d460 a23d 26b8 b6bd 5e26 073e 1aec 26bd
00000090: 5b4b 15be b4c6 cf3d bfda 593d bd8b 42be
000000a0: 42b1 93bd bb19 8c3c 1fb4 453c 8040 4dbe
000000b0: 7d41 533c 4814 88bd ce48 cabd e312 463d
000000c0: dedb b2bd 6576 68bc 99ba 833d 1266 aabd
000000d0: f74f cd3c 7ec9 863c 55c0 efbc b758 9abd
000000e0: 5464 eebd 588a 14bd ccdf c0bd 03bb 83bd
000000f0: bf00 bcbd f4e6 87bd 2e87 573d 2cfa 40be
00000100: 2160 3dbe 3cf6 2fbc 03ae 9b3c d0ea 20be
00000110: d393 c63d c2c4 f3bd 501c 803e d34e 1f3e
00000120: e8a5 1fbd d53b 8cbd 3bf3 bc3c a665 d53d
00000130: 4190 593d a832 953c 0299 a03c 2ce4 73bc
00000140: 4fec 9c3d 503d d13d 1306 863d d51c 813d
00000150: c034 02bd 1d36 1a3e 94fe 563d 24cb 4dbd
00000160: 376c 33bd fe7b 193d a270 1f3e d3a3 b73d
00000170: 17a9 7fbd 38b4 a9bd cc88 8dbd 36fc 233c
00000180: d054 30be 9a6c a73d 1d95 b6bc c5bd a63d
00000190: daa5 91bc e3d8 563b 350f d9bd 3013 d53d
000001a0: 1494 9bbd 6a56 013e d6b8 69bd 63fe 5e3e
000001b0: 45c6 c73d afc7 253d 39e6 37bd b1a5 633d
000001c0: 8c0c 67be e180 663d 237e 8dbd eea2 043e
000001d0: f938 59bd ad74 19be a446 413d c474 01bc
000001e0: a491 10be e608 9d3b 8d8f 99bd 0397 0a3d
000001f0: 1fe8 d23c 5418 d1bc dfcb 8cbd a472 023e
00000200: 9714 01be bd58 7e3c d2b8 b3bd 4392 2a3d
00000210: e4d4 7cbd d713 bdbb a5cb 96bd f808 f13b
00000220: 902a 81bd b273 82bd 599b 68bc 12ec 353d
00000230: ba79 19be b9a5 c43c d431 913d 6eb7 1b3e
00000240: 6d58 eabd f646 9c3c 566a 28be 7a77 2d3e
00000250: ebf0 72bc a0c3 12bd e67f 4b3d 9cab 773d
00000260: 0381 393d 4f79 10be b9b6 53bd 813f 5c3e
00000270: 8e09 943d bcf5 b83d 5392 8f3d 7392 023e
00000280: 9020 383d 5811 02bd 7f98 e0bd 18eb 233e
00000290: f6fd cc3d 338f 56bd 37e1 113c 89f8 423d
000002a0: bd43 f3bd 371b 053d 6f09 9abc fa9c 95bd
000002b0: 14b6 81bc 1fee 82bc a6c8 54bd 0f87 acbc
000002c0: ccc8 10bd eea6 3abd 6894 87bd 2d06 85be
000002d0: 3a1c 7cbc 6eea 03be 5d2c 2cbd e15f b9be
000002e0: e3ae d1bd 5fe3 4c3c a982 693d 7b6a 91bc
000002f0: e30c b2bb 2c6b 13be 6be5 0dbd 8e42 4bbd
00000300: 7595 49be 2ad1 fa3b aa65 48bc 0cae e3bd
00000310: 55c4 61bd ca14 933d 6e07 cf3d 494a 54be
00000320: cbcb cc3c 7619 ee3d 6e59 a23d 3303 88be
00000330: 1d2e 86bc c21c fd3d 8e08 523d 1d14 95be
00000340: 4cdd 38be e262 40bd 9f2e 0abd 1ed2 84be
00000350: b69d 81bd afc8 f7bc 5e32 2dbe 17c3 6e3d
00000360: 875c b9b8 43a0 23bd 82c8 91bc 831d 81bc
00000370: 0d62 613d edef 6e3d 37b6 e7bd 96f5 c3bd
00000380: 5a11 ccbd 0dca 3a3c c463 7e3d 5d3f d3bb
00000390: 5e9e ad3d f6b0 8dbc 4136 fe3d 8449 aabc
000003a0: fb99 b0bc 138d dbba 4594 c53d 780e 3c3c
000003b0: d43c 15be cb13 babd 1c02 b3bd cc1f 2d3d
000003c0: 8206 893c 27a8 c73c 744f 23bd cda3 e8bd
000003d0: c713 6bbd 655a 57be d558 92bd 0ee4 043e
000003e0: e31d 8f3d 1be7 e13d 7127 7fbd 6a10 4b3c
000003f0: 6ac0 40bd 2bbd fc3d e46c dabd 58dd b23d

input_layer.bias f4 [128]
-0.13847348 0.15635525 0.20463799 -0.05479763 0.073332354 -0.03482055 0.22149488 0.24739085
-0.17810123 -0.057121113 -0.20431864 0.21248437 -0.063364886 0.3065619 -0.0010539803 0.2457914
0.07787217 -0.18062095 0.29450008 0.057859723 -0.10267212 0.20630144 -0.0021604383 -0.07834741
-0.07460766 -0.064320736 -0.0586374 0.05670433 -0.030638056 0.107175164 0.04060969 -0.07824582
0.2715833 -0.061236158 0.098029986 -0.040989254 -0.1990933 0.07666097 0.003511084 -0.13042003
-0.13593507 0.23585048 0.10222484 -0.027654141 -0.017690135 0.13326538 0.16046189 0.0940887
-0.05452658 -0.019568367 -0.13807052 0.11113039 0.061161652 0.019125817 -0.17765741 -0.126775
0.037514042 -0.07814984 -0.18351795 0.07671409 0.009951657 -0.14489557 0.114287 0.005915078
0.11547184 -0.04850658 0.011309463 -0.02357586 -0.16018353 -0.012996239 0.24980842 -0.16670339
0.2072163 0.21785815 0.24578033 -0.130647 0.20685557 -0.09910883 -0.0893554 0.1821279
-0.046762656 -0.014903959 -0.005872996 0.17764743 -0.024905901 0.21397369 0.018995672 -0.03855943
-0.091435455 -0.066007376 0.31616497 0.39991558 0.047061075 0.108263925 -0.065063745 0.0704734
0.1754468 0.08671256 0.09007203 0.0004857512 0.22583155 0.25960332 0.1359727 0.20992579
-0.0194572 0.11795606 -0.043089684 0.042641204 -0.16469938 0.2138081 -0.01811498 -0.042776763
-0.11978379 -0.1494862 -0.06468082 -0.12279378 -0.084114216 -0.15751542 -0.05343872 -0.11743767
0.03745463 -0.045445185 -0.036913298 -0.14068945 -0.08832808 -0.060876098 -0.18850757 0.0116844075
00000000: fecb 0dbe 971b 203e 9f8c 513e 7b73 60bd
00000010: 462f 963d fe9f 0ebd 8ecf 623e 0754 7d3e
00000020: 2b60 36be d4f7 69bd e838 51be 8195 593e
00000030: 73c5 81bd aef5 9c3e b625 8aba beb0 7b3e
00000040: 727b 9f3d b3f4 38be b7c8 963e 51fe 6c3d
00000050: c345 d2bd af40 533e 2496 0dbb 9b74 a0bd
00000060: e7cb 98bd 97ba 83bd c52d 70bd cd42 683d
00000070: a9fc fabc a77e db3d 5956 263d 583f a0bd
00000080: f70c 8b3e c4d2 7abd f2c3 c83d 59e4 27bd
00000090: 1ddf 4bbe 6d00 9d3d 371a 663b d48c 05be
000000a0: 9032 0bbe ca82 713e 425b d13d f08a e2bc
000000b0: e7ea 90bc b876 083e 1f50 243e 94b1 c03d
000000c0: 4357 5fbd d74d a0bc 5c62 0dbe 5498 e33d
000000d0: a484 7a3d bfad 9c3c d3eb 35be 4ed1 01be
000000e0: 53a8 193d 060d a0bd 21ec 3bbe 471c 9d3d
000000f0: 460c 233c 815f 14be 4d0f ea3d 45d3 c13b
00000100: 807c ec3d d6ae 46bd 534b 393c 2922 c1bc
00000110: 2707 24be 2dee 54bc c7cd 7f3e 4bb4 2abe
00000120: 8230 543e 3516 5f3e d7ad 7b3e 54c8 05be
00000130: f2d1 533e 92f9 cabd f7ff b6bd bc7f 3a3e
00000140: 338a 3fbd bc2f 74bc 4372 c0bb 35e9 353e
00000150: 7607 ccbc eb1b 5b3e d09c 9b3c 7ef0 1dbd
00000160: 8342 bbbd e02e 87bd 60e0 a13e bcc1 cc3e
00000170: 1dc3 403d 7ab9 dd3d 2440 85bd 5c54 903d
00000180: 53a8 333e 5b96 b13d af77 b83d 6cac fe39
00000190: 6340 673e baea 843e 6d3c 0b3e c9f6 563e
000001a0: b564 9fbc f292 f13d cf7e 30bd 8ba8 2e3d
000001b0: f4a6 28be 83f0 5a3e de65 94bc b036 2fbd
000001c0: 3451 f5bd e912 19be 6177 84bd 4e7b fbbd
000001d0: 1344 acbd b94b 21be 8fe2 5abd 2983 f0bd
000001e0: 076a 193d bb24 3abd 6632 17bd e510 10be
000001f0: 5ae5 b4bd 3759 79bd 2108 41be f56f 3f3c

hidden_1.weight f4 [128, 128]
-0.037748497 -0.037827443 0.007415291 -0.010510225 -0.08545661 0.012262838 -0.04239919 -0.109513365
0.009197404 -0.01888098 0.004714651 0.0126274675 0.025618326 -0.11635266 -0.09584317 0.05687273
0.0039063734 -0.06374604 -0.007175571 -0.016097415 -0.0034743769 -0.082205154 0.06846923 -0.028397832
-0.055176873 -0.00068201666 0.013867484 -0.028942162 -0.091953374 0.053073432 -0.08172848 -0.049231436
-0.025220945 -0.07854097 0.06087995 -0.06913539 -0.027765485 -0.077907614 0.025001846 0.0017223513
0.045238174 -0.036963467 -0.11350022 -0.0012237515 -0.103553966 -0.08491136 -0.047514826 -0.08787654
-0.009638105 -0.029042756 -0.02905595 -0.13436687 0.017341746 -0.13906948 0.024737127 0.07915621
-0.09499879 -0.039849054 -0.08185142 0.053842142 0.000659132 -0.0026207925 0.008135839 -0.019930191
0.020686502 -0.0798442 0.061575457 0.0324727 -0.039685626 -0.08214436 -0.05725467 -0.058297377
-0.07008345 -0.044490244 -0.16606587 0.10833834 -0.041377787 0.057434797 -0.034582376 -0.030279165
-0.01815888 -0.076090164 0.052099545 -0.031946342 0.012385855 0.049101174 -0.03499351 -0.0362253
0.016112648 -0.090245284 -0.11673775 0.022723895 0.033249617 -0.07465788 0.053781535 -0.024488918
-0.0357888 -0.039933868 -0.060409233 0.031488553 -0.02528803 -0.0061510378 0.024666421 -0.08001523
0.006542835 -0.0068756524 0.0083093885 -0.09620187 -0.06867045 -0.0456445 -0.09110311 -0.028416239
0.07980641 0.025974533 0.05450134 0.003904657 0.04446627 0.010472338 -0.12953243 -0.010397465
0.028189335 0.04124278 0.012636226 -0.06457946 0.04422076 -0.00023785088 0.021839373 -0.041790742
0.047555864 -0.018192304 -0.052285336 -0.017088363 0.037566368 -0.07379474 -0.00425858 -0.0339419
0.018763456 0.039535493 -0.027306302 -0.06582529 -0.00044757998 -0.074417144 -0.08196981 -0.05270244
0.0030439093 0.079437256 -0.08059375 -0.010986302 -0.003610586 -0.020004323 -0.040692333 0.064278886
0.0074100653 0.034808137 -0.07058648 -0.00015145494 -0.12709811 -0.11384334 0.0019218012 -0.07243949
-0.024985803 -0.09496558 0.028587947 -0.029316522 0.012547676 -0.09827693 0.030936139 -0.00831945
0.049237106 -0.00039486372 -0.040857602 0.016007142 -0.06117239 -0.11181327 -0.057522014 0.049751077
-0.051248595 0.004620528 0.061618757 -0.0044305096 -0.05403551 -0.04058234 0.03905289 0.0658958
-0.052719243 0.006303607 -0.113115795 -0.10619218 0.02209621 0.015194273 -0.029737987 -0.0031998435
0.06622446 -0.10080844 -0.00481359 -0.031958852 -0.033373505 0.056218404 -0.021809155 -0.010816238
0.003832396 0.005177841 -0.09065144 -0.080586515 0.02087728 -0.092067584 -0.0895279 0.047128636
0.04146724 -0.036820997 -0.024312293 0.06506341 -0.05392934 -0.04497285 -0.019859001 0.049954906
-0.11301809 -0.035330467 -0.08121633 0.046828188 -0.081632785 0.050379496 0.040102795 -0.0972107
-0.10789482 -0.09723916 0.021182392 0.02672776 0.07448505 -0.015151272 -0.06835155 0.048276704
-0.03250636 -0.06158258 -0.08007467 -0.07293532 0.042060092 -0.057854112 -0.113685586 0.03433276
0.04290338 -0.03742495 0.010392204 0.05277506 0.017052475 -0.0068864403 0.075659215 -0.05367808
-0.09504761 -0.10372843 -0.109449014 0.024215458 0.04326137 -0.0065659704 0.026690654 0.050239183
00000000: 2b9e 1abd f3f0 1abd f8fb f23b 1433 2cbc
00000010: e003 afbd 12ea 483c c6aa 2dbd 8b48 e0bd
00000020: b5b0 163c 49ac 9abc 5c7d 9a3b 70e3 4e3c
00000030: 86dd d13c 4e4a eebd 6d49 c4bd 61f3 683d
00000040: 0901 803b 498d 82bd 0d21 ebbb bade 83bc
00000050: 5fb2 63bb 2d5b a8bd 9839 8c3d 92a2 e8bc
00000060: 2501 62bd 5dc9 32ba 7234 633c 1d18 edbc
00000070: 0d52 bcbd 8763 593d 4361 a7bd e7a6 49bd
00000080: 289c cebc 17da a0bd 415d 793d db96 8dbd
00000090: 7174 e3bc 078e 9fbd acd0 cc3c 85c0 e13a
000000a0: aa4b 393d 0167 17bd ce72 e8bd 4966 a0ba
000000b0: 1a14 d4bd 02e6 adbd e89e 42bd 9ef8 b3bd
000000c0: 24e9 1dbc 13eb edbc be06 eebc 7897 09be
000000d0: 4710 8e3c 3b68 0ebe 84a5 ca3c a71c a23d
000000e0: ba8e c2bd c338 23bd b8a1 a7bd 9489 5c3d
000000f0: 9ac9 2c3a 9ac1 2bbb 2f4c 053c a444 a3bc
00000100: bd76 a93c 5b85 a3bd 8c36 7c3d 1802 053d
00000110: 658d 22bd 4d3b a8bd df83 6abd 3bc9 6ebd
00000120: e987 8fbd 673b 36bd 2c0d 2abe 7ee0 dd3d
00000130: c17b 29bd c040 6b3d 40a6 0dbd 030c f8bc
00000140: eec1 94bc 29d5 9bbd 5566 553d 2bda 02bd
00000150: 0bee 4a3c 501e 493d 5b55 0fbd fb60 14bd
00000160: acfe 833c 85d2 b8bd 3414 efbd 7627 ba3c
00000170: c030 083d 3be6 98bd 074a 5c3d fc9c c8bc
00000180: 4797 12bd b291 23bd ac6f 77bd 24fa 003d
00000190: d828 cfbc a58e c9bb 3c11 ca3c 06df a3bd
000001a0: 4765 d63b 274d e1bb 1a24 083c 7c05 c5bd
000001b0: 18a3 8cbd baf5 3abd 4494 babd 2cc9 e8bc
000001c0: 8b71 a33d 8bc8 d43c cc3c 5f3d 46e5 7f3b
000001d0: 4322 363d 2b94 2b3c 26a4 04be 215a 2abc
000001e0: 52ed e63c 30ee 283d 2c08 4f3c 3c42 84bd
000001f0: d420 353d 9c67 79b9 7ce8 b23c c52c 2bbd
00000200: f0c9 423d 0708 95bc 2629 56bd e5fc 8bbc
00000210: 31df 193d b221 97bd 8f8b 8bbb a906 0bbd
00000220: d2b5 993c f8ef 213d 77b1 dfbc 69cf 86bd
00000230: 2ba9 eab9 0468 98bd cadf a7bd 84de 57bd
00000240: 537c 473b 00b0 a23d 560e a5bd e4ff 33bc
00000250: 959f 6cbb 1be0 a3bc 01ad 26bd a6a4 833d
00000260: 22d0 f23b fa92 0e3d a58f 90bd e0cf 1eb9
00000270: 0226 02be b226 e9bd f3e4 fb3a 285b 94bd
00000280: 07af ccbc 507d c2bd 4531 ea3c 3429 f0bc
00000290: c594 4d3c 6a45 c9bd c96d fd3c 4d4e 08bc
000002a0: d9ac 493d b605 cfb9 4d5a 27bd 6921 833c
000002b0: e68f 7abd 5bfe e4bd 349c 6bbd c9c7 4b3d
000002c0: 0cea 51bd cc67 973b f363 7c3d cf2d 91bb
000002d0: 5754 5dbd ab39 26bd ecf5 1f3d 61f4 863d
000002e0: 22f0 57bd 7d8e ce3b 41a9 e7bd 497b d9bd
000002f0: 1c03 b53c 66f1 783c 149d f3bc 77b4 51bb
00000300: b1a0 873d a874 cebd 52bb 9dbb 49e7 02bd
00000310: a8b2 08bd 4545 663d 1da9 b2bc 9736 31bc
00000320: ef28 7b3b e1aa a93b 76a7 b9bd 8b0a a5bd
00000330: d406 ab3c ee8d bcbd 675a b7bd f509 413d
00000340: 8dd9 293d 9dd1 16bd 932a c7bc f73f 853d
00000350: 03e5 5cbd 7335 38bd 58af a2bc 849d 4c3d
00000360: 0776 e7bd aeb6 10bd bf54 a6bd eace 3f3d
00000370: 172f a7bd bb5a 4e3d d442 243d 6716 c7bd
00000380: f6f7 dcbd 5325 c7bd b286 ad3c 2df4 da3c
00000390: 9e8b 983d 0a3d 78bc e6fb 8bbd cbbd 453d
000003a0: 6425 05bd 043e 7cbd 30fe a3bd 1d5f 95bd
000003b0: 3447 2c3d 6ff8 6cbd fdd3 e8bd 82a0 0c3d
000003c0: 74bb 2f3d e84a 19bd 1044 2a3c a92a 583d
000003d0: a2b1 8b3c a6a7 e1bb 38f3 9a3d 8cdd 5bbd
000003e0: 52a8 c2bd 926f d4bd ce26 e0bd 7f5f c63c
000003f0: d632 313d 5a27 d7bb 5ca6 da3c 9ac7 4d3d

hidden_1.bias f4 [128]
-0.014418334 -0.049332675 0.17706452 0.003976665 0.0670443 0.12997936 -0.062197484 -0.019405412
-0.0037604945 -0.047750454 0.12888837 0.044700474 0.13984331 -0.08750575 0.07237903 0.083467014
-0.00702809 -0.12597622 0.036928758 -0.05938397 0.061167255 -0.077424906 -0.073100366 -0.019032734
-0.009313504 0.010469567 0.20820098 0.16956106 -0.045372516 0.0015803778 0.14232713 -0.10964414
-0.10933727 0.1592595 0.18365936 0.10952895 0.044024117 0.024965666 0.037744895 -0.047059644
-0.05093897 0.16356558 -0.09559578 -0.010433181 0.031001166 -0.12136937 -0.027681371 -0.048487812
-0.027544731 0.0014310336 -0.09479684 -0.015305405 -0.040092926 -0.11584952 0.16510631 -0.088614024
-0.09225257 0.18707325 -0.057074264 0.25410125 0.15000632 -0.059318054 0.042279944 -0.021822164
-8.705729e-05 0.085933395 0.008690175 0.09347902 0.07742954 -0.06537558 -0.019270772 0.11598756
-0.08684797 0.057119697 0.14860335 -0.0524109 -0.09332016 0.010606596 0.17887108 -0.08414013
0.12314432 -0.06387819 -0.06616221 -0.08890848 -0.07399072 -0.06133435 -0.0747087 -0.03826471
-0.015779229 0.13029155 -0.0023690301 0.10457689 -0.0028989716 -0.035927404 -0.018286828 0.05557412
0.04050545 0.14193504 -0.07271805 -0.062387966 0.17025572 -0.061542723 0.16281492 -0.08670696
-0.079185225 0.084472395 0.19533445 -0.09949177 0.07428925 -0.089793004 -0.07714414 -0.015101731
0.12874752 -0.05253797 -0.08152096 0.0337015 -0.0106190005 -0.10773709 -0.07721687 -0.08439427
0.1679132 -0.028439054 -0.025724875 -0.036478546 -0.059027217 -0.063610725 0.119851425 -0.11244444
00000000: e03a 6cbc 0f11 4abd 6750 353e af4e 823b
00000010: 864e 893d 4f19 053e cac2 7ebd 19f8 9ebc
00000020: a172 76bb fb95 43bd 50fb 033e d817 373d
00000030: 1633 0f3e 3736 b3bd 753b 943d c1f0 aa3d
00000040: e44b e6bb e9ff 00be 9c42 173d 9b3c 73bd
00000050: 848a 7a3d f390 9ebd a5b5 95bd 89ea 9bbc
00000060: ab97 18bc 8c88 2b3c a332 553e 6aa1 2d3e
00000070: 88d8 39bd ae24 cf3a 34be 113e 1b8d e0bd
00000080: 38ec dfbd ec14 233e 3311 3c3e b750 e03d
00000090: a252 343d cc84 cc3c 649a 1a3d 9dc1 40bd
000000a0: 62a5 50bd bc7d 273e b8c7 c3bd efef 2abc
000000b0: 28f6 fd3c 8190 f8bd 0bc4 e2bc 289b 46bd
000000c0: 7da5 e1bc 8591 bb3a d824 c2bd 85c3 7abc
000000d0: 7b38 24bd 8342 edbd a111 293e 457b b5bd
000000e0: eaee bcbd 2190 3f3e b4c6 69bd 8f19 823e
000000f0: 429b 193e 7df7 72bd bc2d 2d3d 65c4 b2bc
00000100: 8792 b6b8 d9fd af3d 3c61 0e3c ee71 bf3d
00000110: 6193 9e3d a2e3 85bd bddd 9dbc e38a ed3d
00000120: 59dd b1bd 58f6 693d 7a2b 183e d0ac 56bd
00000130: a41e bfbd 4ac7 2d3c fb29 373e a951 acbd
00000140: 1733 fc3d 92d2 82bd 0e80 87bd a615 b6bd
00000150: 7288 97bd ba39 7bbd e000 99bd 75bb 1cbd
00000160: 7143 81bc 266b 053e bb41 1bbb 692c d63d
00000170: acfc 3dbb 9d28 13bd 42ce 95bc b0a1 633d
00000180: 0be9 253d 6b57 113e 33ed 94bd 868a 7fbd
00000190: 8457 2e3e 3914 7cbd f4b8 263e 6b93 b1bd
000001a0: dd2b a2bd ddff ac3d c105 483e 57c2 cbbd
000001b0: f624 983d 65e5 b7bd bffd 9dbd 406d 77bc
000001c0: 64d6 033e 0e32 57bd 76f4 a6bd 960a 0a3d
000001d0: 51fb 2dbc 43a5 dcbd e123 9ebd e7d6 acbd
000001e0: 70f1 2b3e 05f9 e8bc f9bc d2bc 876a 15bd
000001f0: 86c6 71bd 5746 82bd aa74 f53d 4549 e6bd

hidden_2.weight f4 [128, 128]
-0.02494133 -0.04737891 -0.0116035305 0.04069358 -0.082901865 0.032802224 -0.04338337 0.048313837
0.11560947 -0.03932153 -0.035429537 -0.005585984 -0.094760165 -0.011939932 -0.11527379 0.12504506
-0.03797418 -0.120933615 0.08794968 -0.027651593 -0.079171225 0.095754124 -0.0023234114 0.024228413
0.008462443 0.030959457 -0.16452125 0.04531982 -0.0054467767 0.02242394 0.009197191 0.054187138
0.0972376 -0.13493094 -0.18326272 0.068998374 0.045798484 -0.07983429 -0.07242568 0.03723544
-0.043679904 0.018927688 -0.07936794 0.14721131 -0.080884226 -0.09114771 0.055316333 -0.086440794
-0.010535236 0.007484364 -0.035279054 0.028413722 -0.009534803 0.023627792 -0.21787593 0.077970535
-0.021825118 -0.024573633 0.04339412 -0.010725895 0.00975426 -0.034791544 -0.050514005 0.04782845
0.049144004 0.046267066 0.020993134 0.042585485 0.07111312 -0.05100724 -0.021700298 0.025395978
-0.012233304 0.09432961 -0.020635772 -0.007528639 0.045643385 -0.018070646 -0.12609084 -0.007257513
0.08288575 0.05380224 0.023612905 -0.01961096 0.030667646 0.044454433 0.03446327 0.036127783
0.09075973 -0.05265524 -0.13823159 0.023615634 0.07322558 -0.1451004 -0.016682738 -0.045555927
-0.080455996 -0.0034185715 0.009754788 0.037446275 -0.12594242 0.0066355052 -0.12836379 -0.08936262
0.05945738 0.018865438 -0.17510854 -0.031446107 -0.053336367 0.11336009 -0.038169578 0.014999881
-0.028229408 0.04166937 0.058948636 0.114561066 0.056803215 -0.030768989 -0.039772663 0.0662204
0.0072275335 0.08228618 0.10087902 0.072917774 0.09935789 -0.00026787008 -0.07774609 0.07227922
0.06919191 0.07823091 -0.0933628 -0.054195255 -0.19798616 -0.029321365 -0.0019771238 0.03677365
-0.052404933 0.041546747 -0.011773482 0.018572276 -0.045443095 0.09900046 0.019215127 0.08361519
0.09592684 -0.08064099 0.020739697 0.104140654 0.013796187 -0.07262331 0.0036783565 0.04680621
0.0104792835 -0.03688361 -0.048974942 -0.06679164 -0.06799028 0.020934325 0.009171979 0.08723421
-0.036058005 0.03626373 -0.08769927 0.025279697 -0.027605982 0.10996066 -0.041901518 -0.010127402
0.023588832 0.005614221 -0.10857039 0.15995812 -0.022022411 0.08763492 -0.065163724 0.047109026
0.069792576 -0.03920731 -0.060804818 0.041849535 0.018644482 0.055049025 -0.12424154 0.11438143
0.029499197 -0.008563159 0.01721201 -0.030667847 0.03646898 -0.0356767 -0.025499169 0.052122947
0.11552706 0.039475847 -0.05724894 -0.040048495 -0.08270365 0.021178197 0.08014606 0.04201103
0.06835708 -0.035707917 -0.075247765 -0.036407325 0.041920263 -0.023931565 -0.033275597 -0.052541565
0.098655984 -0.023757564 -0.012606945 0.047068287 0.086426444 -0.085996225 0.10788648 0.01074445
0.07297215 -0.055478275 -0.13114776 0.061554193 -0.020157242 0.061136637 -0.0886489 0.023517774
0.08315879 -0.079874 -0.014130309 0.05686071 -0.09531507 -0.0097219655 -0.13600257 0.10013119
-0.023833023 -0.09215145 0.115718685 -0.009966431 0.1309783 0.10766616 -0.012567562 0.06292975
0.0070725786 0.044655737 0.13184182 -0.009372465 0.032494787 0.082936086 0.009598903 -0.10118844
0.065335594 -0.033031743 -0.038346887 0.016419904 0.10119261 -0.0019885923 -0.033997975 0.0042446004
00000000: c351 ccbc 6310 42bd bc1c 3ebc 50ae 263d
00000010: 74c8 a9bd a05b 063d c3b2 31bd bbe4 453d
00000020: a8c4 ec3d 9d0f 21bd 901e 11bd a10a b7bb
00000030: 9e11 c2bd b49f 43bc aa14 ecbd d00b 003e
00000040: d08a 1bbd 0bac f7bd f61e b43d 9885 e2bc
00000050: 8624 a2bd bd1a c43d 6044 18bb aa7a c63c
00000060: 0fa6 0a3c b09e fd3c 4278 28be 47a1 393d
00000070: e07a b2bb 69b2 b73c d1af 163c 55f3 5d3d
00000080: 8224 c73d 562b 0abe 39a9 3bbe 054f 8d3d
00000090: 3197 3b3d 2980 a3bd ea53 94bd 3084 183d
000000a0: b3e9 32bd 3d0e 9b3c a98b a2bd 90be 163e
000000b0: a1a6 a5bd a7ab babd 6193 623d df07 b1bd
000000c0: fc9b 2cbc 653f f53b c580 10bd e5c3 e83c
000000d0: dd37 1cbc 128f c13c de1a 5fbe 04af 9f3d
000000e0: 97ca b2bc a54e c9bc 08be 313d aabb 2fbc
000000f0: 55d0 1f3c 9481 0ebd c6e7 4ebd c4e7 433d
00000100: 394b 493d 8982 3d3d cbf9 ab3c 1e6e 2e3d
00000110: c1a3 913d f8ec 50bd d3c4 b1bc 3a0b d03c
00000120: 326e 48bc e22f c13d 5a0c a9bc cdb2 f6bb
00000130: 8ff4 3a3d e408 94bc f51d 01be 6ed0 edbb
00000140: 01c0 a93d bd5f 5c3d da6f c13c 2aa7 a0bc
00000150: b73a fb3c da15 363d 5c29 0d3d bafa 133d
00000160: 3de0 b93d 05ad 57bd 958c 0dbe 9375 c13c
00000170: 4bf7 953d 3395 14be 3daa 88bc da98 3abd
00000180: 1dc6 a4bd 1d0a 60bb 8cd2 1f3c 4461 193d
00000190: 0df7 00be a76e d93b cc71 03be c003 b7bd
000001a0: 9589 733d b18b 9a3c a74f 33be a2cd 00bd
000001b0: 3c77 5abd 5629 e83d b457 1cbd 10c2 753c
000001c0: 5c41 e7bc 80ad 2a3d 2074 713d fe9e ea3d
000001d0: 7daa 683d 3f0f fcbc a9e8 22bd 909e 873d
000001e0: f2d4 ec3b a885 a83d a999 ce3d ea55 953d
000001f0: 267c cb3d ea70 8cb9 5839 9fbd 2107 943d
00000200: 7db4 8d3d 8737 a03d ff34 bfbd d8fb 5dbd
00000210: e2bc 4abe 5c33 f0bc a292 01bb f89f 163d
00000220: 8ea6 56bd ec2c 2a3d 90e5 40bc e324 983c
00000230: 8a22 3abd c1c0 ca3d 0b69 9d3c 713e ab3d
00000240: 4b75 c43d 1a27 a5bd 4ce6 a93c b247 d53d
00000250: 6709 623c 88bb 94bd 9510 713b deb7 3f3d
00000260: 4db1 2b3c 4513 17bd f399 48bd 0eca 88bd
00000270: 7d3e 8bbd 767e ab3c 1146 163c d9a7 b23d
00000280: 8fb1 13bd 4789 143d ad9b b3bd 5e17 cf3c
00000290: f125 e2bc 0e33 e13d eda0 2bbd 67ed 25bc
000002a0: 5e3d c13c 80f7 b73b 275a debd 10cc 233e
000002b0: 5868 b4bc f079 b33d 8f74 85bd 65f5 403d
000002c0: 69ef 8e3d d897 20bd 790e 79bd 6b6a 2b3d
000002d0: 50bc 983c 167b 613d 5972 febd d040 ea3d
000002e0: 4da8 f13c 7e4c 0cbc 3400 8d3c 233b fbbc
000002f0: 7f60 153d bb21 12bd a2e3 d0bc df7e 553d
00000300: 7499 ec3d 6db1 213d dd7d 6abd e409 24bd
00000310: 8860 a9bd e67d ad3c 9e23 a43d c213 2c3d
00000320: ccfe 8b3d 7742 12bd 801b 9abd d91f 15bd
00000330: 95b4 2b3d 210c c4bc fe4b 08bd d335 57bd
00000340: 260c ca3d 399f c2bc 5c8d 4ebc adca 403d
00000350: 5900 b13d ca1e b0bd 96f3 dc3d 7d09 303c
00000360: 6c72 953d 303d 63bd 994b 06be 4020 7c3d
00000370: cd20 a5bc 696a 7a3d 8e8d b5bd 59a8 c03c
00000380: 284f aa3d fb94 a3bd d082 67bc c7e6 683d
00000390: 8c34 c3bd e148 1fbc 4244 0bbe 9511 cd3d
000003a0: 793d c3bc e6b9 bcbd ebfd ec3d 3e4a 23bc
000003b0: 2d1f 063e 1380 dc3d 2de8 4dbc 50e1 803d
000003c0: 17c1 e73b efe8 363d 8b01 073e f88e 19bc
000003d0: 4119 053d 65da a93d b844 1d3c e33b cfbd
000003e0: abce 853d 4b4c 07bd a011 1dbd 0983 863c
000003f0: 123e cf3d 0b53 02bb 7641 0bbd 4a16 8b3b

hidden_2.bias f4 [128]
0.031002458 -0.007579963 -0.028647566 -0.021001127 -0.05665109 0.004902213 0.04973791 0.13320513
0.006856298 -0.06654036 0.13046075 0.1124621 -0.088058256 0.0053520356 0.049735144 0.038159974
-0.062016618 -0.01755404 0.05300182 -0.11178666 -0.06413509 0.08544289 -0.12676495 -0.08237266
0.0060702474 0.07317866 0.15189475 0.015719041 -3.70632e-05 0.037948314 0.12701775 -0.10674388
0.16489245 0.1765469 0.04581417 -0.06555961 -0.036972754 -0.030780615 -0.015255235 -0.041887768
0.007968669 -0.025197467 -0.027034096 -0.01143578 0.018746043 0.12263419 0.13553385 -0.113346055
-0.030316975 -0.103145406 0.084221624 -0.078115955 0.044961862 0.064719595 0.082278065 -0.08648369
0.19924504 -0.029016702 0.11510506 0.016358517 -0.028141081 -0.05639878 0.025899189 0.02399755
-0.076910436 0.086824454 -0.0323153 -0.0712989 -0.056271322 0.15783308 -0.07849651 0.05969518
0.07971565 -0.010599592 0.15722741 0.09811286 0.066477105 -0.04381567 0.020763429 0.020715702
-0.017366918 0.009748917 0.16495292 -0.008248376 0.20097005 -0.07793903 -0.10276801 -0.1126661
0.16183855 -0.08173459 0.06397287 0.09210353 -0.07240879 0.11249923 -0.05210982 -0.042092837
-0.0011522571 -0.05627555 0.17459626 -0.061426505 0.054054037 0.00072397996 0.16140866 0.0019639034
-0.048975665 -0.002769757 -0.040880438 -0.062649265 0.042655744 0.13772082 0.17687953 0.025180394
-0.08303369 -0.123398855 0.023560973 -0.019883212 0.26214105 -0.10061251 -0.074956164 0.029702118
0.17663024 -0.06459109 -0.03205807 0.2077324 0.04201706 -0.0377351 -0.099776104 0.026469475
00000000: def8 fd3c 5761 f8bb 4dae eabc 8e0a acbc
00000010: f90a 68bd bea2 a03b fbb9 4b3d ed66 083e
00000020: ccaa e03b 5046 88bd 8197 053e 8852 e63d
00000030: e357 b4bd 2160 af3b 14b7 4b3d a24d 1c3d
00000040: 2305 7ebd 7dcd 8fbc 7018 593d 68f0 e4bd
00000050: 4259 83bd affc ae3d acce 01be ffb2 a8bd
00000060: ede8 c63b b1de 953d 4c8a 1b3e 38c5 803c
00000070: 4f74 1bb8 b16f 1b3d f110 023e 899c dabd
00000080: 91d9 283e b6c8 343e a4a7 3b3d 1e44 86bd
00000090: be70 17bd a127 fcbc 18f1 79bc 8292 2bbd
000000a0: 058f 023c eb6a cebc 9c76 ddbc 235d 3bbc
000000b0: 4d91 993c a227 fb3d 63c9 0a3e fa21 e8bd
000000c0: 4e5b f8bc e63d d3bd 637c ac3d 42fb 9fbd
000000d0: ee29 383d b58b 843d 6781 a83d 5c1e b1bd
000000e0: e406 4c3e 6fb4 edbc 34bc eb3d 4c02 863c
000000f0: 2088 e6bc 6802 67bd 892a d43c 8396 c43c
00000100: 3883 9dbd 05d1 b13d 0c5d 04bd 2805 92bd
00000110: c27c 66bd ff9e 213e c7c2 a0bd ef82 743d
00000120: f541 a33d e9a9 2dbc 3900 213e 65ef c83d
00000130: 2625 883d 0f78 33bd 1118 aa3c fab3 a93c
00000140: 1145 8ebc ecb9 1f3c 6be9 283e 3224 07bc
00000150: 18cb 4d3e 809e 9fbd 0978 d2bd 7cbd e6bd
00000160: 01b9 253e 7764 a7bd 3504 833d c7a0 bc3d
00000170: 0f4b 94bd ff65 e63d 1b71 55bd 8a69 2cbd
00000180: 5507 97ba 3181 66bd 5dc9 323e 5c9a 7bbd
00000190: c467 5d3d 79c9 3d3a 5048 253e d5b4 003b
000001a0: b59a 48bd d084 35bb 3f72 27bd 424e 80bd
000001b0: cab7 2e3d b006 0d3e e81f 353e 1d47 ce3c
000001c0: 910d aabd 8ab8 fcbd f102 c13c 1ee2 a2bc
000001d0: 5a37 863e ef0d cebd 9e82 99bd db51 f33c
000001e0: 8fde 343e 5548 84bd 534f 03bd cdb7 543e
000001f0: 151a 2c3d 1f90 1abd 6a57 ccbd 83d6 d83c

hidden_3.weight f4 [128, 128]
0.00992915 0.081373766 0.027359989 -0.06223032 -0.0005883215 -0.0023456095 -0.034591682 0.065654986
0.05683449 -0.11022693 0.013390671 -0.0117896125 -0.06846257 0.05848236 -0.028846845 -0.13914356
-0.068266846 -0.20091227 -0.053993464 0.083407216 0.029862454 -0.12978292 0.030899864 -0.019254293
-0.031189444 0.022379443 -0.003003348 -0.03767792 0.078274176 -0.08502515 -0.08697098 -0.036828283
-0.16196701 -0.12247009 -0.07073749 -0.07769548 -0.05814476 -0.018411659 -0.021338552 -0.11185944
0.0042567784 -0.02153684 -0.08102636 0.048599124 0.006312747 0.016449125 0.049555175 0.029589517
0.026302718 -0.1574851 0.0023616639 -0.020630527 0.004988218 0.05496344 -0.06335076 -0.014947555
0.061739333 0.07806591 -0.07377308 -0.032339405 0.032769594 -0.08987241 0.01664671 -0.0554212
0.1059164 0.06389156 -0.0622529 0.07804787 -0.06703157 -0.04284267 -0.060777046 0.05504866
-0.10682209 -0.111921676 0.053690027 -0.06156239 -0.08516777 -0.062972605 0.032857988 -0.02310462
-0.0022642622 0.10536745 0.06668149 -0.057479694 0.016504293 -0.003855218 -0.030005932 -0.019287819
0.0067683593 -0.04893383 -0.013108233 0.06178177 -0.16516083 -0.112738036 -0.0733313 0.0041908855
-0.025867581 -0.041814443 -0.03950648 -0.018926777 0.04373742 -0.10384618 -0.10599514 0.09498896
-0.091427535 0.03854741 -0.02370072 0.027206574 -0.017992424 -0.00054453826 -0.16523422 -0.017005868
-0.044529367 0.07266979 -0.040296715 0.0035773283 -0.06272277 0.040659435 0.0871488 0.09971348
-0.03563261 0.012537627 -0.04411153 -0.0830435 -0.033537574 0.04855618 0.06485722 -0.027922463
-0.035832603 -8.072334e-05 -0.040880084 -0.06727234 -0.06015538 -0.023303082 -0.122281335 0.028685305
0.008721527 -0.040281016 0.025501274 -0.19462596 0.09514913 0.06002084 0.088220194 -0.06559227
-0.08452182 -0.1697131 0.0404756 -0.0070539033 0.026704278 -0.08039913 0.021041013 -0.072289065
-0.01229238 0.052273855 0.104655504 -0.24291918 -0.08947341 -0.13759486 -0.0067990758 -0.12413519
0.01920781 0.1489197 0.043154214 -0.09234188 0.04344551 -0.071911275 0.06124169 -0.022470731
-0.031708524 -0.051935706 0.08815683 -0.025551967 0.013775472 0.072993465 0.010680737 -0.024581289
0.07597073 0.020368874 -0.01871001 -0.023255937 -0.049347878 0.08067614 -0.065379314 0.017200436
0.17322369 -0.0039822464 0.08955513 -0.06517621 -0.010947025 -0.35225648 0.005216664 -0.056128636
0.07519077 0.1061855 -0.036416553 -0.011925245 0.043571047 -0.058561172 0.032928113 -0.09331246
0.039328866 0.0927471 0.28480726 -0.023668472 0.024794249 -0.07305205 0.03207226 -0.04535778
-0.008476321 -0.022961807 0.08227086 -0.067216545 0.080228426 -0.22836404 -0.03532033 0.046341576
0.09446007 0.07362625 0.20534714 0.058713205 -0.039772466 -0.046731524 -0.09950677 0.07981816
0.06823098 0.0049703554 0.16531181 -0.022633698 -0.007526644 0.01974146 -0.033176832 -0.010729034
0.038249683 -0.082917884 0.018450817 0.07172774 0.0701288 0.15909594 -0.057246685 -0.06629131
-0.08134357 -0.05315733 -0.052968916 0.03821104 0.16210857 -0.004151207 0.03202198 -0.03558881
0.14362124 0.10032805 -0.053522594 0.034224972 -0.06478808 0.07287208 0.008664459 -0.028532749
00000000: e0ad 223c 4aa7 a63d 0e22 e03c 38e5 7ebd
00000010: 9639 1aba ccb8 19bb 02b0 0dbd 1f76 863d
00000020: 48cb 683d a8be e1bd 8c64 5b3c 3829 41bc
00000030: 1b36 8cbd 338b 6f3d 3850 ecbc a67b 0ebe
00000040: 7dcf 8bbd f2bb 4dbe 4028 5dbd 67d1 aa3d
00000050: 1ba2 f43c d0e5 04be b621 fd3c 2ebb 9dbc
00000060: 0181 ffbc 1855 b73c d1d3 44bb 2a54 1abd
00000070: 364e a03d aa21 aebd d71d b2bd 41d9 16bd
00000080: aeda 25be 99d1 fabd d1de 90bd cf1e 9fbd
00000090: 3329 6ebd 0cd4 96bc 30ce aebc 9016 e5bd
000000a0: 727c 8b3b 076e b0bc 26f1 a5bd e00f 473d
000000b0: 29db ce3b 51c0 863c 5efa 4a3d b765 f23c
000000c0: cc78 d73c c643 21be 25c6 1a3b 5a01 a9bc
000000d0: 3574 a33b 5821 613d 0bbe 81bd 97e6 74bc
000000e0: 62e2 7c3d 05e1 9f3d 5716 97bd 5376 04bd
000000f0: 6939 063d 070f b8bd ae5e 883c 5701 63bd
00000100: b3ea d83d 94d9 823d e6fc 7ebd 90d7 9f3d
00000110: d947 89bd cc7b 2fbd 5af1 78bd b47a 613d
00000120: 8ac5 dabd 3137 e5bd 13ea 5b3d d828 7cbd
00000130: 716c aebd c8f7 80bd 1996 063d e645 bdbc
00000140: 0464 14bb e4ca d73d 4e90 883d d46f 6bbd
00000150: 0334 873c d3a7 7cbb 00cf f5bc 7d01 9ebc
00000160: 1dc9 dd3b d76e 48bd eac3 56bc e20e 7d3d
00000170: ec1f 29be 33e3 e6bd b82e 96bd b253 893b
00000180: 40e8 d3bc 9f45 2bbd 8cd1 21bd 540c 9bbc
00000190: 0226 333d 4ead d4bd fb13 d9bd 9289 c23d
000001a0: 5c3e bbbd e4e3 1d3d 0328 c2bc 52e0 de3c
000001b0: d964 93bc 58bf 0eba 2933 29be e44f 8bbc
000001c0: 6d64 36bd e6d3 943d 2b0e 25bd 9c71 6a3b
000001d0: cc74 80bd 828a 263d 127b b23d 9536 cc3d
000001e0: 80f3 11bd 9e6a 4d3c 4bae 34bd b612 aabd
000001f0: b25e 09bd d8e2 463d ddd3 843d a6bd e4bc
00000200: 35c5 12bd 034a a9b8 e071 27bd 15c6 89bd
00000210: 7d65 76bd 1be6 bebc a36e fabd 72fd ea3c
00000220: bce4 0e3c b5fd 24bd 0ce8 d03c 074c 47be
00000230: 8cdd c23d 6ad8 753d caac b43d 3d55 86bd
00000240: c719 adbd 45c9 2dbe bec9 253d 6e24 e7bb
00000250: eec2 da3c 4da8 a4bd 345e ac3c 4a0c 94bd
00000260: fb65 49bc 1c1d 563d a055 d63d cebf 78be
00000270: d63d b7bd abe5 0cbe c8ca debb 973a febd
00000280: b259 9d3c 687e 183e 79c2 303d bd1d bdbd
00000290: ebf3 313d 3846 93bd 91d8 7a3d 8a14 b8bc
000002a0: cce0 01bd 89ba 54bd 918b b43d 5c52 d1bc
000002b0: 84b2 613c 997d 953d 42fe 2e3c b35e c9bc
000002c0: 8b96 9b3d a0dc a63c bc45 99bc 3c83 bebc
000002d0: 0021 4abd 8839 a53d 97e5 85bd eee7 8c3c
000002e0: 8d61 313e 817d 82bb ae68 b73d 1b7b 85bd
000002f0: 275b 33bc f65a b4be 8df0 aa3b 24e7 65bd
00000300: 9efd 993d c977 d93d 8629 15bd 1a62 43bc
00000310: 8e77 323d d7dd 6fbd a1df 063d 9a1a bfbd
00000320: 4e17 213d 31f2 bd3d 42d2 913e 62e4 c1bc
00000330: 4f1d cb3c 509c 95bd 345e 033d 14c9 39bd
00000340: 44e0 0abc 661a bcbc a07d a83d d4a8 89bd
00000350: cd4e a43d 43d8 69be 0dac 10bd aad0 3d3d
00000360: 4874 c13d 5cc9 963d 8546 523e 427d 703d
00000370: 74e8 22bd 8e69 3fbd 35ca cbbd b477 a33d
00000380: afbc 8b3d 5dde a23b 8047 293e 4e6a b9bc
00000390: 11a2 f6bb d8b8 a13c 6ee4 07bd d5c8 2fbc
000003a0: b3ab 1c3d dad0 a9bd 2b26 973c fee5 923d
000003b0: b09f 8f3d 0cea 223e 807b 6abd bdc3 87bd
000003c0: 7597 a6bd 80bb 59bd eff5 58bd 2e83 1c3d
000003d0: caff 253e d906 88bb 7b29 033d 92c5 11bd
000003e0: 7211 133e cb78 cd3d 823a 5bbd 7c2f 0c3d
000003f0: 9daf 84bd f53d 953d 60f5 0d3c 83bd e9bc

hidden_3.bias f4 [128]
0.048030168 0.21912658 0.07253976 -0.09353177 0.016533436 -0.029232152 0.081735924 0.055560183
-0.0740023 0.18939143 -0.004376128 -0.078043826 0.0829009 -0.021770792 0.07936325 0.048773702
-0.08922702 -0.060596127 0.098098904 -0.0869464 -0.052735616 -0.026047835 0.035754513 -0.12971325
0.03146755 0.034216456 -0.089718446 -0.057922933 -0.07037712 0.005438133 -0.014562436 -0.08070865
-0.013835392 -0.050983883 -0.04592518 0.10178193 0.027604738 -0.092820846 0.044761997 0.17813252
-0.037688732 -0.08764166 0.10999989 0.1396196 -0.07400793 -0.08472754 0.12207583 -0.039090134
0.033052105 -0.09482508 -0.010408365 -0.07121114 -0.06006908 -0.0037660368 -0.031618103 -0.07739443
0.062176656 0.022411974 0.016823322 0.041740775 -0.08898134 -0.08657556 0.09301861 0.06811059
-0.08195077 -0.034535315 -0.037932884 0.11510668 -0.09201891 0.012289752 -0.08497227 0.01020113
-0.095579304 0.07734604 -0.062270056 0.24505918 0.01088985 0.031781834 -0.09097131 0.028553443
0.014694259 0.032737624 0.19845669 0.0011209616 0.0019356323 0.13691571 0.029513154 0.0030973125
0.0474876 -0.09226098 0.07970291 -0.11360835 0.030541487 0.040317234 0.1274041 -0.018198708
-0.05611202 0.027196635 0.058430623 -0.052710883 -0.03542583 0.050381143 -0.03088665 -0.085302904
-0.045094244 0.027032917 -0.05860378 -0.11695656 0.0014152342 0.19943164 0.07751878 -0.016769918
0.01631888 0.019243594 0.041011132 0.014800784 0.066879734 -0.103895865 0.00012349778 -0.0520651
-0.035597935 -0.0830234 -0.015340783 -0.07285128 0.03637912 -0.09654714 -0.05973473 -0.05469234
00000000: 48bb 443d b862 603e ba8f 943d 968d bfbd
00000010: 2171 873c 4478 efbc 2a65 a73d 1393 633d
00000020: 858e 97bd d4ef 413e 9f65 8fbb 71d5 9fbd
00000030: f2c7 a93d a958 b2bc 3389 a23d efc6 473d
00000040: a8bc b6bd a533 78bd 14e8 c83d f410 b2bd
00000050: 4d01 58bd 4562 d5bc 5373 123d 8dd3 04be
00000060: 1ee4 003d 8e26 0c3d 4ebe b7bd 9940 6dbd
00000070: e121 90bd 5e32 b23b 4997 6ebc 944a a5bd
00000080: d7ad 62bc 7ad4 50bd 0b1c 3cbd 0b73 d03d
00000090: 5523 e23c db18 bebd 5b58 373d 5f68 363e
000000a0: 805f 1abd 787d b3bd 9f47 e13d 71f8 0e3e
000000b0: 7891 97bd a285 adbd e502 fa3d fa1c 20bd
000000c0: a561 073d a733 c2bd d987 2abc 25d7 91bd
000000d0: ff0a 76bd 9dcf 76bb fc81 01bd f980 9ebd
000000e0: f3ac 7e3d 5199 b73c 10d1 893c 60f8 2a3d
000000f0: d93b b6bd 874e b1bd 8a80 be3d 917d 8b3d
00000100: ced5 a7bd e774 0dbd 835f 1bbd 0dbd eb3d
00000110: 6974 bcbd f55a 493c f105 aebd a422 273c
00000120: 15bf c3bd 9a67 9e3d e30e 7fbd cbf0 7a3e
00000130: 576b 323c ab2d 023d 2b4f babd e9e8 e93c
00000140: 30c0 703c e317 063d 3b38 4b3e 3bed 923a
00000150: 0bb5 fd3a a233 0c3e 92c5 f13c 48fc 4a3b
00000160: 5c82 423d 53f3 bcbd 473b a33d 7fab e8bd
00000170: 2432 fa3c af23 253d 3876 023e 7515 95bc
00000180: b8d5 65bd 7acb de3c f354 6f3d 5ee7 57bd
00000190: ad1a 11bd 755c 4e3d 0006 fdbc 4ab3 aebd
000001a0: beb4 38bd 2374 dd3c 840a 70bd ec86 efbd
000001b0: 617f b93a cf37 4c3e 2bc2 9e3d 1161 89bc
000001c0: 2caf 853c bea4 9d3c 4afb 273d fd7e 723c
000001d0: 3ef8 883d 5bc7 d4bd 2f7f 0139 3742 55bd
000001e0: 24cf 11bd 2c08 aabd e857 7bbc 0d33 95bd
000001f0: 4602 153d 82ba c5bd 67ac 74bd 1305 60bd

position_output_layer.weight f4 [201, 128]
0.017197981 0.10426306 0.12430313 0.016135707 0.06880584 0.08164484 -0.07869293 0.1438882
-8.8426905e-06 0.2361635 0.25254625 0.08123788 0.007237537 0.10938436 0.058410883 0.023916282
-0.042805333 -0.089892544 0.07644293 -0.0007478716 -0.045794412 -0.03383418 -0.12278432 0.04472849
0.055064183 0.10772857 0.06664715 -0.08524491 -0.0152355805 0.0015016701 -0.022752013 0.07692364
-0.02970839 0.057544954 -0.0118449805 0.01789019 0.0062006256 0.04660857 -0.07828674 0.2702409
0.03421359 0.01311498 0.07960628 0.1138949 0.08333799 0.21183802 0.121157005 0.05213035
0.027331382 0.052223805 0.15574427 0.1308962 0.057681542 -0.08689553 0.00057443493 -0.023249526
-0.012391011 0.09061892 -0.048102614 -0.10384128 0.020038454 -0.0075689983 0.27931482 0.0075899614
-0.05516979 -0.025125172 -0.009535363 0.13880566 -0.054183096 0.018206865 -0.073649205 0.116698205
0.072545215 0.17452441 -0.04976947 0.07968055 -0.08844953 0.2033472 0.01809272 0.09686915
0.029156132 0.03097567 0.07440976 0.09161198 -0.037583575 0.28377238 -0.0046824687 0.3608648
0.008452414 0.04806681 0.030675182 0.07013038 -0.0052549844 -0.03915562 0.03070391 0.07930076
-0.013741749 -0.026521912 0.062583566 0.010024318 0.009932821 -0.022878122 0.0069246343 -0.034828752
-0.031209026 0.13573958 0.07909171 -0.016640298 0.01129151 0.1445785 -0.009654676 -0.023688955
-0.09238919 -0.073856905 0.00043747842 -0.086568974 -0.06614144 0.0206954 0.041441113 0.074585535
0.030677976 -0.11807423 0.066152304 -0.03596149 0.04862042 0.0031243328 -0.002666277 -0.07347025
0.07462693 0.21382475 0.20503905 -0.08239877 0.047186464 0.091411345 0.11063488 0.24915516
0.105693206 0.06010329 0.05007209 0.21195824 0.062018443 0.0008457277 0.08407879 0.12985364
0.0470151 0.14154458 0.061914247 0.031838026 -0.004906896 0.013540114 0.21642597 0.008331047
0.058779623 0.00608805 0.061369896 -0.044084053 0.12337383 -0.006274458 -0.03442617 0.07915142
0.06468643 0.0138648385 -0.027412698 -0.047460813 0.055897824 -0.040957116 -0.06175477 0.2555717
-0.014759297 0.012372583 0.24670963 0.1286711 0.03731219 0.10223571 0.27186173 0.05914264
0.061858073 -0.04680664 0.03715398 0.16210723 0.027380003 0.09382343 0.0917509 -0.008538994
0.054581486 -0.015477696 0.1560103 0.0396394 -0.037258316 -0.037874717 0.3979825 0.058984466
0.039832555 0.023767222 0.09675117 0.17197907 -0.038730457 0.098601475 0.075085394 0.13385849
-0.035835154 0.16440852 0.13079232 0.17757457 0.18805179 0.014492759 0.07128107 0.08080679
-0.008520973 -0.053834032 0.12419542 0.17166847 -0.051493015 0.10477676 0.06764831 0.16180706
0.05854276 0.0021889235 0.052256674 0.18690978 0.13952222 -0.018550603 0.059876062 0.25629568
0.04180048 0.0113939755 0.089372985 -0.08177725 -0.012234229 0.12262511 0.119623326 0.012356652
-0.010600567 0.06465917 0.1455807 0.092852436 0.13071075 0.22482538 0.0130223865 0.0134671815
0.07858925 0.073691905 0.009609091 0.10898193 0.031339046 0.032133978 0.07724472 0.07533802
0.040044036 -0.078099854 0.02096172 0.1512417 0.10912708 0.046002235 0.006566406 0.054676812
00000000: c8e2 8c3c df87 d53d a492 fe3d 082f 843c
00000010: 14ea 8c3d 6935 a73d c229 a1bd 6e57 133e
00000020: 115b 14b7 d8d4 713e be4d 813e 0c60 a63d
00000030: dc28 ed3b e804 e03d 4040 6f3d 14ec c33c
00000040: a554 2fbd 9519 b8bd 1c8e 9c3d d00c 44ba
00000050: ec92 3bbd b695 0abd 5876 fbbd 3935 373d
00000060: fb8a 613d cca0 dc3d 4d7e 883d e294 aebd
00000070: a89e 79bc b0d3 c43a 6e62 babc 248a 9d3d
00000080: 025f f3bc 42b4 6b3d 7311 42bc 738e 923c
00000090: 9e2e cb3b a1e8 3e3d cc54 a0bd 045d 8a3e
000000a0: 8d23 0c3d 37e0 563c 9e08 a33d bb41 e93d
000000b0: 1cad aa3d 11ec 583e 2a21 f83d a286 553d
000000c0: 10e6 df3c a1e8 553d 6d7b 1f3e a709 063e
000000d0: 7b43 6c3d 49f6 b1bd ad95 163a ca75 bebc
000000e0: ab03 4bbc 6a96 b93d 3f07 45bd bdaa d4bd
000000f0: af27 a43c 5c05 f8bb 5a02 8f3e 36b5 f83b
00000100: b8f9 61bd 4ed3 cdbc 363a 1cbc 1223 0e3e
00000110: 18ef 5dbd 9026 953c 65d5 96bd 78ff ee3d
00000120: 9692 943d 87b6 323e 12db 4bbd 8e2f a33d
00000130: 0725 b5bd 403a 503e 2f37 943c 5563 c63d
00000140: d7d8 ee3c b0c0 fd3c 2564 983d 109f bb3d
00000150: 3cf1 19bd 9d4a 913e 656f 99bb 45c3 b83e
00000160: fe7b 0a3c b4e1 443d 854a fb3c 84a0 8f3d
00000170: 0132 acbb a561 20bd c486 fb3c 7068 a23d
00000180: 1325 61bc 7b44 d9bc d02b 803d 093d 243c
00000190: 45bd 223c e66a bbbc 0be8 e23b 98a8 0ebd
000001a0: 12aa ffbc 51ff 0a3e d6fa a13d 3c51 88bc
000001b0: 0700 393c 630c 143e a52e 1ebc 570f c2bc
000001c0: 8b36 bdbd 4a42 97bd 5c5d e539 134b b1bd
000001d0: 2a75 87bd 6689 a93c 28be 293d 4dc0 983d
000001e0: 6150 fb3c e7d0 f1bd dc7a 873d 5b4c 13bd
000001f0: 3526 473d 9bc1 4c3b b5bc 2ebb 9277 96bd
00000200: 01d6 983d e0f4 5a3e c2f5 513e b0c0 a8bd
00000210: 9846 413d df35 bb3d 8a94 e23d 8822 7f3e
00000220: ae75 d83d de2e 763d 6418 4d3d 950b 593e
00000230: 0d07 7e3d d3b3 5d3a 8031 ac3d 5af8 043e
00000240: e892 403d 10f1 103e cb99 7d3d 9768 023d
00000250: 07ca a0bb 5bd7 5d3c c59e 5d3e f27e 083c
00000260: e7c2 703d 447e c73b 005f 7b3d 7b91 34bd
00000270: 6bab fc3d f899 cdbb 7502 0dbd 241a a23d
00000280: 527a 843d 5929 633c 9890 e0bc 4566 42bd
00000290: 1ef5 643d a6c2 27bd 92f2 7cbd 4bda 823e
000002a0: fad0 71bc 60b6 4a3c 73a1 7c3e 5bc2 033e
000002b0: abd4 183d f560 d13d 7631 8b3e 8e3f 723d
000002c0: e45e 7d3d 52b8 3fbd c62e 183d 70ff 253e
000002d0: 074c e03c 8026 c03d e5e7 bb3d 23e7 0bbc
000002e0: d690 5f3d 2a96 7dbc 2ac1 1f3e ec5c 223d
000002f0: 2d9c 18bd 8522 1bbd 5dc4 cb3e b299 713d
00000300: 7627 233d 7ab3 c23c 7a25 c63d 481b 303e
00000310: d4a3 1ebd 92ef c93d 5fc6 993d 3312 093e
00000320: e2c7 12bd b55a 283e 6cee 053e 1cd6 353e
00000330: a690 403e 0973 6d3c cffb 913d 087e a53d
00000340: 8d9b 0bbc 1381 5cbd 2b5a fe3d dcc9 2f3e
00000350: 57ea 52bd 3395 d63d 328b 8a3d c0b0 253e
00000360: 88ca 6f3d 0b74 0f3b 180b 563d 4765 3f3e
00000370: eade 0e3e 6ff7 97bc 9a40 753d 3039 833e
00000380: fb36 2b3d ccad 3a3c 2f09 b73d d57a a7bd
00000390: 1372 48bc e022 fb3d 13fd f43d 8e73 4a3c
000003a0: 00ae 2dbc 076c 843d 1b13 153e 6b29 be3d
000003b0: 0ad9 053e a038 663e d95b 553c 74a5 5c3c
000003c0: 67f3 a03d c8eb 963d 736f 1d3c eb31 df3d
000003d0: 5f5d 003d eb9e 033d 7b32 9e3d d24a 9a3d
000003e0: 3705 243d d1f2 9fbd eab7 ab3c 1bdf 1a3e
000003f0: 057e df3d d76c 3c3d 022b d73b cbf4 5f3d

position_output_layer.bias f4 [201]
-0.0064977324 0.037707243 0.18217565 0.079638906 0.12441754 0.019557836 0.07958436 0.13295756
0.02102228 0.020726483 0.13868372 0.051461983 0.054616466 -0.047845583 -0.0566314 -0.05524344
-0.017122298 0.0038116088 0.08844872 0.23815055 -0.00877378 0.16644552 -0.03903679 0.10730866
0.038922347 0.06868408 0.09254623 0.016564062 0.031864796 0.04950465 0.22474976 0.06994303
-0.037124287 0.0038532706 -0.008245049 0.17572841 0.06107094 0.07251999 -0.08009417 -0.02559474
0.03476154 0.07198145 -0.012925857 -0.12384651 0.1034513 0.026854895 -0.11390279 0.18472125
-0.0032906008 0.04586227 0.16133367 0.042095438 -0.028892037 0.01004893 0.23539007 0.041569512
-0.031523306 -0.0042388416 -0.09884377 0.017715242 -0.008752833 0.11847229 0.00914847 -0.004161944
0.0064412937 -0.059503917 0.21428256 0.13234654 -0.005998093 0.18956333 -0.08225109 -0.079587385
-0.011725781 0.0215987 -0.07735098 -0.09396992 0.049395584 0.1295494 0.2471968 -0.010963001
-0.0050540194 0.05319942 -0.083000965 0.18882 0.076163426 0.054042965 0.08661734 0.120369725
0.08362609 -0.021162106 0.22458105 0.17971988 0.25824052 0.0980117 0.21083243 -0.022804586
-0.10183871 -0.06294617 -0.044889737 0.10621291 -0.07767734 0.08359864 0.05629014 -0.10128322
0.15986115 0.1944792 0.13523191 0.09731219 0.05239717 -0.05244482 0.07473042 -0.032527573
0.12485818 0.035903703 -0.0068872403 -0.0011438017 -0.0012665266 0.21597634 0.106345855 0.20267685
0.03702046 0.085356995 -0.006759031 -0.049047846 0.21394487 0.102188244 -0.03378234 0.12147037
-0.071217485 0.12362511 0.13792111 0.0071636243 0.10075595 0.13251732 0.20349859 -0.06788937
0.04503851 -0.15426977 0.10007636 0.00949405 -0.036719255 0.0082262345 -0.004599295 0.1014035
0.052070465 0.12333736 0.0027990947 0.073078185 0.05938501 -0.14219813 0.009072884 0.05498408
0.12305477 0.11056914 0.14941406 0.09927294 -0.0039792247 0.16860847 0.10167124 0.09732825
0.089898735 0.099384 0.061246995 0.05031201 0.10309306 0.003860725 0.045594204 0.1241841
0.10885166 0.02708317 -0.08485236 0.13627425 0.1274062 -0.055734966 -0.04564607 0.11572773
0.07786624 -0.0014270052 0.042955678 0.02888067 0.18812299 0.09664717 0.11398368 0.13447148
-0.0069989525 0.11150143 0.19496578 -0.031805646 0.03717669 0.056609493 -0.009297734 0.1012999
-0.07282827 0.19777633 0.0044419165 0.13509277 0.018562345 0.009813631 0.10737068 0.16950622
0.051581778
00000000: eeea d4bb e972 1a3d 418c 3a3e b919 a33d
00000010: a0ce fe3d c137 a03c 20fd a23d 0726 083e
00000020: eb36 ac3c 96ca a93c 1b03 0e3e cdc9 523d
00000030: 84b5 5f3d bbf9 43bd 54f6 67bd f246 62bd
00000040: 1044 8cbc 2fcc 793b 9a24 b53d bddd 733e
00000050: e7bf 0fbc b270 2a3e 0be5 1fbd a5c4 db3d
00000060: 0a6d 1f3d 3daa 8c3d e188 bd3d 5bb1 873c
00000070: a984 023d 63c5 4a3d cd24 663e 4b3e 8f3d
00000080: a30f 18bd 2787 7c3b 3e16 07bc 26f2 333e
00000090: 8625 7a3d 5c85 943d 6a08 a4bd 0fac d1bc
000000a0: 1e62 0e3d 036b 933d f9c6 53bc 3da3 fdbd
000000b0: 46de d33d ccfe db3c de45 e9bd 9127 3d3e
000000c0: 1fa7 57bb 13da 3b3d a734 253e 446c 2c3d
000000d0: feae ecbc 44a4 243c 180a 713e cb44 2a3d
000000e0: 951e 01bd fbe5 8abb 9a6e cabd 8e1f 913c
000000f0: 0b68 0fbc 9aa1 f23d 77e3 153c eb60 88bb
00000100: 7d11 d33b 61ba 73bd e36c 5b3e da85 073e
00000110: a78b c4bb e41c 423e 4273 a8bd b6fe a2bd
00000120: 7d1d 40bc c2ef b03c 316a 9ebd 4d73 c0bd
00000130: 0653 4a3d 99a8 043e 2821 7d3e 299e 33bc
00000140: 309c a5bb a3e7 593d 69fc a9bd 085a 413e
00000150: 92fb 9b3d 285c 5d3d 6f64 b13d 6784 f63d
00000160: 2844 ab3d 275c adbc 93f8 653e 7d08 383e
00000170: 1a38 843e 5cba c83d 75e4 573e afd0 babc
00000180: d090 d0bd ece9 80bd 4dde 37bd 2786 d93d
00000190: 4c15 9fbd c435 ab3d 7d90 663d 946d cfbd
000001a0: a4b2 233e 8e25 473e 3c7a 0a3e 9d4b c73d
000001b0: 6a9e 563d 61d0 56bd 430c 993d a23b 05bd
000001c0: a5b5 ff3d c30f 133d 5cae e1bb 9eeb 95ba
000001d0: 9501 a6ba e728 5d3e dbcb d93d 858a 4f3e
000001e0: c4a2 173d a6cf ae3d dd7a ddbb 65e6 48bd
000001f0: 5d14 5b3e 1248 d13d 5a5f 0abd 75c5 f83d
00000200: 79da 91bd 292f fd3d 313b 0d3e d6bc ea3b
00000210: 2359 ce3d 9fb2 073e ef61 503e 9509 8bbd
00000220: 4d7a 383d e5f8 1dbe d6f4 cc3d ef8c 1b3c
00000230: ee66 16bd 54c7 063c afb5 96bb a3ac cf3d
00000240: d747 553d 4c98 fc3d 0471 373b 04aa 953d
00000250: b23d 733d 639c 11be 6fa6 143c fd36 613d
00000260: 2404 fc3d 1372 e23d 0000 193e 9c4f cb3d
00000270: 2864 82bb b3a7 2c3e 0339 d03d 0954 c73d
00000280: d41c b83d d789 cb3d 21de 7a3d f713 4e3d
00000290: 7422 d33d 3804 7d3b fdc0 3a3d 3c54 fe3d
000002a0: 9eed de3d 86dd dd3c 13c7 adbd 7a8b 0b3e
000002b0: c576 023e 594a 64bd 60f7 3abd a902 ed3d
000002c0: 5678 9f3d 590a bbba 4bf2 2f3d 2897 ec3c
000002d0: 50a3 403e f4ee c53d 4770 e93d e4b2 093e
000002e0: 7857 e5bb dd5a e43d 1ca5 473e a346 02bd
000002f0: 9646 183d 5bdf 673d 8655 18bc 5276 cf3d
00000300: fd26 95bd e185 4a3e 7f8d 913b c255 0a3e
00000310: 0f10 983c 5ac9 203c 29e5 db3d 0a93 2d3e
00000320: 6a47 533d
