actor.pth (torch, 284808 bytes, 14 tensors)

input_layer.weight f4 [128, 72]
0	0x3c21e9ed	0.009882432
1	0x3bed2323	0.0072368546
2	0xbc95dc44	-0.018293507
3	0x3ea3fc4d	0.32028428
4	0xbe03270c	-0.12807864
5	0xbcf10e03	-0.029425627
6	0xbcbef959	-0.023312258
7	0x3eadd1da	0.33949167
8	0x3d3c279f	0.045936223
9	0xbd089c76	-0.033352338
10	0x3d35af1d	0.044356454
11	0x3e1fe32f	0.15614007
12	0xbc37d8d9	-0.011221134
13	0x3c65a72b	0.014016907
14	0xbe834eff	-0.25646207
15	0x3e886148	0.2663672
16	0x3d17308f	0.036911543
17	0xbd68d60e	-0.056844763
18	0x3c80d363	0.015725797
19	0x3e4155e4	0.18880421
20	0x3db80af5	0.08986465
21	0xbba10698	-0.004914116
22	0xbd36edae	-0.044660263
23	0xbe2d3180	-0.16913414
24	0x3d9eff0a	0.077634886
25	0xbec70e9d	-0.38878337
26	0xbe258801	-0.16165163
27	0xbe4a9ec9	-0.19787134
28	0xbd472f27	-0.048628952
29	0xbde9cac0	-0.114156246
30	0xbbf8a16f	-0.0075876038
31	0xbe6e387e	-0.23263738
32	0xbaeb9ca8	-0.0017975764
33	0xbdba6375	-0.09101001
34	0xbe0d24eb	-0.13783614
35	0x3baea191	0.005329319
36	0x3e07dff2	0.13269022
37	0xbeb8a9d0	-0.36067057
38	0x3c86c802	0.016452793
39	0x3e5e6e06	0.21721658
40	0x3e5aeef4	0.21380216
41	0x3d516f89	0.05113176
42	0xbc5befd4	-0.013423879
43	0x3cfd19c0	0.030896068
44	0xbe2b2364	-0.16712719
45	0x3b82b3c6	0.003988716
46	0x3dac53a1	0.084143884
47	0x3d761421	0.06007779
48	0x3e3bfcab	0.18358104
49	0x3d3eb302	0.046557434
50	0x3d8a18f8	0.06743044
51	0x3dd9ec59	0.10640783
52	0x3d33577c	0.043784603
53	0x3ce0e017	0.027450604
54	0x3c919fc2	0.017776374
55	0x3d8d4fec	0.069000095
56	0x3d583e21	0.052793626
57	0xbe29b903	-0.16574483
58	0x3df9dcac	0.12200293
59	0x3c101435	0.00879388
60	0x3ec6b408	0.38809228
61	0xbd937b35	-0.07201234
62	0xbd728091	-0.05920464
63	0xbf2ec5f6	-0.68270814
64	0xbf1717f0	-0.590209
65	0x3e0f2224	0.13977867
66	0x3d9f4660	0.07777095
67	0xbf02869e	-0.5098666
68	0xbe5fa7fe	-0.21841428
69	0x3da18a3f	0.078876965
70	0x3e5c2a51	0.21500517
71	0x3da7f77b	0.082015
72	0x3d43c312	0.047793455
73	0xbd1b9862	-0.03798712
74	0xbd719b8f	-0.058986243
75	0x3d67635a	0.056491233
76	0xbd256a02	-0.0403843
77	0xbd9bdf79	-0.076109834
78	0xbd12a0a2	-0.035797723
79	0x3b2292da	0.0024806769
80	0xbc543426	-0.012951886
81	0xbd5727f0	-0.05252832
82	0x3df3f519	0.11911983
83	0x3e50a90e	0.20376989
84	0x3dab5e89	0.083676405
85	0xbbf52330	-0.0074810013
86	0xbc366352	-0.011132078
87	0x3e45f572	0.19331911
88	0xbdd4f22a	-0.10397752
89	0x3d1c8532	0.038212962
90	0xbc90dc8b	-0.017683288
91	0xbdf818fe	-0.12114142
92	0x3ca2ee8c	0.019889139
93	0xbbaa3621	-0.005194441
94	0x3d835d69	0.06414301
95	0x3d962189	0.07330615
96	0xbe2f7a8b	-0.1713659
97	0x3bae92ba	0.0053275498
98	0x3d22a65c	0.039709434
99	0xbdb16e33	-0.08663597
100	0xbd956194	-0.07294002
101	0x3db2f001	0.08737183
102	0x3c1a67ae	0.009424133
103	0xbbbc6518	-0.005749356
104	0xbcceb347	-0.02523197
105	0x3be021db	0.0068399734
106	0xbd78a881	-0.060707573
107	0xbe169f3b	-0.14709179
108	0x3d779580	0.06044531
109	0x3d48cd6b	0.049024027
110	0x3dd0ead0	0.10201037
111	0xbd994c99	-0.07485313
112	0xbd216fd0	-0.039413273
113	0x3d914df7	0.07094949
114	0x3e16796b	0.14694755
115	0x3ead188e	0.33807796
116	0xbcda3c4a	-0.026640076
117	0xbe1456fb	-0.14486305
118	0xbdfd2cfb	-0.12362095
119	0x3e23ca63	0.15995173
120	0xbd78deb3	-0.060759258
121	0xbd00b910	-0.03142649
122	0xbd93db79	-0.072195955
123	0xbeca9174	-0.39564097
124	0xbc17124f	-0.009220674
125	0x3e2c37a9	0.16818108
126	0x3da99ab2	0.08281459
127	0xbf05c1ed	-0.5224903
128	0x3de3cd70	0.111231685
129	0x3dc555a3	0.096354745
130	0x3e9e18b5	0.30878225
131	0x3ef9dd47	0.48801634
132	0x3e05db57	0.13071953
133	0xbebf2df9	-0.37339762
134	0xbde021d6	-0.10943954
135	0x3ed98516	0.4248435
136	0x3d081607	0.033224132
137	0xbedabcce	-0.42722172
138	0xbe6c56b7	-0.23079954
139	0x3f53d5e0	0.8274822
140	0xbdf98a28	-0.12184554
141	0x3d0be902	0.03415776
142	0x3e27ff56	0.16405997
143	0x3d052377	0.032504525
144	0xbe848450	-0.25882196
145	0xbdd46eb0	-0.103726745
146	0x3df7f03d	0.12106369
147	0xbdc26f93	-0.09493937
148	0xbd64dbfe	-0.055873863
149	0xbe32332a	-0.1740233
150	0xbd4971c4	-0.04918076
151	0xbd2425cd	-0.040075112
152	0x3e1ecdfb	0.15508263
153	0xbde17fe2	-0.1101072
154	0x3dde2b51	0.10848106
155	0xbe744d67	-0.23857652
156	0x3d758fff	0.05995178
157	0x3dfbbc22	0.12291743
158	0xbb2490a1	-0.002511062
159	0xbd98957f	-0.07450389
160	0x3d8727c7	0.06599384
161	0xbdef933d	-0.11698005
162	0x3d794a3b	0.060861807
163	0xbdca91f2	-0.09891118
164	0xbdbe88f5	-0.09303466
165	0x3c0e9f93	0.008705038
166	0xbdffc6c6	-0.12489085
167	0xbe075146	-0.13214597
168	0xbd7826db	-0.06058393
169	0xbc0406bd	-0.008058247
170	0xbeb46fef	-0.3524165
171	0xbdc08815	-0.094009556
172	0xbca19c0e	-0.019727733
173	0xbd2deb93	-0.04246099
174	0x3e0bcf0a	0.13653198
175	0xbd0f9c5e	-0.035061233
176	0xbd16ef97	-0.036849584
177	0x3e08769b	0.13326494
178	0xbe0f5186	-0.13995942
179	0x3da0f051	0.07858337
180	0xbe100ebb	-0.14068119
181	0xbe7913b2	-0.2432392
182	0xbe475160	-0.19464636
183	0xbc3ec2dc	-0.011643138
184	0x3db4f21d	0.08835242
185	0xbe42b0bd	-0.19012733
186	0xbeb5e9a9	-0.3552983
187	0xbe0d603e	-0.13806245
188	0x3e2a0930	0.16605067
189	0x3dc4fd88	0.0961867
190	0xbd29ab16	-0.041422926
191	0xbde0f7fa	-0.10984798
192	0xbdb74fd1	-0.08950771
193	0x3e7e7559	0.24849452
194	0xbd88e13c	-0.06683585
195	0x3e403c68	0.18773043
196	0x3e74abe3	0.23893695
197	0x3d92c20a	0.07165916
198	0x3e62c449	0.2214519
199	0x3ad608e0	0.0016329549
200	0xbc6896d0	-0.014196113
201	0x3cf0d5be	0.029398795
202	0xbd6c7c8f	-0.057735976
203	0x3e1884d2	0.14894417
204	0x3e5127cd	0.20425339
205	0x3df97f5c	0.12182495
206	0xbde664c8	-0.11249691
207	0x3ec67081	0.3875771
208	0x3ea5c5ec	0.32377565
209	0x3bad0f96	0.005281399
210	0x3e2626a0	0.16225672
211	0x3f1f51c6	0.6223415
212	0x3e6dff50	0.23241925
213	0x3de999bb	0.11406275
214	0x3e72bc3f	0.23704623
215	0xbe10815a	-0.14111844
216	0x3cdc61c6	0.02690209
217	0xbdec3eef	-0.11535441
218	0x3d6858ea	0.05672542
219	0xbd3a43e5	-0.045474906
220	0xbc392a03	-0.01130152
221	0x3a5323a6	0.0008054323
222	0x3e05fd6e	0.13084957
223	0xbe003065	-0.12518461
224	0x3caed690	0.021342546
225	0x3bc86321	0.0061153327
226	0xbde7d1aa	-0.11319287
227	0xbe0a6e3e	-0.13518617
228	0xbd5b38d9	-0.05352101
229	0xbd9aca08	-0.07558066
230	0x3dd88748	0.10572678
231	0x3c9f29fb	0.019429198
232	0x3dfcce0a	0.12343986
233	0xbd882bbb	-0.06648966
234	0xbd4e41b1	-0.050355617
235	0xbde1eef1	-0.110319026
236	0x3d36be5b	0.04461513
237	0xbcb4bba1	-0.022062125
238	0x3cb3ae80	0.021933794
239	0xbce86993	-0.028370654
240	0x3736162b	1.0853207e-05
241	0xbcec16c4	-0.02881945
242	0x3d240cae	0.040051155
243	0xbc3e684b	-0.011621545
244	0x3d9ca9ef	0.076496
245	0xbd9c1c8b	-0.07622632
246	0xbcc8e3bb	-0.024522653
247	0x3ac585a9	0.0015069741
248	0xbd8e3df9	-0.06945414
249	0xbb3b9df5	-0.0028628085
250	0x3d727e87	0.059202697
251	0x3c2281eb	0.00991867
252	0x3d858935	0.06520311
253	0xbde8ec8f	-0.11373245
254	0xbcf3cecb	-0.029761693
255	0x3e00ec6a	0.12590185

input_layer.bias f4 [128]
0	0x3df4f803	0.11961367
1	0xbdb795b3	-0.089641
2	0xbdfc8649	-0.123303
3	0xbdf79e57	-0.12090748
4	0xbc7b78c7	-0.01534862
5	0xbe85cb6f	-0.2613177
6	0xbdd24c69	-0.1026848
7	0x3e970829	0.29498413
8	0xbdf13da2	-0.11779334
9	0x3dba874b	0.09107836
10	0x3d0ea84e	0.034828477
11	0x3df60bf1	0.120139964
12	0xbda3675a	-0.07978697
13	0xbd7e8b43	-0.06214453
14	0xbe167fa9	-0.14697136
15	0xbe7d566d	-0.2474
16	0xbe7a8172	-0.24463442
17	0x3e003644	0.125207
18	0xbe27bcb3	-0.16380577
19	0x3e06263d	0.13100524
20	0x3e34cca6	0.17656192
21	0x3c96c222	0.018403117
22	0xbd2bc70e	-0.04193788
23	0xbe0716fa	-0.13192359
24	0x3e588059	0.21142711
25	0x3dd80b43	0.10549023
26	0x3ccb0f58	0.02478759
27	0xbd952fae	-0.07284485
28	0xbd714fcc	-0.05891399
29	0x3be56151	0.0070001264
30	0xbe13049f	-0.14357232
31	0x3e272fbc	0.16326803
32	0xbdc6d9ce	-0.09709512
33	0xbdc6294b	-0.09675845
34	0x3be54d80	0.006997764
35	0x3dd22b7d	0.10262201
36	0xbd739f94	-0.059478357
37	0x3e3eba22	0.18625692
38	0x3e75cf50	0.24004865
39	0xbca4dab0	-0.02012381
40	0xbe134a2b	-0.14383762
41	0xba39effe	-0.00070929516
42	0x3cbc0740	0.022952676
43	0x3dbf1aaf	0.09331261
44	0xbe203b33	-0.15647583
45	0xbc84f80f	-0.016231565
46	0x3e0156b2	0.12630728
47	0x3e53ccb4	0.20683557
48	0xbe2c781f	-0.16842698
49	0xbe235f69	-0.15954365
50	0x3eed5dbf	0.46360585
51	0xbce19123	-0.027535027
52	0xbcec0f39	-0.028815852
53	0xbd67f8b0	-0.05663365
54	0x3b3ce3a7	0.0028822215
55	0x3eae4c88	0.34042764
56	0xbdf0969c	-0.117474765
57	0xbde4b7d1	-0.11167873
58	0x3d5f9bd6	0.054591976
59	0x3c48837c	0.01223838
60	0xbe2343a9	-0.15943779
61	0xbe3463aa	-0.17616144
62	0xbcd7ab8b	-0.026326915
63	0x3e85b2b4	0.26112902
64	0x3e0eec01	0.13957216
65	0xbe0b2db2	-0.1359165
66	0x3e147a3c	0.14499754
67	0xbe02da85	-0.12778671
68	0x3c42ad21	0.011882097
69	0xbe0e2aa0	-0.13883448
70	0xbdea0b2b	-0.11427911
71	0x3ed90ffa	0.42395002
72	0xbe70f141	-0.23529531
73	0xbe7b67ea	-0.24551359
74	0xbe1bcb9e	-0.15214393
75	0xbdb3ed19	-0.08785457
76	0xbe739693	-0.23787908
77	0xbdc57eb5	-0.09643308
78	0xbdd39ca1	-0.10332609
79	0x3e325af5	0.1741751
80	0xbe07f294	-0.1327613
81	0xbd5a4fb2	-0.05329866
82	0xbe117930	-0.14206386
83	0xbe4c5a17	-0.19956242
84	0x3e362d2c	0.17790669
85	0xbc555f79	-0.013023251
86	0x3e3bf1e6	0.18353996
87	0xbe2e1cdc	-0.17003196
88	0x3df23713	0.11826911
89	0x3e47718a	0.19476905
90	0x3eb2ab10	0.34896135
91	0x3ea20d3d	0.31650725
92	0xbdc90840	-0.09816027
93	0x3e6489bc	0.22318166
94	0xbe00fcb7	-0.12596403
95	0x3b8529fb	0.0040638424
96	0x3d72884b	0.05921201
97	0x3df63b06	0.120229766
98	0xbd97fb75	-0.074210085
99	0xbd124dc8	-0.03571871
100	0x3da8812b	0.08227762
101	0xbafc2f11	-0.0019240101
102	0xbd67f759	-0.056632373
103	0x3e76c34b	0.24097936
104	0x3d244562	0.04010523
105	0xbc98df82	-0.018661264
106	0xbd3adcdf	-0.045620795
107	0x3dca3f8c	0.09875402
108	0x3d9cfe73	0.0766572
109	0xbd22e00d	-0.039764453
110	0x3b5a76ad	0.0033334896
111	0x3ec4ebe0	0.38461208
112	0xbe252ba7	-0.16129933
113	0x3d3646a4	0.044500962
114	0x3e2df428	0.1698767
115	0xbe67538d	-0.22590466
116	0xbe278aec	-0.16361588
117	0xbe27f9f7	-0.16403948
118	0xbe796319	-0.24354209
119	0xbde1161d	-0.10990546
120	0xbde4e961	-0.11177326
121	0x3c9b4aaf	0.01895651
122	0xbe12a7df	-0.1432185
123	0x3c7ce12c	0.0154345445
124	0xbe811f10	-0.2521901
125	0xbc348996	-0.011019131
126	0xbb6305d6	-0.003464093
127	0x3e74198d	0.23837872

hidden_1.weight f4 [128, 128]
0	0xbe3240ab	-0.17407481
1	0x3eb7ab5f	0.35872933
2	0xbe0fd87f	-0.1404743
3	0xbe2f5534	-0.17122346
4	0xbcb1dc77	-0.021711571
5	0x3d7ca1f8	0.061677903
6	0x3e1d93b4	0.15388376
7	0x3dcbc072	0.099488154
8	0xbdab03c8	-0.083503306
9	0xbdea8ad7	-0.11452263
10	0xbe249d9b	-0.16075747
11	0xbe79013d	-0.24316879
12	0x3e229961	0.15878822
13	0xbe495aa6	-0.19663486
14	0x3e26b3b7	0.16279493
15	0x3d88c6f5	0.06678573
16	0x3e363753	0.17794542
17	0xbd43bac1	-0.047785524
18	0x3d048541	0.032353643
19	0xbe7eab90	-0.24870133
20	0xbd05e38f	-0.03268772
21	0x3dd674e3	0.10471513
22	0xbe7473a5	-0.2387224
23	0x3b3d1acf	0.002885509
24	0xbe26c068	-0.16284335
25	0xbd1c28cb	-0.03812484
26	0xbd87aa89	-0.06624324
27	0x3e2e9846	0.17050275
28	0x3e6a4283	0.22876935
29	0xbdbd89ee	-0.092548236
30	0xbe299a60	-0.16562796
31	0xbd875901	-0.06608773
32	0x3e43fe40	0.19139957
33	0xbd8874f5	-0.06662933
34	0xbd6146f8	-0.05499932
35	0x3b7fddc8	0.0039042104
36	0xbd6b0aa5	-0.0573832
37	0x3db90f48	0.09036118
38	0x3dc793bc	0.09744975
39	0xbdd448bc	-0.103654355
40	0x3d972813	0.073806904
41	0x3e7d59f0	0.2474134
42	0xbe34e65e	-0.17666003
43	0x3e053376	0.13007912
44	0xbe1f1325	-0.15534647
45	0x3dbd22ae	0.0923513
46	0x3e2c996e	0.16855404
47	0xbed7b572	-0.4213062
48	0x3dd2cbec	0.10292801
49	0x3b19fd6d	0.0023497
50	0xbe9cee12	-0.30650383
51	0xbcd74bfb	-0.026281347
52	0xbe81898b	-0.2530025
53	0xbd15e400	-0.03659439
54	0x3e0427b1	0.12905766
55	0xbe45863a	-0.19289485
56	0xbe522ea4	-0.20525604
57	0x3cbf0f04	0.02332259
58	0xbe815c6d	-0.25265828
59	0xbdd979bf	-0.10618924
60	0xbdf99d5c	-0.12188217
61	0xbdb727a2	-0.08943106
62	0x3e261940	0.1622057
63	0xbdd96979	-0.106158204
64	0x3de1b7d1	0.11021388
65	0xbea60f7a	-0.32433683
66	0xbe1a713b	-0.15082256
67	0xbdf7ef52	-0.121061936
68	0x3e8218c1	0.2540951
69	0xbda4f992	-0.08055414
70	0x3dcacaf1	0.09901989
71	0x3b420c1a	0.0029609264
72	0xbd4afb6a	-0.049556173
73	0x3e1d2b61	0.15348579
74	0xbdc014b7	-0.09378951
75	0x3c47ec3f	0.012202322
76	0xbdd72c4d	-0.105064966
77	0x3e42e020	0.1903081
78	0xbd2b7316	-0.0418578
79	0xbd23997b	-0.039941292
80	0xbbfddf08	-0.0077475347
81	0xbe9a725c	-0.30165374
82	0xbc103f66	-0.008804178
83	0x3d833796	0.064070866
84	0xbdb171f1	-0.08664311
85	0x3d620ec2	0.055189855
86	0x3d1538d9	0.036431167
87	0x3e011e8f	0.12609313
88	0x3c2c161c	0.010503318
89	0x3c1aae14	0.0094409175
90	0xbdcdbc19	-0.100456424
91	0xbec2d0f3	-0.3805004
92	0xbdfdb9d0	-0.123889565
93	0x3d88e8a1	0.066849954
94	0xbd930cb3	-0.071801566
95	0x3d6eb75b	0.05828033
96	0x3c268cfd	0.01016545
97	0xbc9a2163	-0.018814748
98	0xbe028fd0	-0.12750173
99	0x3dcc16f2	0.09965314
100	0xbd48d264	-0.04902877
101	0x3ea4c610	0.3218236
102	0x3daf2598	0.08552092
103	0x3d88bd30	0.0667671
104	0x3d8cb3c3	0.06870224
105	0xbe24fd6d	-0.161123
106	0xbd11acd3	-0.03556521
107	0xbd9260c3	-0.07147362
108	0x3d933d6e	0.07189451
109	0xbd9c1f95	-0.07623211
110	0x3e09264b	0.13393514
111	0xbcb8b425	-0.022546837
112	0xbdf12dc8	-0.1177631
113	0xbd3acf57	-0.04560789
114	0x3c46678f	0.012109651
115	0x3e821798	0.25408626
116	0x3e4034f5	0.18770202
117	0x3e518ffc	0.20465082
118	0x3e022aa3	0.12711577
119	0xbe34a10a	-0.17639557
120	0xbe0ca7fb	-0.13735954
121	0x3e2828c4	0.16421801
122	0xbe48dcfb	-0.19615547
123	0xbc43bf39	-0.0119474465
124	0xbc8fb670	-0.017543048
125	0xbdfd5504	-0.12369731
126	0x3dc75be2	0.09734322
127	0xbea4a161	-0.32154372
128	0xbdba795e	-0.0910518
129	0xbdc1d648	-0.09464699
130	0xbda86418	-0.08222216
131	0xbcf35bb3	-0.029706812
132	0xbd8a361b	-0.06748601
133	0x3d7606b0	0.06006497
134	0xbceee298	-0.029160783
135	0xbd969cea	-0.07354148
136	0xbd3ff4c2	-0.04686428
137	0x3d0b579c	0.034019098
138	0xbdb781ef	-0.0896033
139	0xbe09d088	-0.13458455
140	0xbd6d79ae	-0.05797737
141	0xbcbcaab7	-0.023030622
142	0xbd3d2c3b	-0.04618476
143	0x3ca9e6ab	0.020739874
144	0x3d223326	0.03959956
145	0xbc9656e5	-0.018351981
146	0x3ca06377	0.019578679
147	0x3d5ec8e9	0.05439082
148	0xbd4cc46e	-0.049992017
149	0xbc99898f	-0.01874235
150	0xbd5833d7	-0.052783813
151	0x3d889f70	0.06671035
152	0x3d42cee9	0.047560606
153	0xbb01705d	-0.0019750812
154	0xbda2a72d	-0.079420425
155	0xbd87ef3b	-0.066374265
156	0xbd55b451	-0.052173916
157	0xbd81bc9a	-0.06334801
158	0x3b9695b7	0.004595484
159	0xbd12aa54	-0.03580697
160	0xbd5eb438	-0.05437109
161	0x3b8d9622	0.0043208757
162	0xbdd17eb4	-0.10229245
163	0xbdb80e5d	-0.089871146
164	0x3c18cff3	0.009326923
165	0xbce2e42a	-0.027696688
166	0x3d5e3ef4	0.054259256
167	0xbd2300cc	-0.03979568
168	0xbd406235	-0.046968658
169	0x3db42154	0.08795419
170	0xbb7f07b1	-0.0038914497
171	0xbe11eb13	-0.1424983
172	0x3d0ddfb0	0.034637153
173	0xbc9a3b0e	-0.018826988
174	0x3d50c277	0.050966706
175	0x3bb70d2c	0.005586287
176	0xbc891ca4	-0.01673729
177	0x3d317d60	0.043332458
178	0xbd7de4ef	-0.061985906
179	0x3b93c50c	0.004509574
180	0xbd612ca6	-0.05497422
181	0xbd71331c	-0.058886632
182	0xbc56d2ed	-0.013111812
183	0xbbce1ef0	-0.006290309
184	0xbd15ef9f	-0.036605474
185	0xbdd7198d	-0.1050292
186	0x3d20c546	0.039250635
187	0xbd81f38e	-0.063452825
188	0xbca8d9c3	-0.02061165
189	0xbdcbfe88	-0.09960657
190	0xbd88d042	-0.06680347
191	0xbd974427	-0.07386046
192	0xbcf49a15	-0.029858628
193	0x3cb339db	0.021878174
194	0xbc783351	-0.015148954
195	0xbe162d7d	-0.1466579
196	0xbd969181	-0.073519714
197	0xbd5960a8	-0.053070694
198	0xbd35bae3	-0.044367682
199	0x3a83a74c	0.0010044365
200	0x3d74648a	0.059666194
201	0xbd9d9bde	-0.07695745
202	0xbc33e8c2	-0.010980787
203	0xbd81997c	-0.06328103
204	0xbcc660d4	-0.024216093
205	0xbd9e425c	-0.07727501
206	0xbbd68517	-0.0065466273
207	0xbdfe441f	-0.12415337
208	0x3b842263	0.0040324195
209	0xbde9d185	-0.11416916
210	0xbcc93fe7	-0.024566604
211	0xbdc08926	-0.09401159
212	0xbdb087cd	-0.08619652
213	0xbca59d7a	-0.020216692
214	0x3c9b0431	0.018922897
215	0xbcfa1f87	-0.030532612
216	0xbe08ceff	-0.13360213
217	0x3c7a9470	0.015294179
218	0xbdb832ae	-0.089940414
219	0x3dca010b	0.0986348
220	0xbd37297b	-0.044717293
221	0x3d22a563	0.039708506
222	0x3cd13915	0.025539914
223	0xbd7fd51e	-0.062459104
224	0xbd18e50e	-0.03732782
225	0x3a23f1a0	0.00062539615
226	0x3d83008d	0.063965894
227	0x3c73b65a	0.014875019
228	0x3d2e4d99	0.04255447
229	0xbd49b617	-0.04924592
230	0x3cfbbec2	0.030730609
231	0x3d0dabc9	0.034587655
232	0xbcaaf70d	-0.020869756
233	0x3da6605c	0.08123848
234	0xbda03edf	-0.07824492
235	0xbdf77bde	-0.12084173
236	0x3d2443d1	0.040103737
237	0xbcb3663e	-0.021899339
238	0x3d33cabd	0.04389452
239	0x3c9ee6dc	0.019397192
240	0x3d7573b0	0.05992478
241	0x3d052433	0.032505225
242	0xbd2790da	-0.040909626
243	0xbd8d2a1b	-0.068927966
244	0xbdb4fb85	-0.08837036
245	0x3daef392	0.08542551
246	0xbd725a2e	-0.059168033
247	0xbd8fdf3d	-0.07025001
248	0xbd4347e4	-0.047675982
249	0xbdfcc1ae	-0.12341629
250	0xbdc0938b	-0.094031416
251	0xbc7bc659	-0.015367114
252	0x3cc745c0	0.024325252
253	0xbc881cf7	-0.016615374
254	0xbd11225e	-0.035433166
255	0x3a4c1377	0.0007784883

hidden_1.bias f4 [128]
0	0xbcd16054	-0.025558628
1	0x3c33ce2e	0.01097445
2	0xbd28eaef	-0.041239675
3	0xbd9cac87	-0.076500945
4	0xbe13b95b	-0.14426176
5	0xbc65c748	-0.014024563
6	0x3d9f9a4b	0.07793101
7	0x3e4726a8	0.1944834
8	0xbd4eacb5	-0.050457675
9	0xbd9eff51	-0.077635415
10	0x3cf41e7c	0.029799692
11	0x3c0b0741	0.008485616
12	0xbc52471a	-0.012834335
13	0xbd32b949	-0.043633733
14	0xbdd457b5	-0.10368291
15	0x3de8df7d	0.11370752
16	0xbcc60b3b	-0.024175277
17	0xbe02f100	-0.12787247
18	0xbe1b1c43	-0.151475
19	0xbc5b49a4	-0.0133842565
20	0x3e26a713	0.16274671
21	0xbd552fbf	-0.052047487
22	0xbde7862a	-0.11304887
23	0xbdb71567	-0.08939629
24	0x3ca327fe	0.01991653
25	0x3d07bd32	0.033139415
26	0x3e027058	0.12738168
27	0xbe5a78fe	-0.21335217
28	0x3cdaa9e7	0.026692344
29	0xbb110181	-0.002212614
30	0xbdf0e1cb	-0.117618166
31	0xbd9afc2d	-0.0756763
32	0x3d595984	0.053063884
33	0x3d85a370	0.06525314
34	0xbc0c3e70	-0.008559808
35	0xbd2364e6	-0.039891146
36	0xbd1cd8bd	-0.038292635
37	0xbdd3ed9a	-0.10348053
38	0xbcdd8136	-0.027039152
39	0xbdbfe9e7	-0.09370785
40	0xbdbad2d1	-0.09122241
41	0xbe0c2ad7	-0.13688217
42	0x3da97af5	0.08275405
43	0xbd0b0226	-0.033937596
44	0x3e2ec000	0.1706543
45	0xbd9f7bb2	-0.07787265
46	0x3d3e0c9e	0.04639875
47	0x3dcd92ac	0.10037741
48	0xbdff8ebf	-0.124783985
49	0xbc9cbd6f	-0.019133298
50	0xbe1e75df	-0.15474652
51	0xbbf7cd50	-0.007562317
52	0xbd8b759f	-0.06809544
53	0xbd295273	-0.041338395
54	0xbd2d0fb9	-0.042251322
55	0xbdcf93f3	-0.10135641
56	0xbcd4b01d	-0.025962884
57	0xbd0ec931	-0.03485984
58	0x3dd44dfa	0.10366435
59	0xbe27173a	-0.16317454
60	0xbba41a1b	-0.005007995
61	0xbd8357e0	-0.06413245
62	0xbdaf932e	-0.08572994
63	0x3cf64a68	0.030064777
64	0xbe070ea2	-0.13189176
65	0x3ca735c8	0.020411387
66	0x3d81cc48	0.06337792
67	0x3e43b47e	0.19111821
68	0xbdc810c9	-0.097688265
69	0xbd433d72	-0.04766602
70	0xbe0217fa	-0.12704459
71	0xbce55e9f	-0.02799922
72	0x3d780847	0.06055477
73	0x3ccaf493	0.024774825
74	0xbd5672ce	-0.05235558
75	0x3d5e570f	0.054282244
76	0x3c59e404	0.013298992
77	0x3c22afae	0.009929581
78	0x3ca70cd9	0.020391868
79	0xbdbf2f6a	-0.093352154
80	0x3dce8440	0.100838184
81	0xbdbf8dc2	-0.0935321
82	0xbd0908bf	-0.033455607
83	0x3d3dd404	0.046344772
84	0x3d13629a	0.035982706
85	0xbdb716f4	-0.08939925
86	0x3c9d34f7	0.019190295
87	0xbd2b29ac	-0.04178779
88	0xbe04fcaf	-0.12987016
89	0xbe1c1dec	-0.1524579
90	0xbe1d90d0	-0.15387273
91	0xbd93a5c8	-0.07209355
92	0xbd20f3a9	-0.039294872
93	0x3e299765	0.16561659
94	0xbdff59ee	-0.124683246
95	0xbd7f543a	-0.062336184
96	0xbdebff6f	-0.115233295
97	0xbc7015a4	-0.014653597
98	0xbcf8b8ad	-0.030361498
99	0x3e8e3b38	0.27779555
100	0x3dbf69f7	0.09346383
101	0x3ea57707	0.32317373
102	0xbd483344	-0.048877016
103	0xbd1c006a	-0.038086332
104	0xbb5eb26f	-0.0033980866
105	0xbd8468a0	-0.06465268
106	0x3d662ed1	0.05619699
107	0xbd8b9a1b	-0.06816503
108	0x3e93be98	0.2885635
109	0xbe1bd450	-0.1521771
110	0xbcea2fff	-0.02858734
111	0x3e46af53	0.19402818
112	0x3e0b227b	0.13587372
113	0xbc988b56	-0.018621128
114	0x3e507d2d	0.20360251
115	0xbdc47264	-0.09592131
116	0xbd312d93	-0.043256354
117	0x3ceca81d	0.028888756
118	0x3cdd1988	0.026989713
119	0x3ba5d890	0.0050612167
120	0xbe281f91	-0.16418292
121	0x3d41d1c7	0.0473192
122	0x3e1c6fc5	0.15277012
123	0x3c673fa3	0.014114293
124	0x3d4b2733	0.04959793
125	0x3c0edd43	0.008719745
126	0x3e3ff140	0.18744373
127	0xbda47f89	-0.08032138

hidden_2.weight f4 [128, 128]
0	0x3d3a41b1	0.045472804
1	0xbcfff0ec	-0.03124281
2	0x3ddc03dc	0.107429236
3	0x3e1acc9b	0.15117113
4	0xbb837f96	-0.004013012
5	0xbd311769	-0.043235216
6	0xbdd42e7d	-0.103604294
7	0xbe76884b	-0.24075429
8	0xbdbe2633	-0.0928463
9	0xbd17da4b	-0.037073415
10	0xbd06af66	-0.032882117
11	0xbdbbbe0b	-0.09167107
12	0x3d023e5d	0.031797756
13	0xbca69909	-0.020336645
14	0x3d62f3ed	0.055408407
15	0xbce56a01	-0.028004648
16	0x3e011959	0.12607326
17	0x3e031340	0.12800312
18	0xbcc4abf5	-0.024007777
19	0x3c9cfd8c	0.01916387
20	0xbe2d1023	-0.16900687
21	0xbb04c369	-0.0020258075
22	0xbd68a737	-0.056800094
23	0xbc3b99f2	-0.011450278
24	0xbdf129a2	-0.11775519
25	0x3c823c16	0.015897792
26	0xbdee27bf	-0.11628675
27	0xbe1a1c58	-0.15049875
28	0x3cfba6ea	0.03071924
29	0xbca4ea66	-0.020131301
30	0x3d03d483	0.03218509
31	0xbcca28e2	-0.024677698
32	0xbd05c354	-0.032656983
33	0xbdefd376	-0.11710255
34	0x3dcb3ff7	0.0992431
35	0xbe342c3f	-0.17595004
36	0x3ba58aec	0.005051961
37	0xbd6263ce	-0.055270962
38	0xbb7deff2	-0.0038747755
39	0x3dcb8c42	0.099388614
40	0xbd0d23d5	-0.034458
41	0x3ddb601a	0.10711689
42	0x3de28cc8	0.11062008
43	0xbd078efc	-0.033095345
44	0xbc4da9df	-0.012552707
45	0x3d6c63b1	0.05771226
46	0xbe72d0ce	-0.23712465
47	0xbbb39698	-0.0054805987
48	0x3db3b9b0	0.087756515
49	0xbd9e219f	-0.077212565
50	0xbdc7d1b2	-0.09756793
51	0xbd02c884	-0.031929508
52	0xbcb30224	-0.021851607
53	0x3d5f4ca1	0.05451644
54	0x3d542419	0.051792238
55	0xbd2a52ba	-0.0415828
56	0xbdad0589	-0.08448321
57	0x3d7442ae	0.059633903
58	0xbdfcbfcd	-0.123412706
59	0x3e8c7379	0.2743185
60	0x3d02c97c	0.03193043
61	0xbd826444	-0.063667804
62	0xbd9c2322	-0.076238886
63	0xbdf83edf	-0.12121367
64	0x3d90538c	0.07047185
65	0xbd942842	-0.07234241
66	0x3cabcd17	0.020971818
67	0xbe578e91	-0.21050479
68	0xbd9bcb64	-0.07607153
69	0xbd2962a3	-0.041353833
70	0x3c699d6c	0.014258724
71	0xbdcd7008	-0.10031134
72	0xbdf30d70	-0.118677974
73	0xbdb4d4cc	-0.0882965
74	0x3d401395	0.046893675
75	0xbdbd144e	-0.092323884
76	0xbb2211df	-0.002472989
77	0xbd3baa58	-0.04581675
78	0x3cb73e84	0.022368677
79	0xbd0a5f8e	-0.033782534
80	0xbc4584ec	-0.012055617
81	0xbb00036e	-0.0019533294
82	0x3cfcd3e1	0.03086275
83	0xbded5370	-0.1158818
84	0x3dc8cfa1	0.09805227
85	0xbd46a596	-0.04849776
86	0xbe2ea84a	-0.17056385
87	0xbd82b6e4	-0.0638254
88	0x3d45dd14	0.04830654
89	0x3d62571a	0.055258848
90	0x3cc87ce0	0.024473608
91	0x3cb773a8	0.022394016
92	0xbdc41420	-0.09574151
93	0xbe03668f	-0.12832092
94	0xbd821244	-0.0635114
95	0x3cfc2d0e	0.030783202
96	0x3d6aa1f9	0.057283375
97	0xbd368b82	-0.04456664
98	0x3d0720b4	0.032990173
99	0xbe246e13	-0.16057615
100	0x3d9055fd	0.07047651
101	0xbd7878ff	-0.060662266
102	0xbda8dd71	-0.082453616
103	0xbd054547	-0.03253677
104	0xbd58e49e	-0.0529524
105	0x3c78f183	0.0151943
106	0xbd849637	-0.06473964
107	0xbc840c58	-0.016119167
108	0xbd87b87b	-0.06626984
109	0xbe131ff5	-0.1436766
110	0x3d80bea3	0.06286361
111	0xbe41bbac	-0.18919247
112	0xbe0fee5a	-0.14055768
113	0xbcfba57c	-0.030718558
114	0xbdcb1186	-0.09915452
115	0x3d879496	0.066201374
116	0x3d9210dd	0.07132123
117	0x3c7026d5	0.014657696
118	0x3d30d67b	0.043173295
119	0x3e129280	0.14313698
120	0xbc882540	-0.016619325
121	0x3cefa024	0.029251166
122	0xbdd82f18	-0.105558574
123	0x3d365259	0.044512127
124	0x3da27130	0.07931745
125	0xbd06c730	-0.032904804
126	0xbd6d0f68	-0.05787602
127	0x3d71f029	0.059066925
128	0x3d8e88c9	0.069596834
129	0x3cdbe3aa	0.026841957
130	0x3e255935	0.16147311
131	0xbd941011	-0.07229627
132	0x3d2e841f	0.04260647
133	0x3d9902a2	0.07471205
134	0x3e83a0f1	0.25708726
135	0x3e0c78cd	0.13717957
136	0x3dbba54a	0.09162386
137	0xbd4833b9	-0.04887745
138	0x3d6859ba	0.056726195
139	0x3d018cdd	0.03162848
140	0x3db766dd	0.089551665
141	0x3ce99056	0.028511208
142	0x3eacde95	0.33763567
143	0x3d1eba2b	0.038751762
144	0x3c630f99	0.013858699
145	0xbcb3da31	-0.021954628
146	0xbd9deb05	-0.07710842
147	0x3c8a7c10	0.01690486
148	0x3d13b1e7	0.036058333
149	0xbb6778d3	-0.003531982
150	0x3d3f5a43	0.04671694
151	0x3d9bb57d	0.076029755
152	0xbd4da6c0	-0.050207853
153	0xbe6d40fc	-0.23169321
154	0x3de435e6	0.11143093
155	0xbdc93770	-0.09825027
156	0xbe105906	-0.1409646
157	0xbe069cb5	-0.13145716
158	0x3cb1d623	0.021708554
159	0xbe786453	-0.2425702
160	0x3e08078d	0.1328413
161	0x3e27c8d7	0.16385208
162	0x3e449b64	0.19199902
163	0x3e325101	0.17413713
164	0x3dbfebd6	0.09371154
165	0xbd593c5b	-0.053036075
166	0x3cf166f7	0.029468043
167	0x3ec74870	0.38922453
168	0xbacf2db8	-0.0015806472
169	0xbaaa14f8	-0.001297622
170	0x3e8923ab	0.26785025
171	0x3dc4f151	0.0961634
172	0x3dab96db	0.08378383
173	0xbacad89b	-0.001547593
174	0x3e882245	0.26588646
175	0xbd441d65	-0.047879595
176	0xbd9ffbb6	-0.07811682
177	0x3db4016a	0.08789332
178	0xbdf376d4	-0.11887899
179	0x3d355d89	0.044278655
180	0xbe5a31a8	-0.21308005
181	0xbcec1bbc	-0.028821819
182	0x3dbd1dfa	0.09234233
183	0x3ce228fe	0.027607437
184	0xbd9869bc	-0.07442042
185	0xbd8e32b8	-0.069432676
186	0x3e107145	0.14105709
187	0xbe9037a7	-0.2816746
188	0xbed87561	-0.42277053
189	0xbce4199f	-0.027844248
190	0x3d4ba326	0.049716137
191	0x3e824708	0.25444818
192	0xbc854c5b	-0.01627176
193	0xbdfd5e0c	-0.12371454
194	0xbae8bc50	-0.0017756317
195	0x3eb8629e	0.3601274
196	0xbcb77c09	-0.022398012
197	0x3bd61464	0.0065331925
198	0x3a1a1b31	0.00058786856
199	0xbdab761f	-0.08372139
200	0xbdcfb35d	-0.10141633
201	0xbbc172ff	-0.005903601
202	0x3e61ccef	0.22050832
203	0x3dbe9428	0.09305602
204	0xbce8905b	-0.028389147
205	0xbd30f1ad	-0.04319923
206	0x3ddc0f3a	0.10745092
207	0xbe36a60b	-0.17836778
208	0x3d69408f	0.056946333
209	0xbdeb9d93	-0.11504664
210	0xbcbaf99a	-0.022824097
211	0xbdbeda1b	-0.09318944
212	0xbc843616	-0.016139071
213	0xbc841052	-0.016121063
214	0x3e53521f	0.20636795
215	0xbd46160f	-0.04836088
216	0xbe47dbc1	-0.19517423
217	0xbe841730	-0.2579894
218	0xbc022d36	-0.007945349
219	0xbd3102f9	-0.043215726
220	0x3e9b6d09	0.30356625
221	0xbdba1bb8	-0.09087318
222	0xbdf6d457	-0.12052219
223	0xbd309205	-0.043108005
224	0xbe628a10	-0.22122979
225	0xbd83c329	-0.06433708
226	0x3da45f2a	0.080259636
227	0x3ce53c27	0.027982784
228	0xbe429deb	-0.19005553
229	0xbdde513b	-0.10855337
230	0xbd33c609	-0.043890033
231	0xbbf8a02c	-0.0075874534
232	0xbe410fb4	-0.18853647
233	0x3e8b07f3	0.27154502
234	0x3f00e5fa	0.50350916
235	0x3e42ef16	0.19036517
236	0x3dd7a04a	0.105286196
237	0x3d84ee03	0.0649071
238	0xbd653108	-0.055954963
239	0x3e89e8cb	0.2693542
240	0x3e00cef1	0.12578942
241	0xbc5139e4	-0.01277015
242	0xbdb18f49	-0.086699076
243	0xbd3ed9cf	-0.046594437
244	0x3d078d29	0.033093605
245	0x3d93ca6c	0.07216343
246	0x3d952aee	0.07283579
247	0x3e5a35a3	0.21309523
248	0xbd62868f	-0.055304106
249	0x3e10c03f	0.14135836
250	0xbda53d8f	-0.08068382
251	0x3cb38931	0.021916004
252	0x3cfe964f	0.031077532
253	0x3dd2e9b3	0.10298481
254	0xbe78079e	-0.24221656
255	0xbced4b9c	-0.028966717

hidden_2.bias f4 [128]
0	0xbd3fd10c	-0.046830222
1	0x3e1e40b3	0.15454368
2	0xbdce8be1	-0.100852735
3	0xbc9bceca	-0.019019503
4	0x3e07a22d	0.13245459
5	0xbdb7ddc3	-0.089778446
6	0xbdaf0e5f	-0.08547663
7	0x3e128287	0.14307605
8	0xbd184b7a	-0.037181355
9	0xbca02c01	-0.019552233
10	0x3e16a461	0.14711143
11	0xbd80fd6f	-0.062983386
12	0x3cc63312	0.024194274
13	0x3d3b74c2	0.045765646
14	0x3d04d5a1	0.032430295
15	0x3dcf6495	0.101266064
16	0xbd00493c	-0.03131984
17	0xbd466112	-0.048432417
18	0xbddc06d7	-0.10743492
19	0xbdcdc707	-0.10047727
20	0x3e2fe1d6	0.17175993
21	0x3e2436c4	0.16036516
22	0x3d0998a9	0.033592854
23	0xba8314cc	-0.0010000705
24	0x3d5485f0	0.051885545
25	0x3d3bff96	0.045898043
26	0xbda427b7	-0.080153875
27	0xbb12afae	-0.0022382545
28	0xbb206ad5	-0.002447774
29	0xbcac485c	-0.021030597
30	0xbdce67e9	-0.10078413
31	0x3e82357d	0.25431433
32	0xbe2b97ec	-0.16757172
33	0x3dfcb133	0.123384856
34	0xbd9b3233	-0.07577934
35	0xbc1058c6	-0.008810228
36	0x3dfec434	0.124397665
37	0xbda27188	-0.079318106
38	0xbe1486de	-0.14504573
39	0xbccb1fd6	-0.024795454
40	0x3e3d46bf	0.18484019
41	0xbc8af9bc	-0.016964786
42	0x3e334184	0.17505461
43	0x3d8b05b2	0.06788196
44	0xbc9dfb08	-0.01928474
45	0xbdfdf062	-0.12399365
46	0x3dba4f4d	0.09097157
47	0xbaa64b05	-0.0012687152
48	0x3e5dae14	0.21648437
49	0xbb64dfde	-0.0034923474
50	0x3dc55e6e	0.09637152
51	0x3c5876a9	0.013211885
52	0x3ddaac8f	0.10677444
53	0xbd287d29	-0.041134987
54	0xbd97a383	-0.07404234
55	0x3d41b20f	0.04728895
56	0xbdafb4d3	-0.08579411
57	0xbe102a28	-0.14078581
58	0x3d58d292	0.05293519
59	0x3dcc6eac	0.099820465
60	0x3d5a4d6b	0.053296488
61	0xbd7fb743	-0.06243063
62	0xbd67e2a7	-0.056612637
63	0xbe1cab6d	-0.15299769
64	0x3c8228b6	0.015888553
65	0xbdb0ce66	-0.086331174
66	0x3d347cc1	0.044064287
67	0x3df9b1b6	0.12192099
68	0xbc741d95	-0.014899631
69	0xbdd17701	-0.10227776
70	0x3c6b88fa	0.0143759195
71	0xbd79a237	-0.060945716
72	0x3d9c7346	0.07639174
73	0xbe0377e9	-0.12838711
74	0x3d913ae0	0.07091308
75	0xbde76422	-0.11298396
76	0x3c64edb9	0.013972693
77	0x3d985b84	0.0743933
78	0x3cbf5e2e	0.023360338
79	0x3e564641	0.20925237
80	0x3e244037	0.16040121
81	0x3c23192a	0.00995473
82	0x3db99358	0.09061307
83	0x3e5e44fd	0.21706004
84	0x3cc5e1fe	0.024155613
85	0xbde597f0	-0.112106204
86	0xbe4b5869	-0.19857945
87	0x3da3bfd5	0.079955734
88	0x3c6ee18c	0.014580142
89	0xbdcefc31	-0.101066954
90	0xbdc9d248	-0.09854561
91	0x3d60106f	0.054703172
92	0xbe06df3a	-0.13171092
93	0x3d7d4d56	0.06184133
94	0x3e3d522f	0.18488382
95	0x3e104974	0.1409052
96	0x3e9e3ed4	0.3090731
97	0x3e6c6a1c	0.23087353
98	0xbde88930	-0.113542914
99	0x3e5e1e58	0.21691263
100	0xbabbcc21	-0.0014327803
101	0x3cd7fc24	0.026365347
102	0x3dad3ede	0.084592566
103	0xbd0d7d1b	-0.034543138
104	0xbe085f69	-0.13317646
105	0xbb91d509	-0.0044504446
106	0xbba63963	-0.005072759
107	0xbdc8bb36	-0.09801333
108	0x3e7146b6	0.2356213
109	0x3c73d80e	0.014883054
110	0xbdf2afd4	-0.11849943
111	0x3d3eb927	0.046563294
112	0x3d8306d6	0.06397788
113	0xbe7458f5	-0.2386206
114	0x3b5db4ad	0.0033829615
115	0x3e2019ef	0.15634893
116	0x3be1997d	0.0068847523
117	0x3dcff5e8	0.10154325
118	0xbdbdb6d3	-0.092633866
119	0xbe27415c	-0.16333526
120	0xbd29e275	-0.041475732
121	0x3dd1a9c3	0.102374576
122	0x3dbf6cdc	0.09346935
123	0xbc73dbb8	-0.014883928
124	0xbd31313a	-0.043259837
125	0xbceb24bf	-0.028704045
126	0x3ce31d07	0.027723802
127	0x3c8955f7	0.016764624

hidden_3.weight f4 [128, 128]
0	0xbdc0283c	-0.09382674
1	0x3e6cd474	0.2312792
2	0xbd4e28b6	-0.050331794
3	0xbe4bfd69	-0.19920887
4	0x3d9f1e14	0.07769409
5	0xbdc891a3	-0.09793403
6	0xbd3be2fd	-0.04587077
7	0xbe208f34	-0.15679628
8	0xbd88653c	-0.06659934
9	0xbd8ebb09	-0.06969268
10	0xbcd0658e	-0.02543905
11	0xbe1a4fcf	-0.15069507
12	0x3d9ec3f0	0.07752216
13	0xbc56e1bb	-0.013115342
14	0x3d8ac135	0.067751326
15	0xbd84bd2e	-0.06481396
16	0xbd242082	-0.040070064
17	0xbd3cb989	-0.046075378
18	0xbcdd22bf	-0.026994107
19	0xbd9a131f	-0.07523178
20	0xbe68adfb	-0.22722618
21	0xbe012194	-0.12610465
22	0x3c04b6f8	0.008100264
23	0x3bb4f5bf	0.0055224593
24	0xbdb95b1b	-0.0905058
25	0xbd8a1e21	-0.06744028
26	0x3d63b0c5	0.055588502
27	0xbe45c603	-0.19313817
28	0xbdc5e22f	-0.09662282
29	0xbdce7a80	-0.10081959
30	0xbddb7096	-0.107148334
31	0xbe3a0c8c	-0.18168849
32	0xbe0b5400	-0.13606262
33	0xbdb8e445	-0.09027914
34	0xbd00fe17	-0.03149232
35	0x3c93910e	0.018013503
36	0xbdcbcdd9	-0.09951372
37	0xbe6b6337	-0.22987066
38	0xbddf6ec3	-0.10909798
39	0xbddd3bcd	-0.10802422
40	0xbe03ffd6	-0.12890562
41	0xbd9d98fd	-0.07695196
42	0xbe0be9ee	-0.13663456
43	0x3c876c3c	0.016531102
44	0x3d8b6605	0.06806568
45	0x3d636b50	0.055522263
46	0xbdbaeb0c	-0.09126863
47	0xbe0943dd	-0.13404794
48	0x3bb8e051	0.005641975
49	0xbdd5053c	-0.10401389
50	0x3c3ff17e	0.011715291
51	0x3d793e43	0.060850393
52	0xbdfa48a9	-0.1222089
53	0x3cc16977	0.02360986
54	0xbd5f48ab	-0.05451266
55	0x3d13c819	0.0360795
56	0x3c8a11a8	0.016854122
57	0xbdfbbe3c	-0.12292144
58	0xbd3679b4	-0.04454966
59	0xbdcd92e6	-0.10037784
60	0xbde9870d	-0.11402712
61	0x3cd47115	0.025932828
62	0x3d046242	0.03232027
63	0xbdb65b53	-0.089041375
64	0xbde39d7e	-0.111140236
65	0xbd1ee6eb	-0.03879444
66	0x3da3753d	0.07981346
67	0x3e1f1900	0.1553688
68	0xbd17b20b	-0.03703503
69	0x3d0144e2	0.031559832
70	0xbce9d791	-0.028545173
71	0x3e0d0974	0.13773137
72	0xbdd90f4b	-0.1059862
73	0xbd8de5e0	-0.06928611
74	0xbd7ead52	-0.06217701
75	0x3d9b0776	0.075697824
76	0x3d2b7ed3	0.041868996
77	0x3ced6528	0.0289789
78	0xbd9371af	-0.07199418
79	0x3d52b95a	0.051446296
80	0xbdad3e6d	-0.084591724
81	0x3d68c681	0.056829933
82	0xbd6eea99	-0.0583292
83	0xbd8340be	-0.06408833
84	0xbd858bd6	-0.06520812
85	0xbbd0af5e	-0.0063685616
86	0xbe184048	-0.14868271
87	0xbd44f879	-0.048088524
88	0x3cc2321f	0.02370554
89	0xbd42f9f0	-0.04760164
90	0x3d0fd2d2	0.035113163
91	0xbdc783ad	-0.09741912
92	0xbc2257cd	-0.009908629
93	0x3ccf8436	0.025331598
94	0xbdca6504	-0.098825485
95	0xbe241907	-0.16025172
96	0x3d5ad70d	0.053427745
97	0xbe34224a	-0.17591205
98	0xbd21af45	-0.03947379
99	0xbe93e37b	-0.2888449
100	0xbb6b222a	-0.0035878518
101	0xbe6d8594	-0.23195487
102	0xbd9c8921	-0.07643343
103	0x3d24b11f	0.04020798
104	0xbd96fa1b	-0.073719226
105	0xbcbc37b2	-0.022975776
106	0xbd553315	-0.05205067
107	0x39a56e37	0.0003155337
108	0x3d1f1f0a	0.03884796
109	0x3d8d3698	0.068951786
110	0x3d90e831	0.07075537
111	0xbd862dcc	-0.06551704
112	0xbcc0cbc4	-0.023534663
113	0xbdfd57ef	-0.123702876
114	0xbe215d59	-0.15758266
115	0xbe22ae8d	-0.15886898
116	0xbe15238a	-0.14564338
117	0xbc7c3c61	-0.015395255
118	0xbdd74d04	-0.105127364
119	0xbdc4eebc	-0.096158475
120	0xbd9c025c	-0.076176375
121	0xbd98a9c3	-0.074542545
122	0xbd884acf	-0.066548936
123	0x3d03a0f5	0.032135922
124	0xbd3e1c93	-0.04641397
125	0xbdf0589e	-0.117356524
126	0x3d9f0a23	0.07765605
127	0x3ca6b9f8	0.020352349
128	0xbde714c2	-0.11283256
129	0xbde12c1c	-0.10994741
130	0xbc6b15af	-0.0143484315
131	0xbc3401be	-0.0109867435
132	0xbd8f4944	-0.06996396
133	0xbda7dacd	-0.0819603
134	0x3ce371c4	0.027764209
135	0xbd42aae3	-0.04752625
136	0xbdd0afc4	-0.10189775
137	0xbc82b5b4	-0.015955783
138	0x3c2ae253	0.010429936
139	0x3cfc4a10	0.030797035
140	0xbd4012a6	-0.046892785
141	0xbbfcf2f2	-0.007719391
142	0xbde45644	-0.11149266
143	0xbd506904	-0.0508814
144	0x3cedde6d	0.029036725
145	0x3da310a9	0.07962162
146	0xbc0bb994	-0.008528132
147	0xbdc4a7f5	-0.09602348
148	0xbd711228	-0.058855206
149	0xbc85e2de	-0.01634353
150	0xbcff304b	-0.031150958
151	0xbd23370c	-0.03984742
152	0xbd942c38	-0.072349966
153	0xbd0276a2	-0.03185142
154	0xbd90f8bd	-0.07078693
155	0xbd19aeb8	-0.03752014
156	0x3d5463ed	0.05185311
157	0xbd11dc4a	-0.035610475
158	0x3d3f0d42	0.046643503
159	0xbca7e287	-0.020493759
160	0xbd54f279	-0.051989052
161	0xba81fa1b	-0.0009916456
162	0x3d0b55ed	0.034017492
163	0xbd977378	-0.07395071
164	0xbbef3957	-0.0073005366
165	0x3d428c1b	0.047496896
166	0x3d93e71d	0.07221816
167	0x3c61d4de	0.013783662
168	0xbdc288b4	-0.0949873
169	0xbd4d2d5d	-0.05009209
170	0x3cbeeac8	0.023305312
171	0xbdfa2dce	-0.12215768
172	0xbd111fbe	-0.035430662
173	0xbd22cbf1	-0.039745275
174	0x3cc1c333	0.023652649
175	0xbc4a1cd7	-0.0123359775
176	0xbd045ec2	-0.03231693
177	0xbd1302c1	-0.0358913
178	0x3d802a87	0.062581114
179	0x3d8124de	0.0630586
180	0x3ce2db9a	0.027692605
181	0x3da191d6	0.07889144
182	0x3d3f2948	0.04667023
183	0x3da70fc3	0.08157303
184	0xbd8e3ea6	-0.06945543
185	0xbd9c5c92	-0.07634844
186	0x3d800c2f	0.06252324
187	0xbd54ef78	-0.051986188
188	0xbd759b35	-0.05996247
189	0x3d813f51	0.06310905
190	0xbaf5002b	-0.0018692067
191	0x3cb7c4d3	0.02243272
192	0xbca0d835	-0.019634346
193	0x3bc4cec6	0.0060060946
194	0x3d191524	0.037373677
195	0x3be413bf	0.0069603617
196	0x3cda4865	0.026645849
197	0x3cca27f9	0.024677264
198	0xbd418401	-0.04724503
199	0xbd6c54bf	-0.057698008
200	0xbd80f8e9	-0.06297476
201	0xbd835601	-0.06412888
202	0x3cf10abc	0.029424064
203	0xbd5eccb2	-0.05439443
204	0xbca8032e	-0.020509329
205	0xbdee1641	-0.11625338
206	0x3d524b5c	0.0513414
207	0xbc24f3f9	-0.010067933
208	0xbe2deb1d	-0.1698422
209	0xbce5334c	-0.027978562
210	0x3c3bd633	0.011464643
211	0xbdc016a4	-0.09379318
212	0xbdc3d7cf	-0.095626466
213	0x3c455ec9	0.012046524
214	0x3c694d83	0.014239672
215	0x3cc8483f	0.024448512
216	0x3d9d6b26	0.076864526
217	0x3d9377a9	0.07200558
218	0xbd11fbcc	-0.035640523
219	0xbde5d897	-0.11222952
220	0xbc87247f	-0.016496895
221	0xbda787bf	-0.081801884
222	0xbdc316f2	-0.09525861
223	0xbd5fe5ee	-0.054662637
224	0xbda199fd	-0.07890699
225	0xbdb2c3d6	-0.08728759
226	0xbd18833b	-0.037234526
227	0xbd9c9282	-0.07645132
228	0xbd44dd50	-0.048062623
229	0x3ba23a1f	0.004950776
230	0x3d2a6d4e	0.041608147
231	0xbd735a94	-0.059412554
232	0x3d48fba3	0.049068104
233	0x3d3157c4	0.04329659
234	0xbcb7c659	-0.022433447
235	0xbda347f4	-0.07972708
236	0x3cea84eb	0.028627833
237	0x3bda320b	0.0066587976
238	0xbbe18210	-0.0068819597
239	0xbdb31c84	-0.08745673
240	0x3d8e4399	0.06946487
241	0xbc3edef7	-0.011649839
242	0x3ce2a260	0.027665317
243	0x3c9e9817	0.019359631
244	0xbd3ae260	-0.045626044
245	0xbdc470d7	-0.09591835
246	0xbc18fdc7	-0.009337849
247	0xbb2bb173	-0.0026198297
248	0xbdf0ba52	-0.11754288
249	0x3d1e79a1	0.038690213
250	0xbc31f27c	-0.010861035
251	0xbafccea9	-0.0019287664
252	0xbd47698c	-0.04868464
253	0x38d6d822	0.00010244573
254	0x3cc07fed	0.0234985
255	0xbd0305b3	-0.031987857

hidden_3.bias f4 [128]
0	0x3dc19f5c	0.094542235
1	0x3d5ac8d9	0.0534142
2	0x3d3f0660	0.04663694
3	0xbd999c02	-0.07500459
4	0x3d2c2fd8	0.042037815
5	0xbd3bebca	-0.045879163
6	0x3e04f8cb	0.12985532
7	0xbb2dd90f	-0.0026527082
8	0x3e75f5f7	0.2401961
9	0xbccc791c	-0.024960093
10	0x3dcf133c	0.101110905
11	0xbd0a3394	-0.033740595
12	0xbca407d1	-0.020023258
13	0xbd8c19b3	-0.06840839
14	0xbd81aa80	-0.063313484
15	0xbb5edd5a	-0.0034006448
16	0x3b7fc5a8	0.0039027724
17	0xbd26c092	-0.040710993
18	0x3ce64e17	0.028113408
19	0x3dec78c1	0.115464695
20	0x3d146823	0.036232125
21	0xbe20e57b	-0.1571254
22	0xbd866c1c	-0.06563589
23	0xbd498bcf	-0.049205597
24	0x3c775061	0.015094847
25	0x3d7a76da	0.061148502
26	0xbd82cb92	-0.06386484
27	0xbb44bbb4	-0.0030019106
28	0xbc36f10d	-0.011165869
29	0xbda2327c	-0.079197854
30	0x3de77301	0.11301232
31	0xbd647f2b	-0.05578534
32	0xbda6fe6e	-0.08153997
33	0xbd74c4d0	-0.059758008
34	0xbdf9440c	-0.12171182
35	0x3df041e7	0.1173132
36	0xbdd8c4a8	-0.10584384
37	0xbd9d93fa	-0.0769424
38	0xbddedc9c	-0.10881922
39	0xbd871127	-0.065950684
40	0x3cb3fa04	0.021969803
41	0x3b015977	0.0019737163
42	0x3e6e5131	0.2327316
43	0xbd5dd08f	-0.054153975
44	0x3d0a066a	0.033697523
45	0xbdc247a8	-0.094863236
46	0xbdff93c9	-0.1247936
47	0xbd684dd2	-0.05671484
48	0xbd4a7a4b	-0.049433034
49	0x3dfa438f	0.12219917
50	0xbe0b2c91	-0.1359122
51	0x3c1ab929	0.00944356
52	0x3cdda64e	0.02705684
53	0x3c957954	0.01824633
54	0x3c849f72	0.01618931
55	0x3ccbb702	0.024867538
56	0xbd888ac6	-0.06667094
57	0x3d8b6b7d	0.06807611
58	0xbd17baf7	-0.037043538
59	0x3ca88497	0.020571036
60	0x3e359522	0.17732671
61	0x3ce70317	0.028199716
62	0x3d5203b6	0.05127307
63	0x3cd31569	0.025767045
64	0xbdc220e1	-0.094789274
65	0x3e8a2704	0.26982892
66	0xbdc1fe90	-0.09472382
67	0x3d2fde5e	0.042936675
68	0xbde3f096	-0.111298725
69	0xbc8201db	-0.015870025
70	0x3c2f91df	0.010715931
71	0x3e83caa4	0.2574054
72	0x3db43b94	0.08800426
73	0x3ab7dde8	0.0014027925
74	0xbd15212a	-0.03640858
75	0x3d9fdab5	0.07805387
76	0x3e87ace1	0.26499084
77	0x3eb764c6	0.35819072
78	0xbd9b4f1d	-0.07583449
79	0x3c0a15e4	0.008428071
80	0x3da590f8	0.08084291
81	0x3db7f0ab	0.08981451
82	0x3e98af05	0.2982103
83	0xbdc9ccad	-0.09853492
84	0xbd84afc4	-0.06478837
85	0xbcdc2115	-0.026871243
86	0xbd44c604	-0.048040405
87	0xbdcc8b79	-0.0998754
88	0xbe163a91	-0.14670779
89	0xbe2854c0	-0.1643858
90	0xbc974fbd	-0.01847064
91	0x3df30e84	0.11868003
92	0xbd984de1	-0.07436729
93	0x3df68e8a	0.12038906
94	0xbe18f794	-0.14938194
95	0xbcd7a555	-0.026323954
96	0x3e47cdc5	0.19512089
97	0xbad84c99	-0.001650232
98	0xbd84b71a	-0.06480236
99	0xbd12e52d	-0.03586309
100	0xbcedf872	-0.029049132
101	0x3d4d95e9	0.050191794
102	0xbb859beb	-0.0040774248
103	0xbdf9b448	-0.12192589
104	0xbc4d9953	-0.012548762
105	0x3d3abbe6	0.04558935
106	0xbd882427	-0.066475205
107	0x3da32a96	0.07967107
108	0x3a1b06a2	0.0005913769
109	0xbdc5d246	-0.09659247
110	0xbbcfcc38	-0.0063414834
111	0x3c649776	0.013952127
112	0x3e03bad0	0.12864232
113	0x3e0a400a	0.13500991
114	0x3c251a80	0.010077119
115	0x3d715a22	0.058923848
116	0x3e2f816a	0.17139211
117	0x3dbb295a	0.091387466
118	0x3dde0c80	0.10842228
119	0x3ce730f2	0.028221581
120	0xbde79bf0	-0.113090396
121	0x3d4bad5e	0.049725883
122	0x3e7599dd	0.23984475
123	0xbdc0205c	-0.09381172
124	0x3e21dc39	0.15806665
125	0x3c87ee81	0.01659322
126	0x3e24682e	0.16055366
127	0xbe028009	-0.12744154

position_output_layer.weight f4 [51, 128]
0	0xbe53eeeb	-0.20696609
1	0x3d16575e	0.036704414
2	0xbdb83f76	-0.08996479
3	0x3d36bde0	0.044614673
4	0xbdda0192	-0.10644831
5	0xbe6f9afa	-0.23398963
6	0xbe7f335f	-0.2492194
7	0xbc2c552d	-0.010518354
8	0xbded3518	-0.115823925
9	0xbdb1956b	-0.08671077
10	0xbda67481	-0.0812769
11	0x3c76155b	0.01501974
12	0x3db36e05	0.08761219
13	0x3d7cd3ac	0.061725304
14	0x3c8f0062	0.017456237
15	0xbb945531	-0.004526757
16	0x3c7506c2	0.0149552245
17	0xbcec10be	-0.028816577
18	0x3b1f1f33	0.002428007
19	0xbe132595	-0.14369805
20	0xbbcab61f	-0.0061862613
21	0x3d96a477	0.07355588
22	0x3cd302d7	0.02575819
23	0x3d021e88	0.031767398
24	0xbd56f496	-0.05247935
25	0xbd46dfae	-0.04855316
26	0xbc9fce8a	-0.019507665
27	0xbdaae9d6	-0.08345382
28	0xbdcd4e57	-0.10024708
29	0x3c0de755	0.008661111
30	0x3c025521	0.007954867
31	0x3d8e4c45	0.06948141
32	0xbdde4b7f	-0.108542435
33	0xbc89e151	-0.016831072
34	0xbe2f0435	-0.17091449
35	0x3d9af22d	0.075657226
36	0xbc00bbb2	-0.00785725
37	0xbb5bf8b1	-0.003356498
38	0x3e71a08c	0.235964
39	0x3da43e29	0.080196686
40	0xbcf6ef33	-0.030143356
41	0x3bd8c858	0.0066156797
42	0xbd00150b	-0.03127007
43	0x3c156e89	0.009120592
44	0xbd893831	-0.06700171
45	0x3c365b88	0.011130221
46	0x3db8177b	0.089888535
47	0x3dd8a299	0.10577888
48	0x3d0e2974	0.0347075
49	0xbe72586c	-0.23666543
50	0xbd867b49	-0.065664835
51	0xbc6aafd2	-0.014324145
52	0xbd896a57	-0.06709736
53	0xbd20e607	-0.03928187
54	0x3e93e7ef	0.2888789
55	0xbd1251e1	-0.035722617
56	0x3e051d36	0.12999424
57	0xbe111527	-0.14168225
58	0x3e6b251f	0.2296338
59	0xbe9705a7	-0.294965
60	0xbd36e6b3	-0.044653606
61	0xbd1baee6	-0.038008593
62	0x3e004c48	0.12529099
63	0xbd82318b	-0.06357106
64	0x3da17ae6	0.07884769
65	0xbb030649	-0.001999276
66	0xbd484104	-0.04889013
67	0x3d709149	0.058732305
68	0x3cc75098	0.024330422
69	0x3cb3d356	0.021951359
70	0xbd0f41d1	-0.034974877
71	0xbd947359	-0.07248563
72	0x3c8de847	0.017322673
73	0x3d5e8344	0.054324403
74	0xbd59822a	-0.05310265
75	0xbd15b3df	-0.03654849
76	0xbd8972c7	-0.06711345
77	0xbdaca8d8	-0.08430642
78	0x3da58646	0.08082251
79	0xbc3a2514	-0.011361379
80	0xbd307c72	-0.04308743
81	0xbd416fdd	-0.04722582
82	0xbb80d420	-0.0039315373
83	0x3dc829b2	0.09773578
84	0xbab4658b	-0.0013763172
85	0xbca50e39	-0.020148383
86	0xbccdda87	-0.025128616
87	0x3d1f6b39	0.038920615
88	0x3b8a71f3	0.0042250096
89	0x3d35a657	0.044348087
90	0xbdac77d9	-0.084212966
91	0x3dd39db6	0.10332815
92	0x3d0a6c83	0.03379489
93	0x3df353cb	0.118812166
94	0x3cb99c90	0.022657663
95	0x3d7b456d	0.061345506
96	0xbe29b95d	-0.16574617
97	0x3ce95e8a	0.028487463
98	0xbd0fb4f9	-0.0350847
99	0x3e0b9043	0.1362925
100	0xbba282b5	-0.004959429
101	0xbe9b5b01	-0.30342868
102	0xbbdbf778	-0.00671285
103	0xbbca11ec	-0.0061666872
104	0x3da4fcde	0.08056043
105	0x3e76c7f5	0.24099715
106	0x3d15572b	0.036460083
107	0xbd8a12ca	-0.06741865
108	0xbc8eb1c9	-0.017418759
109	0x3ae9352e	0.0017792338
110	0xbd175bc3	-0.036952745
111	0xbd247a96	-0.04015597
112	0x3e56e5d5	0.20986111
113	0x3e58b578	0.21162975
114	0xbdc3aeea	-0.095548466
115	0xbd807eef	-0.06274211
116	0xbecfe45c	-0.40603912
117	0x3db130ea	0.08651908
118	0xbe1f8841	-0.1557932
119	0xbd854a58	-0.065083206
120	0x3db81cc6	0.08989863
121	0xbc4f766e	-0.012662513
122	0xbe804f5d	-0.2506055
123	0x3b39ccb4	0.0028350772
124	0xbd15e35a	-0.036593772
125	0xbd15d0f8	-0.03657624
126	0xbec774b6	-0.3895623
127	0x3d5ecf7a	0.054397084
128	0x3d0f91cb	0.03505115
129	0x3d4d6647	0.050146367
130	0x3e0761da	0.13220921
131	0x3e89d62c	0.26921213
132	0x3d3cab06	0.04606154
133	0xbdb0e8b0	-0.086381316
134	0x3e5de041	0.21667577
135	0xbd924afc	-0.071432084
136	0xbda888b8	-0.08229202
137	0x3c28577b	0.010274763
138	0xbe806a22	-0.25080973
139	0xbcd296cb	-0.02570667
140	0x3e664eb7	0.22490965
141	0xbd9a35d3	-0.075297974
142	0x3d13f617	0.03612336
143	0x3e4ac0c3	0.19800095
144	0xbd6a7085	-0.057236213
145	0xbd20ee09	-0.039289508
146	0xbbed73c1	-0.007246465
147	0xbe9d5b0f	-0.30733535
148	0x3d8f08c1	0.069840916
149	0xbd9a4dde	-0.07534383
150	0xbcdba479	-0.026811825
151	0x3d07892c	0.0330898
152	0xbd2805ac	-0.041021034
153	0x3cbafc12	0.022825275
154	0x3cc44680	0.023959398
155	0xbd0c6ce1	-0.034283523
156	0x3c9e5bd9	0.019330906
157	0x3bcc9de0	0.006244406
158	0x3e000b2f	0.12504266
159	0xbc933fe7	-0.017974807
160	0xbde49798	-0.11161727
161	0x3dd4cf62	0.10391118
162	0x3e1ca4c8	0.15297234
163	0x3dae8133	0.085207365
164	0xbdd45112	-0.103670254
165	0xbd908955	-0.07057444
166	0x3e228ee2	0.15874818
167	0x3d4d0bee	0.050060205
168	0x3d1a75e8	0.0377101
169	0xbdbbc347	-0.091681056
170	0xbe8cc0e1	-0.27490905
171	0x3de1c60b	0.11024102
172	0x3c87d12f	0.016579239
173	0x3cfef0ec	0.03112074
174	0xbc083483	-0.008313301
175	0x3e8fe72e	0.28106064
176	0xbda63637	-0.081158094
177	0xbe8696d4	-0.26286948
178	0x3d3b986a	0.04579965
179	0x3ce81bc6	0.028333556
180	0xbbaf35a7	-0.005346972
181	0x3e7ef884	0.24899489
182	0x3e2c66e1	0.1683612
183	0xbcbd9092	-0.023140226
184	0xbdbaecc9	-0.091271944
185	0xbe47535e	-0.19465396
186	0x3e889791	0.26678136
187	0x3d96544d	0.07340298
188	0x3e755c5f	0.23961018
189	0x3db8f3c7	0.09030872
190	0x3eb87a41	0.36030772
191	0xbdb1687d	-0.08662508
192	0xbd7711f8	-0.06031987
193	0x3d82dfe9	0.06390364
194	0xbc9d40bc	-0.019195907
195	0xbd00a389	-0.03140596
196	0x3d0d2ed2	0.03446848
197	0xbc94bbcd	-0.018155957
198	0xbda3d8e8	-0.08000356
199	0x3e4659e7	0.19370233
200	0x3dc9359e	0.0982468
201	0x3dff9d03	0.124811195
202	0xbdb9f57b	-0.09080025
203	0x3d2c90da	0.04213033
204	0x3e5a9936	0.21347508
205	0xbef820e2	-0.48462588
206	0xbc3ef565	-0.011655186
207	0x3d2ba929	0.04190937
208	0x3e266400	0.16249084
209	0x3ebd071b	0.36919484
210	0xbd59f6c7	-0.05321386
211	0x3d8b48da	0.06801005
212	0x3c7d6f08	0.015468366
213	0xbd99e214	-0.07513824
214	0x3c8a40dd	0.016876632
215	0x3d635a3f	0.055505987
216	0xbcacb025	-0.021080086
217	0x3defb5e4	0.11704615
218	0x3e26dc32	0.16294935
219	0x3edc8e08	0.4307711
220	0xbcab5bad	-0.020917738
221	0x3f05345a	0.5203301
222	0x3ccff07d	0.025383228
223	0x3eb4e1ad	0.35328427
224	0xbd726e7c	-0.059187397
225	0xbd79a6b7	-0.060950007
226	0xbd7f6e31	-0.062360946
227	0x3db74862	0.08949353
228	0xbdb1c931	-0.08680952
229	0xbe3082df	-0.17237423
230	0xbd6f83cb	-0.058475297
231	0xbd728141	-0.059205297
232	0xbcaa22da	-0.020768572
233	0x3e10d5af	0.14144014
234	0x3d6befc8	0.05760172
235	0x3e8a0ee9	0.269645
236	0x3e4b2384	0.19837767
237	0x3cdecbf0	0.027196854
238	0x3d3d534f	0.046222027
239	0x3e00ed06	0.12590417
240	0x3e76878b	0.24075143
241	0x3de20b2e	0.110372886
242	0xbc9eb68c	-0.019374155
243	0x3c3366a2	0.010949763
244	0x3e356c55	0.17717107
245	0x3dee8a6f	0.11647498
246	0x3e66900e	0.2251589
247	0x3d733fec	0.059387133
248	0xbcd09590	-0.025461942
249	0xbd88d6aa	-0.06681569
250	0x3ea00505	0.3125383
251	0xbda4316b	-0.08017238
252	0x3ecae70f	0.3962941
253	0x3df4992c	0.11943278
254	0xbe3c93a6	-0.18415698
255	0xbdaf7843	-0.0856786

position_output_layer.bias f4 [51]
0	0xbdd1d53a	-0.10245748
1	0x3e1aa95d	0.1510367
2	0xbd6c79e8	-0.057733446
3	0xbd6cf1b0	-0.05784768
4	0xbdf72966	-0.12068443
5	0x3d16101b	0.036636453
6	0xbdeb5fff	-0.11492919
7	0xbdf1c9d6	-0.11806075
8	0xbe0f9777	-0.14022623
9	0x3e18d285	0.14924057
10	0xbdd9a1ef	-0.106265895
11	0xbd154ada	-0.036448337
12	0xbe235ac3	-0.15952592
13	0xbd945600	-0.07242966
14	0xbc8c39f2	-0.017117474
15	0x3d1fe106	0.03903296
16	0xbe03d853	-0.1287549
17	0xbd576430	-0.05258578
18	0xbd905455	-0.07047335
19	0x3e4176ac	0.18892926
20	0x3c4d0249	0.012512752
21	0xbaed3715	-0.0018098081
22	0xbe4835ca	-0.19551769
23	0x3d8e5340	0.069494724
24	0xbe39e97d	-0.18155475
25	0xbe3723cb	-0.17884748
26	0xbdb31e55	-0.0874602
27	0xbe4af574	-0.19820195
28	0xbd971327	-0.073767
29	0xbd779d20	-0.06045258
30	0x3e03cd89	0.12871374
31	0x3d6378a6	0.05553498
32	0x3d85af2a	0.065275505
33	0xbdc0fcba	-0.09423204
34	0x3e119c2e	0.14219734
35	0x3d978316	0.073980495
36	0x3b5cf518	0.0033715423
37	0xbc898233	-0.016785717
38	0xbcaa440b	-0.020784399
39	0x3d9d5b9d	0.076834895
40	0x3df2f290	0.118626714
41	0x3ca90d9f	0.020636378
42	0x3d16f929	0.03685871
43	0xbcbde319	-0.023179578
44	0x3deffd81	0.11718274
45	0xbc9f1864	-0.01942081
46	0x3d2fe367	0.042941477
47	0x3dc88ff8	0.09793085
48	0x3ea293f3	0.317535
49	0x3e89a5ce	0.2688431
50	0xbcb6b5bd	-0.022303456
