critic.pth (torch, 241450 bytes, 10 tensors)

input_layer.weight f4 [128, 72]
0	0xbd44966d	-0.04799502
1	0xbe539c08	-0.2066499
2	0xbd0ee911	-0.03489024
3	0xbded8810	-0.115982175
4	0x3dc79f56	0.09747188
5	0xbe0873cc	-0.13325423
6	0x3da5e7a2	0.08100821
7	0xbd86e368	-0.06586343
8	0xbd8e7bb5	-0.06957189
9	0xbe919cbb	-0.28439888
10	0x3dc10848	0.09425408
11	0xbdb1703c	-0.08663985
12	0x3e0d28fb	0.13785164
13	0xbd4b4e77	-0.049635377
14	0xbe7cc503	-0.24684529
15	0xbe456186	-0.19275483
16	0xbe08577a	-0.1331462
17	0xbe7d2397	-0.24720608
18	0xbe03321f	-0.12812088
19	0xbdf2adc6	-0.11849551
20	0xbca3d8af	-0.020000784
21	0xbdbb7596	-0.09153287
22	0xbe7cada6	-0.24675617
23	0xbd07de40	-0.03317094
24	0xbd133183	-0.03593589
25	0xbda52fbd	-0.08065746
26	0x3e044877	0.12918268
27	0xbd91a361	-0.0711124
28	0xbce5911b	-0.028023293
29	0xbe2601bd	-0.162116
30	0xbcda99f4	-0.026684739
31	0xbd2fa361	-0.04288042
32	0x3c223bb5	0.009901931
33	0x3d00df3d	0.031462897
34	0xbc8aaf3d	-0.016929263
35	0xbe341af0	-0.17588401
36	0x3d960e54	0.073269516
37	0xbd42e6ad	-0.04758327
38	0xbe4e2f49	-0.20135225
39	0x3d72d650	0.059286416
40	0xbd9cd9ad	-0.07658706
41	0x3df6ee17	0.12057131
42	0x3e0b9bca	0.13633648
43	0xbad84035	-0.0016498627
44	0x3d2566dd	0.0403813
45	0xbdfda0a2	-0.12384154
46	0xbdeba635	-0.11506311
47	0x3d3930af	0.045212444
48	0xbdb674ef	-0.08909022
49	0xbd4885be	-0.04895567
50	0x3d9e500f	0.07730114
51	0x3d959fb5	0.07305852
52	0x3d38579b	0.045005422
53	0xbd26346a	-0.04057733
54	0xbdadb60c	-0.08481988
55	0x3c786189	0.015159973
56	0x3d948888	0.07252604
57	0x3caf5da7	0.021406962
58	0xbdea5010	-0.11441052
59	0x3cf81f30	0.030288309
60	0x3e33f438	0.17573631
61	0xbde33a43	-0.11095097
62	0x3c9d22ab	0.01918157
63	0xbd4508ee	-0.04810422
64	0x3dd4e364	0.10394934
65	0x3dbda983	0.092608474
66	0x3db7e71c	0.089796275
67	0xbda3cbd3	-0.07997861
68	0xbc0dad73	-0.008647311
69	0x3e34ce0b	0.17656724
70	0xbd73607a	-0.05941818
71	0xbd18c1d6	-0.03729423
72	0xbd883f88	-0.066527426
73	0xbd27b0d9	-0.04094014
74	0xbd135956	-0.03597387
75	0xbd9bdfe4	-0.07611063
76	0x3d545958	0.051843017
77	0xbcfb8801	-0.0307045
78	0xbc23546d	-0.009968859
79	0xbdcf383d	-0.101181485
80	0xbce865f4	-0.028368928
81	0xbc80f165	-0.015740106
82	0xbd3f182a	-0.046653904
83	0xbcd1149e	-0.025522526
84	0xba62b222	-0.00086477597
85	0xbd3496d5	-0.044089157
86	0x3d084546	0.03326919
87	0xbdcc8aae	-0.099873886
88	0xbd49bfd2	-0.0492552
89	0xbd23049b	-0.039799314
90	0xbce36110	-0.027756244
91	0xbde6eb97	-0.11275404
92	0xbc99ab90	-0.018758565
93	0xbc849050	-0.016182095
94	0xbda8c97f	-0.08241557
95	0xbda9231a	-0.08258648
96	0xbdd14f73	-0.10220232
97	0x3b66602c	0.0035152538
98	0xbd915a95	-0.07097355
99	0xbe06075f	-0.1308875
100	0xbe0b37f3	-0.13595562
101	0xbd349f4b	-0.044097226
102	0x3d231cec	0.039822504
103	0xbe1f360d	-0.15547962
104	0xbda25885	-0.0792704
105	0x3d2cdad6	0.042200886
106	0xbd33875b	-0.043830257
107	0x3d756dda	0.059919216
108	0x3cd181eb	0.025574645
109	0x3b7dfea3	0.0038756512
110	0xbcee3b64	-0.029081054
111	0xbde5db78	-0.11223501
112	0xbcc40f13	-0.02393297
113	0x3c2be239	0.010490947
114	0xbd90cef5	-0.07070724
115	0xbcf6512b	-0.030068
116	0xbe000eef	-0.12505697
117	0x3c40907e	0.0117532
118	0xbd860f0e	-0.0654584
119	0xbdb983ad	-0.09058318
120	0xbcc8a191	-0.024491103
121	0xbc7164fb	-0.014733548
122	0x3db9f1ea	0.090793446
123	0x3d28f7b9	0.04125187
124	0xbd089138	-0.033341616
125	0xbdb607b1	-0.08888186
126	0xbda8d4f5	-0.08243743
127	0xbdeefa20	-0.11668801
128	0xbd89fe29	-0.0673793
129	0xbaaab67e	-0.0013024358
130	0xbd508ef0	-0.050917566
131	0x3d1a6cb5	0.037701327
132	0xbd41aee2	-0.047285922
133	0xbdcf5abe	-0.101247296
134	0x3a2fb364	0.00067024515
135	0xbd8feeaa	-0.070279434
136	0x3d1ed73e	0.03877949
137	0xbdc6e7e8	-0.09712201
138	0xbdb3bb5e	-0.08775972
139	0x3dca64db	0.09882518
140	0xbc096341	-0.00838548
141	0xbd67032a	-0.0563995
142	0x3d40ffa9	0.047118817
143	0x3daa16f9	0.08305163
144	0x3e9094b9	0.28238466
145	0x3da2058b	0.079112135
146	0xbebef73c	-0.37298
147	0xbcd01d76	-0.025404673
148	0xbe3fa473	-0.18715076
149	0xbdd049b0	-0.10170305
150	0x3e344045	0.17602642
151	0xbddba654	-0.10725084
152	0x3e03a9cb	0.1285774
153	0x3d884a0f	0.066547506
154	0xbe542e64	-0.20720822
155	0xbde9998d	-0.114062406
156	0xbe8bee90	-0.27330446
157	0xbe172e01	-0.14763643
158	0x3e60a26c	0.21936959
159	0xbe1f9925	-0.15585764
160	0xbe456de8	-0.19280207
161	0xbe25a8d6	-0.16177687
162	0xbe0295de	-0.12752482
163	0x3dfa35a7	0.122172646
164	0xbd0700d9	-0.032959793
165	0xbd66d0ca	-0.05635146
166	0xbeba74e6	-0.3641731
167	0x3d6b0409	0.057376895
168	0xbe17e452	-0.14833191
169	0xbde07716	-0.10960214
170	0x3dfa3dba	0.12218805
171	0xbd6dd7ed	-0.05806725
172	0x3d821ccf	0.06353151
173	0x3cbe4df9	0.02323054
174	0xbec75f12	-0.3893972
175	0xbd41f341	-0.047351126
176	0xbc56b99e	-0.013105778
177	0x3e9c1688	0.3048594
178	0x3e1028ea	0.14078107
179	0x3d1b64ea	0.037938036
180	0x3e0b8590	0.13625169
181	0xbd3fa4b2	-0.046787925
182	0x3e0b9921	0.13632633
183	0x3d23b89a	0.03997097
184	0xbd50392a	-0.050835766
185	0xbc0700c5	-0.00823993
186	0xbd91af86	-0.071135566
187	0xbd167198	-0.036729425
188	0x3dbd4d06	0.09243207
189	0x3e518289	0.20459951
190	0x3c363456	0.011120876
191	0x3d329600	0.043600082
192	0xbd43380d	-0.047660876
193	0xbcf92dfc	-0.030417435
194	0xbe433716	-0.19063982
195	0x3d9a5eef	0.075376384
196	0xbc55030e	-0.013001217
197	0x3e7bf2da	0.2460436
198	0xbe72c5bf	-0.23708247
199	0x3db6c0f0	0.08923519
200	0x3e079832	0.13241652
201	0x3d68a7a5	0.056800503
202	0xbdb5ffba	-0.088866666
203	0x3e04baa0	0.12961817
204	0xbe22f4a8	-0.15913641
205	0x3d12563f	0.035726782
206	0x3e26d6f2	0.16292933
207	0x3e194afe	0.14970013
208	0x3e317b53	0.173322
209	0x3da52d60	0.08065295
210	0x3e02b18c	0.12763041
211	0x3e0d79d3	0.13816004
212	0xbcfda0cf	-0.030960469
213	0xbda339fc	-0.07970044
214	0xbdacddaa	-0.084407166
215	0x3df80cbe	0.121118054
216	0x3cffc3c4	0.031221278
217	0xbe11898c	-0.14212626
218	0xbdfd4715	-0.123670734
219	0x3c67c12c	0.014145177
220	0x3c808104	0.01568652
221	0xbd42d509	-0.047566447
222	0x3dca808c	0.098877996
223	0xbdbe4d07	-0.092920355
224	0xbe0248fd	-0.12723155
225	0xbcfca4b0	-0.030840248
226	0x3c9dff54	0.019286789
227	0x3bb3758d	0.0054766596
228	0xbda0ff2e	-0.07861172
229	0xbc664818	-0.014055274
230	0xbc809ea2	-0.015700642
231	0xbe14ce67	-0.14531861
232	0xbbc2822d	-0.0059359283
233	0x3dac0ddf	0.08401083
234	0xbd325225	-0.04353537
235	0xbe359508	-0.17732632
236	0xbaed4b1e	-0.0018104052
237	0xbd980be5	-0.07424144
238	0x3d861277	0.06546491
239	0xbe38da85	-0.18052109
240	0xbd94245b	-0.07233497
241	0x3d78fb27	0.060786393
242	0xbd46c785	-0.04853012
243	0xbdd8c0e6	-0.105836675
244	0xbb654871	-0.0034985805
245	0xbe0f7a66	-0.14011535
246	0x3df454a4	0.119302064
247	0xbc65793c	-0.014005955
248	0x3d69d240	0.057085276
249	0xbe2ccffa	-0.16876212
250	0xbd6eb121	-0.058274392
251	0xbc3440b9	-0.011001759
252	0x3c47b5d4	0.012189347
253	0x3b7b2e36	0.0038327104
254	0xbd26f5bb	-0.04076169
255	0xbdefe5cd	-0.11713753

input_layer.bias f4 [128]
0	0xbd996150	-0.07489264
1	0xbe2974b3	-0.16548423
2	0x3cf36d14	0.029715098
3	0xbe35b59f	-0.17745064
4	0x3d787964	0.060662642
5	0xbe374fde	-0.1790156
6	0xbe3ae20a	-0.1825029
7	0x3d86ff79	0.06591696
8	0xbe1d1a6d	-0.15342112
9	0xbd7a4330	-0.06109923
10	0x3e04e2fe	0.12977216
11	0x3e7bd348	0.24592316
12	0x3e793116	0.24335131
13	0xbe772a2e	-0.24137184
14	0xbd14702c	-0.036239788
15	0x3d75cb48	0.060008317
16	0x3e856287	0.26051733
17	0xbe6cdca8	-0.23131049
18	0xbe18911e	-0.14899108
19	0xbe1c9dc9	-0.15294565
20	0xbdf670eb	-0.12033256
21	0x3e5d2a04	0.21598059
22	0x3d4adc66	0.049526595
23	0xbd99b9f4	-0.07506171
24	0xbd058ff5	-0.03260799
25	0x3e8cacdb	0.27475628
26	0xbd84a10c	-0.0647603
27	0xbdf47dde	-0.1193807
28	0x3d780b8f	0.060557898
29	0xbd92caeb	-0.0716761
30	0xbdac2917	-0.08406275
31	0xbcefab9f	-0.02925664
32	0xbc018bf8	-0.007906906
33	0x3e68be1e	0.22728774
34	0x3cb430a2	0.021995846
35	0x3e993cab	0.29929098
36	0x3d83bbff	0.06432342
37	0x3e997d0f	0.29978225
38	0xbc159f7b	-0.009132261
39	0x3ddd7b21	0.108145006
40	0xbddf7024	-0.10910061
41	0xbc81c875	-0.015842656
42	0x3e4d7761	0.2006507
43	0xbe251679	-0.16121854
44	0xbba67df2	-0.005080932
45	0xbd83aa58	-0.06428975
46	0xbe0ff17b	-0.14056961
47	0x3e3c2802	0.18374637
48	0xbe098449	-0.13429369
49	0x39b63655	0.00034754226
50	0x3e92589e	0.28583235
51	0x3d33d57e	0.043904774
52	0x3cff48d6	0.03116266
53	0xbd5e38e1	-0.054253463
54	0x3e9c3b97	0.30514213
55	0xbe14b4b7	-0.14522062
56	0xbe22cdcd	-0.1589882
57	0xbddb3a0d	-0.10704432
58	0x3d5dd412	0.054157324
59	0xbd82f274	-0.063939005
60	0x3e659e1b	0.22423594
61	0x3e0218c7	0.12704764
62	0xbe38a528	-0.18031752
63	0xbe112507	-0.14174281
64	0xbcec1f58	-0.02882354
65	0xbd54466f	-0.051824983
66	0xbe0841bd	-0.13306327
67	0xbda2b34f	-0.07944357
68	0xbe2e49f8	-0.17020404
69	0x3e0af42c	0.13569707
70	0xbe0531cd	-0.13007279
71	0x3d6e7db3	0.058225345
72	0xbe41b217	-0.18915592
73	0xbc8c3e06	-0.017119419
74	0x3e206ef1	0.15667321
75	0xbce4e085	-0.02793909
76	0xbd876a8f	-0.06612121
77	0x3c53952d	0.012913984
78	0x3e738f17	0.23785053
79	0xbe2eb660	-0.17061758
80	0x3e879b73	0.26485786
81	0xbdcdb475	-0.10044185
82	0xbdfa42bb	-0.12219759
83	0x3dc26faf	0.09493958
84	0x3ea5c73f	0.32378575
85	0x3e926d5b	0.28599057
86	0xbdfd1e5e	-0.12359308
87	0x3e918fac	0.28429925
88	0xbd3e2c5e	-0.04642903
89	0x3e89a63c	0.2688464
90	0xbe16c2d9	-0.14722766
91	0xbd3068db	-0.043068748
92	0xbd06b251	-0.0328849
93	0x3e92640f	0.28591964
94	0xbd85d822	-0.06535365
95	0xbe04cd12	-0.12968853
96	0xbd2ee113	-0.042695116
97	0xbc8c81e5	-0.017151782
98	0x3db515b7	0.088420324
99	0xbdfc210d	-0.123109914
100	0xbd92a63e	-0.071606144
101	0x3e7e7373	0.24848728
102	0x3d1a5bef	0.03768533
103	0xbd8cce72	-0.06875314
104	0xbc16789d	-0.00918403
105	0x3c98bbac	0.018644176
106	0x3dc61631	0.096722014
107	0xbd7ca9bc	-0.06168531
108	0xbdd53a5b	-0.10411521
109	0x3e5d70cf	0.21625064
110	0xbe3f32b7	-0.1867169
111	0xbc6da188	-0.014503844
112	0x3cee588e	0.02909496
113	0xbbe3289d	-0.0069323317
114	0x3c2276f3	0.009916055
115	0x3dac312a	0.08407815
116	0xbde4e089	-0.11175639
117	0x3c852e7c	0.016257517
118	0xbda27938	-0.07933277
119	0xbde60444	-0.11231282
120	0xbe4cfed2	-0.20019081
121	0x3dddf263	0.10837247
122	0xbe0d6b65	-0.13810499
123	0x3e7b5de2	0.24547532
124	0x3e3785ed	0.17922182
125	0x3e5ba18e	0.21448347
126	0xbdd70f9e	-0.105010256
127	0x3e5394d4	0.20662242

hidden_1.weight f4 [128, 128]
0	0x3cf7735d	0.030206377
1	0x3d8b0250	0.067875504
2	0xbe85f201	-0.26161197
3	0xbd0e13f1	-0.034686986
4	0x3e4fd13e	0.20294663
5	0x3dffef0a	0.12496765
6	0xbccad273	-0.024758553
7	0x3d9f0ca3	0.07766082
8	0x3ddd8337	0.10816043
9	0x3d92f5e4	0.07175806
10	0x3e94bc80	0.29050064
11	0x3e90fe6b	0.28319106
12	0x3e99e502	0.30057532
13	0x3e0afc9b	0.13572924
14	0x3dcad11c	0.09903166
15	0x3d803657	0.062603645
16	0x3f0563a9	0.52105194
17	0xbd5e56d1	-0.054282013
18	0xbdd2a948	-0.10286194
19	0xbd99e925	-0.07515172
20	0x3da19d01	0.07891274
21	0x3d4a4c8f	0.04938942
22	0x3e851043	0.2598897
23	0xbe381576	-0.17976937
24	0x3d67503f	0.056473013
25	0x3e388d76	0.18022713
26	0x3e3cc3f4	0.18434125
27	0x3c183b61	0.009291501
28	0x3dd081fc	0.101810426
29	0x3c759ab3	0.014990496
30	0xbbee9946	-0.007281455
31	0x3d9b6656	0.075878784
32	0x3d49eca0	0.04929793
33	0x3cf2213d	0.029556865
34	0x3d9202fc	0.071294755
35	0x3df1b6c7	0.1180244
36	0x3e0d9159	0.13824977
37	0x3e9e45ed	0.30912724
38	0x3c48f65a	0.012265766
39	0x3eb5116b	0.3536485
40	0x3d7878ad	0.06066196
41	0xbe07c8e8	-0.13260233
42	0x3e1bed60	0.1522727
43	0x3c545b4d	0.012961221
44	0x3ddbbac6	0.107289836
45	0x3d859548	0.06522614
46	0x3db91934	0.0903801
47	0x3e7c8018	0.24658239
48	0xbb184e46	-0.0023240014
49	0xbd33886d	-0.043831278
50	0x3e978116	0.29590672
51	0x3e038d12	0.12846783
52	0x3e75c309	0.24000181
53	0xbd8c7fa6	-0.068602845
54	0x3ea06eb2	0.31334454
55	0xbd129389	-0.03578523
56	0x3da65bd5	0.08122984
57	0x3c90041c	0.017580085
58	0x3e3b486b	0.18289344
59	0x3d0833d5	0.033252556
60	0x3e9e804f	0.30957267
61	0x3e89a77a	0.26885587
62	0x3ce56ac5	0.028005013
63	0x3de75269	0.11295015
64	0x3e800809	0.2500613
65	0xbdc12220	-0.09430337
66	0x3e2ad8d0	0.1668427
67	0xbd03341d	-0.03203212
68	0x3c3852b3	0.011250186
69	0x3e626a28	0.22110808
70	0xbc8e23b4	-0.017351009
71	0x3d9fbf5f	0.07800173
72	0x3c9dea65	0.019276807
73	0xbd3b7409	-0.045764957
74	0x3e51eff5	0.20501693
75	0xbd782b9e	-0.06058847
76	0xbd9d546f	-0.0768212
77	0xbdae282b	-0.08503755
78	0x3e6ef75b	0.23336546
79	0x3daf7b58	0.08568448
80	0x3cea6b80	0.028615713
81	0x3dcc2c90	0.09969437
82	0xbe14f1cf	-0.14545368
83	0x3eb1285a	0.34601098
84	0x3e31f350	0.17377973
85	0x3e76d8d7	0.24106155
86	0x3d3239d3	0.043512177
87	0x3e775322	0.24152806
88	0x3dc3819b	0.09546205
89	0x3eaa8441	0.33304027
90	0x3becbd92	0.007224747
91	0x3d53e620	0.051733136
92	0xbe57050e	-0.20998022
93	0x3e8fa8d1	0.28058484
94	0xbe2de7ca	-0.16982952
95	0xbe1a2a38	-0.15055168
96	0xbe15f6ec	-0.14644974
97	0x3de5d4a3	0.11222198
98	0x3c9ee030	0.01939401
99	0x3dc29c81	0.09502507
100	0x3d9160a7	0.07098513
101	0x3e3be466	0.18348846
102	0x3d651b4c	0.055934235
103	0x3c2fafed	0.010723096
104	0x3e3eaf1a	0.18621483
105	0x3d29381b	0.041313272
106	0x3e1e46d8	0.15456712
107	0x3e068eac	0.13140363
108	0x3bd87091	0.006605216
109	0x3e892b88	0.26791024
110	0x3b888ddd	0.004167302
111	0x3e7fc718	0.24978292
112	0x3d2e52ab	0.042559307
113	0x3e14de7a	0.14537993
114	0x3bf576b1	0.0074909558
115	0xbd095a63	-0.033533465
116	0x3cf50071	0.029907437
117	0x3e2436ea	0.16036573
118	0x3df60cdf	0.12014174
119	0xbe1446b0	-0.1448009
120	0xbd8f4bf5	-0.069969095
121	0x3dc4a715	0.09602181
122	0xbcf64f27	-0.03006704
123	0x3eb7966b	0.35856947
124	0x3e891742	0.26775557
125	0x3ef95bd7	0.4870288
126	0x3de8eb32	0.11372985
127	0x3de23874	0.11045924
128	0xbd39966a	-0.04530946
129	0xbcb9e27c	-0.022691004
130	0xbd1b525d	-0.037920345
131	0x3d140ab2	0.036143012
132	0xbda6889e	-0.081315264
133	0xbd28dc18	-0.041225523
134	0xbd81143a	-0.06302686
135	0xbdc900ea	-0.098146275
136	0xbda7b10b	-0.08188065
137	0x3d6d2074	0.057892278
138	0xbd458f4f	-0.048232373
139	0xbd009c66	-0.031399153
140	0xbd959477	-0.07303708
141	0x3d2c76f6	0.042105637
142	0xbd689b73	-0.056788873
143	0xbd644c03	-0.055736553
144	0xbd1afe04	-0.037839904
145	0xbd79bf32	-0.060973354
146	0xbc1cfc92	-0.009581702
147	0x3d4a724c	0.04942541
148	0x3b8849c7	0.0041591856
149	0xbd8d5f63	-0.06902959
150	0xbd4f2b57	-0.05057844
151	0xbd67a4a6	-0.056553505
152	0xbc403473	-0.011731255
153	0xbc7f2795	-0.015573402
154	0x3d109faf	0.035308536
155	0x3cee556f	0.029093472
156	0xbd8b8138	-0.06811756
157	0xbd8c067f	-0.068371765
158	0x3d5abb89	0.053401504
159	0xbd5c0516	-0.053715788
160	0x3b6667bb	0.0035157043
161	0xbd93a684	-0.07209495
162	0xbd6fe5d0	-0.058568776
163	0xbd742347	-0.059603956
164	0xbc753b9a	-0.014967823
165	0x3d3cb46d	0.046070505
166	0xbca048f3	-0.019566035
167	0xbcd09538	-0.025461778
168	0x3d2ffccc	0.042965695
169	0xbcc6a70b	-0.024249574
170	0xbda11515	-0.07865349
171	0xbc1ea128	-0.009681977
172	0x3d24c166	0.0402235
173	0xbbce979d	-0.006304695
174	0xbc98d3fa	-0.018655766
175	0xbd9eb951	-0.0775019
176	0xbd8f5485	-0.06998543
177	0x3c86019e	0.016358193
178	0xbd503e17	-0.050840463
179	0xbd7d73f1	-0.06187815
180	0xbdbd0e7f	-0.092312805
181	0x3bb060b6	0.0053826226
182	0xbd3c9b5c	-0.0460466
183	0x390fb97c	0.00013706641
184	0xbd1bbe38	-0.038023204
185	0x3d281569	0.041036043
186	0xbd89f36e	-0.06735884
187	0xbae0b64b	-0.0017144171
188	0x3d7d3ee7	0.061827566
189	0xbdad7d94	-0.08471218
190	0x3d5dd497	0.05415782
191	0x3cf60121	0.030029835
192	0x3d332864	0.04373969
193	0xbddc9e1d	-0.10772345
194	0xbc081714	-0.0083062835
195	0x3d1ac853	0.0377887
196	0xbd5e4db1	-0.05427331
197	0xbc462fdf	-0.012096374
198	0x3c92c517	0.017916245
199	0xbded1a57	-0.115772896
200	0xbd02117e	-0.031754963
201	0x3c69638a	0.014244923
202	0x3d76c02a	0.060241856
203	0xbc92c2f4	-0.017915227
204	0xbd690bb8	-0.05689594
205	0x3cff72a1	0.031182589
206	0x3d845bad	0.06462798
207	0x3d870c06	0.0659409
208	0x3b2dbc7d	0.0026510053
209	0xbd8b2b66	-0.06795387
210	0xbd96212c	-0.07330546
211	0xbda87171	-0.08224762
212	0x3c3e91cf	0.011631443
213	0xbd863680	-0.06553364
214	0xbd939320	-0.07205796
215	0x3b8fa62f	0.0043838243
216	0xbca0391b	-0.01955848
217	0xbc22f5ae	-0.00994627
218	0x3c5d785b	0.0135174645
219	0xbde80a7a	-0.11330123
220	0xbdc139fb	-0.09434887
221	0x3cdd0e06	0.026984226
222	0xbd92f415	-0.07175461
223	0xbd8de304	-0.069280654
224	0xbddc957d	-0.107707
225	0xbd7a9be5	-0.06118383
226	0xbd3c7d4b	-0.046017926
227	0xbc25d2a2	-0.01012102
228	0xbcc9bbb6	-0.02462564
229	0xbd7694a0	-0.060200334
230	0xbbbd185a	-0.005770725
231	0xbd8d274a	-0.068922594
232	0x3d4179ef	0.047235426
233	0xbd46f8bd	-0.04857706
234	0xbbec1e67	-0.0072057727
235	0xbd90c4b4	-0.07068768
236	0xbd55d035	-0.052200515
237	0x3d53b46c	0.051685736
238	0xbcebf746	-0.028804433
239	0xbcc8cedb	-0.024512699
240	0xbdaae5a3	-0.08344581
241	0x3d8c6932	0.06856002
242	0xbd93b3a5	-0.07211999
243	0xbd89c319	-0.06726665
244	0x3cdeeca6	0.027212452
245	0x3d779c12	0.060451575
246	0xbc2e2c25	-0.010630642
247	0x3d6b6e9d	0.057478536
248	0x3d457d84	0.048215404
249	0xbd7c71f3	-0.061632108
250	0xbd5b2e10	-0.053510725
251	0x3d7a649e	0.061131112
252	0x3b37cdc1	0.0028046223
253	0xbd4e6a87	-0.05039456
254	0xbd79382c	-0.060844585
255	0xbcc581f2	-0.024109814

hidden_1.bias f4 [128]
0	0x3e7424a2	0.238421
1	0xbb984342	-0.0046466896
2	0xbe0a948a	-0.13533226
3	0xbd7dd370	-0.06196922
4	0xbc9e9f64	-0.019363113
5	0xbcf3b7b1	-0.029750677
6	0x3e844051	0.2583032
7	0xbe131d87	-0.14366733
8	0xbdb40ac5	-0.087911166
9	0xbe01486a	-0.1262528
10	0xbdc02395	-0.09381787
11	0xbc59d1ce	-0.01329465
12	0xbcf9de87	-0.030501617
13	0x3df4b5b0	0.11948717
14	0x3c371812	0.011175172
15	0xbd471412	-0.048603125
16	0xbd455fcc	-0.048187062
17	0xbcca3523	-0.02468354
18	0xbdec4b2c	-0.115377754
19	0xbe2bd4b6	-0.16780362
20	0xbd105593	-0.03523786
21	0x3e64aa4e	0.22330591
22	0xbd1ad622	-0.03780187
23	0x3d60a807	0.054847743
24	0x3d97830d	0.07398043
25	0x39ec8725	0.00045114118
26	0xbba3bcc4	-0.004996868
27	0x3d161df5	0.036649663
28	0xbda930d2	-0.08261265
29	0xbd331c88	-0.04372838
30	0x3d83c802	0.06434633
31	0xbd5e8021	-0.054321412
32	0xbd9ae79a	-0.07563706
33	0xbdb2f0d8	-0.087373435
34	0x3e444020	0.19165087
35	0x3e044198	0.12915647
36	0x3d4bb474	0.04973264
37	0xbbf67964	-0.007521795
38	0xbd88d19a	-0.06680603
39	0xbc925268	-0.01786156
40	0xbd8a3612	-0.06748594
41	0x3c2dee4a	0.010615895
42	0xbd64e645	-0.055883665
43	0xbdd8a0b4	-0.10577527
44	0xbbf7647c	-0.0075498205
45	0x3d6263a3	0.055270802
46	0xbe20200f	-0.1563723
47	0x3e645ada	0.22300282
48	0xbe26c935	-0.16287692
49	0xbe0ec589	-0.13942541
50	0xbdcaf956	-0.09910838
51	0xbcbd0eb2	-0.023078296
52	0xb989aff7	-0.0002626178
53	0xbdf8b95d	-0.1214473
54	0xbd2e1fd4	-0.042510822
55	0xbc490a79	-0.012270563
56	0xbde0bccf	-0.109735124
57	0xbd128e49	-0.035780225
58	0x3a9f6e8d	0.0012163684
59	0xbc60497b	-0.013689394
60	0xbd44f375	-0.04808374
61	0xbcc90d4c	-0.024542473
62	0x3de1620d	0.1100503
63	0x3e118fee	0.14215061
64	0xbe01d340	-0.12678242
65	0xbe2482ed	-0.16065569
66	0xbb640071	-0.0034790302
67	0x3e140a28	0.14457
68	0xbd52f55f	-0.051503535
69	0x3c38a09a	0.011268759
70	0xbd0636c9	-0.03276709
71	0xbd0bdf87	-0.03414872
72	0x3e1aec8c	0.15129298
73	0x3b79d0ff	0.0038118956
74	0xbe3891ae	-0.18024322
75	0xbde6c285	-0.112675704
76	0xbd94770e	-0.072492704
77	0x3e61b55b	0.22041838
78	0xbc88b523	-0.016687935
79	0xbe0b0150	-0.1357472
80	0x3cc3b351	0.023889216
81	0xbdaead33	-0.08529129
82	0xbde86121	-0.11346651
83	0xbdbbca26	-0.09169416
84	0xbd6599bf	-0.056054827
85	0xbe04e117	-0.1297649
86	0xbe0a97e6	-0.13534507
87	0xbcfe7908	-0.031063572
88	0xbc33e3f8	-0.010979645
89	0xbd866366	-0.065619275
90	0xbd07bfc1	-0.033141855
91	0xbd9f4f9e	-0.07778858
92	0xbdb3478d	-0.087538816
93	0xbda3ac3e	-0.07991837
94	0xbcef8df1	-0.029242488
95	0x3a08b52d	0.00052149856
96	0x3ccb4053	0.024810946
97	0xbdb10821	-0.086441286
98	0xbd48d74c	-0.049033448
99	0xbd56184c	-0.052269265
100	0xbbec81e0	-0.0072176307
101	0xbcef2b6b	-0.029195508
102	0x3e5c1e93	0.21496038
103	0xbc86772b	-0.016414246
104	0x3c73b19d	0.014873889
105	0x3d61076d	0.054938722
106	0xbdee46ae	-0.11634575
107	0xbc33fdc4	-0.010985795
108	0xbe167c03	-0.14695744
109	0x3be5b8b6	0.0070105447
110	0xbdc95393	-0.09830394
111	0x3cec18a9	0.028820353
112	0x3cbc9acf	0.023023037
113	0xbe2e38f9	-0.17013921
114	0xbd92d8d8	-0.07170266
115	0xbd189ccb	-0.037258904
116	0xbd7b9b6d	-0.061427522
117	0xbdeb3ac0	-0.11485815
118	0xbd6089fb	-0.05481909
119	0xbda9ed29	-0.08297188
120	0xbbb63ea4	-0.0055616666
121	0xbca15acd	-0.019696617
122	0x3c17e914	0.009271879
123	0xbdb67e18	-0.08910769
124	0xbd99b9e8	-0.07506162
125	0xbd0e9917	-0.034813967
126	0xbdba725d	-0.09103844
127	0x3c8f274a	0.01747479

hidden_2.weight f4 [128, 128]
0	0xbd8b3591	-0.06797326
1	0xbd425856	-0.047447525
2	0xbc96fe7b	-0.018431893
3	0xbcc70174	-0.024292685
4	0x3c21e2f7	0.009880773
5	0xbd6d37d1	-0.05791456
6	0xbd3207b3	-0.043464374
7	0xbd804c59	-0.06264562
8	0xbd4a8388	-0.049441844
9	0xbd4098ca	-0.04702071
10	0x3b647f92	0.0034866077
11	0x3cfc4659	0.030795263
12	0xbdfa5635	-0.12223474
13	0x3e135492	0.1438773
14	0x3cbe204f	0.023208765
15	0xbe17c23c	-0.14820188
16	0xbc33a9c4	-0.010965768
17	0xbd050b25	-0.03248133
18	0xbdc0b794	-0.09410015
19	0x3d495eef	0.0491628
20	0xbd5269f2	-0.05137057
21	0xbd98035c	-0.07422516
22	0x39feb63a	0.00048582425
23	0xbbcf8fbe	-0.006334274
24	0x3d5d3447	0.054004934
25	0xbd89292a	-0.066973045
26	0xbd605def	-0.054777082
27	0xbe1bad22	-0.15202764
28	0x3d97ff2a	0.074217156
29	0x3d5c09cf	0.05372029
30	0xbda64a1c	-0.08119604
31	0xbaa0ebf6	-0.0012277353
32	0x3b657ce2	0.0035017063
33	0x3d3af4c2	0.045643575
34	0x3ce5e7f1	0.0280647
35	0xbd6bc609	-0.057561908
36	0xbd30c31d	-0.043154825
37	0xbdb9795a	-0.09056349
38	0x3cbb7880	0.022884607
39	0xbbc3f4d6	-0.0059801145
40	0x3cfc11a2	0.030770127
41	0x3c854d36	0.016272169
42	0xbdc10157	-0.09424084
43	0x3c55d387	0.01305092
44	0x3c8da9d6	0.017292898
45	0x3dc5039f	0.09619831
46	0x3c827a2f	0.015927402
47	0xbceea00c	-0.02912905
48	0x3e13b24f	0.14423488
49	0x3e17f46d	0.14839335
50	0x3c0765de	0.008264033
51	0x3d75640e	0.059909873
52	0xbda5ce03	-0.08095934
53	0x3e029e5c	0.12755722
54	0x3cea80f6	0.028625946
55	0xbd05d815	-0.032676775
56	0x3d75377e	0.059867375
57	0xbd6378ca	-0.055535115
58	0xbd9b5eaf	-0.07586419
59	0xbd659b21	-0.056056146
60	0x3c2c65f1	0.010522352
61	0xbd11bc7c	-0.035580143
62	0xbd75a4fd	-0.0599718
63	0x3ced56b5	0.02897201
64	0x3c2b3c02	0.010451319
65	0x3d163940	0.03667569
66	0xbdbafe6c	-0.09130558
67	0xbd714172	-0.058900304
68	0xbd6f2971	-0.05838913
69	0xbdb55b6a	-0.088553265
70	0xbdd9814f	-0.10620367
71	0xbd9a381f	-0.075302355
72	0xbc8fdf2d	-0.017562473
73	0xbe0886da	-0.13332692
74	0x3ce56cea	0.028006036
75	0xbcf8feb2	-0.030394886
76	0x3d5579f4	0.052118257
77	0xbcf80a64	-0.030278392
78	0xbc2e2716	-0.010629436
79	0x3ca01984	0.019543417
80	0x3d8afe14	0.06786743
81	0xbcf95592	-0.03043631
82	0x3d85c63e	0.06531952
83	0xbdab3842	-0.0836034
84	0x3d084f60	0.033278823
85	0x3de46221	0.11151529
86	0xbb98351f	-0.0046450044
87	0x3d9f6fc5	0.0778499
88	0x3d2ffa99	0.042963598
89	0x3aefc70e	0.0018293576
90	0xbca5e6be	-0.020251628
91	0xbd03c0e6	-0.032166384
92	0x3d991dde	0.074764
93	0xbcdb3386	-0.026757967
94	0x3d1fc49d	0.039005864
95	0xbd8e67c7	-0.06953388
96	0x3da9e06b	0.082947575
97	0xbd3eac4b	-0.04655103
98	0xbdba3b5a	-0.09093352
99	0x3da3e744	0.08003095
100	0xbda76663	-0.081738256
101	0xbda947d7	-0.082656555
102	0xbd6567cf	-0.056007203
103	0xbd773744	-0.06035544
104	0x3dde348a	0.10849865
105	0x3b6b5ade	0.0035912315
106	0x3d28568d	0.041098166
107	0xbd1b63c2	-0.037936933
108	0xbd2fa947	-0.042886045
109	0x3d8f8ffa	0.07009883
110	0xbcd64e91	-0.02616051
111	0xbd4324d2	-0.047642536
112	0x3d314cb0	0.043286026
113	0xbd819b82	-0.06328489
114	0xbcf69847	-0.030101908
115	0xbe162204	-0.14661413
116	0xbd9ecac7	-0.077535205
117	0xbd9dab48	-0.07698685
118	0xbdf34d5f	-0.11879992
119	0x3adbdc29	0.0016773987
120	0xbe028fdb	-0.12750189
121	0x3c39a764	0.011331413
122	0x3da477ff	0.080307
123	0x3cd6f758	0.02624099
124	0x3cf99590	0.030466825
125	0x3d86e6c3	0.06586983
126	0xbad0ec2a	-0.0015939523
127	0x3d990ec8	0.074735224
128	0xbd0fe6b7	-0.035132136
129	0xbd58c1e2	-0.052919276
130	0x3dfb1acf	0.12260973
131	0x3e001590	0.12508225
132	0x3d899b4d	0.067190744
133	0x3e557306	0.20844659
134	0xbd2f60a3	-0.04281677
135	0x3e67f11d	0.22650571
136	0x3c212e0f	0.009837641
137	0x3d93c351	0.07214988
138	0x3d71a6aa	0.058996834
139	0x3e0af8a9	0.13571419
140	0x3dc3046f	0.0952233
141	0xbca2e981	-0.019886734
142	0x3d891573	0.06693544
143	0x3d341801	0.043968204
144	0x3e2ad848	0.16684067
145	0xbcc8ba00	-0.024502754
146	0x3d19e8c0	0.037575483
147	0xbd922110	-0.071352124
148	0x3e3afe4f	0.18261074
149	0xbdcb33de	-0.09922002
150	0x3e3daa40	0.18521976
151	0x3ea0ca9c	0.3140458
152	0xbe04230a	-0.12903991
153	0xbc369ff4	-0.011146534
154	0xbceb6f48	-0.028739586
155	0x3e9595f2	0.29215962
156	0xbc6eb338	-0.014569096
157	0x3d6a4b2d	0.0572006
158	0x3e4a8a12	0.19779232
159	0x3d02a250	0.031893075
160	0x3ccb89fa	0.024846066
161	0xbdbf7da9	-0.0935014
162	0x3d9d8f27	0.0769332
163	0xbd9f3ba7	-0.0777505
164	0x3e5b4a00	0.21414948
165	0x3d80b76a	0.062849835
166	0x3ae2a312	0.001729103
167	0x3d89c17b	0.067263566
168	0xbd87fd26	-0.06640081
169	0x3d73eee1	0.059553985
170	0x3e28a580	0.16469383
171	0x3df3d8be	0.11906575
172	0x3da62c4c	0.08113918
173	0xbc8ce846	-0.0172006
174	0x3d0f1651	0.034933392
175	0x3b535fa2	0.0032253047
176	0x3dc3c143	0.09558346
177	0x3d626367	0.05527058
178	0xbd52ea9d	-0.051493276
179	0xbdb6829d	-0.08911631
180	0x3c005354	0.007832367
181	0xbca586c5	-0.020205865
182	0x3bf8f2e1	0.007597313
183	0x3ccc0590	0.024904996
184	0xbd194cb2	-0.037426658
185	0x3e210498	0.15724409
186	0x3ccf1da5	0.02528269
187	0x3c8a6215	0.016892472
188	0x3daac511	0.08338369
189	0xbd4f953b	-0.050679427
190	0x3cab0921	0.020878376
191	0x3c2f7da1	0.010711105
192	0x3c5fa247	0.01364953
193	0x3d104ece	0.035231404
194	0x3d1cb725	0.038260598
195	0xbe2e5435	-0.1702431
196	0x3e529a78	0.20566738
197	0x3e4d532b	0.20051257
198	0x3cc1d43b	0.02366077
199	0xbc9eed33	-0.019400215
200	0xbd021ab5	-0.03176375
201	0x3d86f455	0.065895714
202	0x3dba6cf9	0.09102816
203	0xbdc6dc8a	-0.09710033
204	0xbd29b778	-0.041434735
205	0x3e07fea0	0.13280725
206	0x3da3b600	0.07993698
207	0xbcc82e0f	-0.024436025
208	0x3ca85e87	0.020552887
209	0x3dab52e2	0.08365418
210	0xbce92cb6	-0.028463703
211	0x3e68b4bd	0.22725196
212	0x3d9f8e7b	0.07790848
213	0xbd4f1f49	-0.050566945
214	0xbcd494a1	-0.025949778
215	0x39c6f76e	0.00037949852
216	0x3da74ae9	0.08168585
217	0x3d9daf84	0.076994926
218	0x3d1606df	0.036627647
219	0x3e2346f6	0.15945038
220	0xbd65e08a	-0.05612234
221	0x3e131b50	0.14365888
222	0x3d886002	0.06658937
223	0xbcbf43df	-0.023347793
224	0xbc61eab3	-0.013788867
225	0x3be0697d	0.0068485127
226	0x3d8c8c7f	0.06862735
227	0xbd4144da	-0.047184803
228	0xbc2e8c13	-0.0106535135
229	0xbc2a44c3	-0.010392371
230	0xbd9e429c	-0.077275485
231	0x3c70dfbd	0.014701781
232	0xbd19f7b3	-0.03758974
233	0x3e3c03bf	0.18360804
234	0xbd906fa9	-0.070525475
235	0x3db783bf	0.089606754
236	0x3d82e9d7	0.06392258
237	0x3d8c46d1	0.06849445
238	0x3db946e1	0.09046722
239	0x3da04ccb	0.07827147
240	0x3ccfde79	0.025374638
241	0x3ded007b	0.11572357
242	0x3e8b7691	0.27238896
243	0x3de7767c	0.11301896
244	0x3e2368b0	0.15957904
245	0x3db09312	0.086218014
246	0x3dc41932	0.09575118
247	0x3d2a0318	0.041506857
248	0x3e3cb435	0.18428119
249	0x3dc1550b	0.09440049
250	0x3c8b699e	0.017018136
251	0x3c795bed	0.015219671
252	0x3e61d6b7	0.22054563
253	0x3cd3f30d	0.025872732
254	0x3d9f7c93	0.077874325
255	0xbd5f6634	-0.054540828

hidden_2.bias f4 [128]
0	0xbd3f13be	-0.046649687
1	0x3c91386e	0.017727103
2	0xbdbc9144	-0.09207395
3	0xbdaa4e15	-0.08315674
4	0xbae4a268	-0.001744342
5	0x3e3255e7	0.17415582
6	0xbba85d62	-0.005138085
7	0xbd388906	-0.04505255
8	0xbbc44aa0	-0.0059903413
9	0xbd7888ff	-0.060677525
10	0xb9f41692	-0.00046556123
11	0x3e24c9b8	0.16092575
12	0xbb1e571a	-0.0024160803
13	0x3ea3d054	0.3199488
14	0xbda7634d	-0.08173237
15	0x3c900a63	0.017583078
16	0xbdfc4a07	-0.12318807
17	0xbd09cb1f	-0.033640977
18	0xbce7fe7d	-0.028319592
19	0xbda9cbd9	-0.08290834
20	0xbc03ae33	-0.008037138
21	0xbded9acd	-0.116017915
22	0xbd9869f0	-0.07442081
23	0xbd9b866e	-0.07594
24	0xbd4dfc19	-0.050289247
25	0x3e7469fb	0.23868553
26	0xbdaeb378	-0.08530325
27	0x3ca30f3a	0.019904722
28	0x3e52628b	0.20545404
29	0x3c6fc6fb	0.014634843
30	0x3e28d5a4	0.16487747
31	0xbd9aa051	-0.07550109
32	0xbdd74e31	-0.10512961
33	0xbd96cf62	-0.07363774
34	0x3c8ede71	0.017440053
35	0x3df19f4f	0.11797964
36	0xbc00cf6b	-0.007861952
37	0xb8f6dcfd	-0.000117713564
38	0xbdfebdcd	-0.124385454
39	0xbe06212d	-0.13098593
40	0xbd5eb507	-0.05437186
41	0xbd22171e	-0.039572828
42	0x3c341e58	0.010993563
43	0x3e41d3b0	0.18928409
44	0xbdbba989	-0.09163196
45	0xbcdf3dfa	-0.027251232
46	0xbe59b87b	-0.2126178
47	0xbc8c861f	-0.017153798
48	0xbd1fdaf3	-0.039027166
49	0xbcb93c6f	-0.022611825
50	0x3d3acc17	0.04560479
51	0xbdb2b817	-0.087265186
52	0x3d6f82cf	0.05847436
53	0x3c5b7ba8	0.013396181
54	0xbc04b6ae	-0.008100195
55	0xbdc5e377	-0.09662526
56	0x3b95f187	0.0045759114
57	0xbc6c0da4	-0.014407549
58	0xbd90664d	-0.07050762
59	0xbdc305d2	-0.095225945
60	0x3e990c75	0.29892316
61	0xbd406c23	-0.046978127
62	0xbda8c39c	-0.082404345
63	0xbdbdef33	-0.09274139
64	0xbdf339a7	-0.11876231
65	0x3e7bc65f	0.24587391
66	0xbdb8422b	-0.089969955
67	0x3c313978	0.010816924
68	0xbdb0b95a	-0.08629103
69	0xbe2f2b0d	-0.17106266
70	0xbde8c612	-0.11365904
71	0xbd9efbd3	-0.077628754
72	0xbdcc71b3	-0.09982624
73	0xbbf4353d	-0.0074526356
74	0x3e00fbfd	0.12596126
75	0xbd1b73c6	-0.037952207
76	0xbd74d924	-0.059777394
77	0x3e3665ec	0.17812318
78	0xbdc96750	-0.098341584
79	0xbcbc6ca9	-0.023001032
80	0xbd8b9a40	-0.0681653
81	0xbdefc0e8	-0.11706716
82	0xbc08f5ed	-0.0083594145
83	0xbd585186	-0.05281212
84	0x3c2a5733	0.0103967665
85	0x3e4a95ba	0.19783679
86	0xbdb9fe55	-0.09081713
87	0xbd370c83	-0.044689666
88	0xbd5c64d8	-0.05380711
89	0xbe05e6f4	-0.13076383
90	0xbd74b9f9	-0.05974767
91	0xbb161e08	-0.0022906084
92	0x3c16a271	0.0091940025
93	0x3dba6eff	0.09103202
94	0xbdb792ff	-0.08963584
95	0xbba9a1f4	-0.005176777
96	0xbd62e01a	-0.0553895
97	0x3e679386	0.2261487
98	0xbdc317f2	-0.095260516
99	0xbb44a199	-0.0030003546
100	0xbe11591b	-0.14194147
101	0xbba149ba	-0.004922119
102	0xbd81dbd5	-0.06340758
103	0xbcca7a5f	-0.024716554
104	0xbd8e0a39	-0.069355436
105	0xbb00ee0b	-0.0019673135
106	0x3dfbe8a6	0.123002335
107	0xbdedddd3	-0.11614575
108	0xbc3baf96	-0.011455437
109	0x3cfe5798	0.031047627
110	0xbdd1bb1a	-0.10240765
111	0xbcf26654	-0.02958981
112	0x3e741dad	0.23839445
113	0xbcc1ea6d	-0.023671353
114	0xbc51e047	-0.01280982
115	0x3df3bf94	0.11901775
116	0x3b8f577b	0.004374442
117	0xbd31f43b	-0.043445807
118	0xbda8d231	-0.08243216
119	0xbdef6977	-0.11690038
120	0x3d7a9522	0.06117738
121	0xbd39940c	-0.045307204
122	0xbd8925bb	-0.0669665
123	0xbd3d51c7	-0.046220567
124	0xbd9d116d	-0.07669339
125	0xbd29f627	-0.041494515
126	0xbd399442	-0.045307405
127	0x3b17c7eb	0.0023159932

hidden_3.weight f4 [128, 128]
0	0xbd5d8a66	-0.054087065
1	0x3c436e99	0.011928224
2	0x3c2a93d1	0.010411219
3	0x3d98ac91	0.074547894
4	0x3d03c35e	0.03216874
5	0xbc9d73e5	-0.019220302
6	0xbd8c9329	-0.06864006
7	0xbd94525f	-0.072422735
8	0x3ddb9af5	0.10722915
9	0xbcf9acdd	-0.030477935
10	0x3d19fd6d	0.0375952
11	0x3d212447	0.039341237
12	0x3cf9ec5b	0.03050821
13	0xbd188898	-0.03723964
14	0xbbc93a6f	-0.006140999
15	0xbcddc97e	-0.027073618
16	0x3e2f764d	0.17134972
17	0xbd013780	-0.03154707
18	0xbbb3ddd8	-0.0054890923
19	0xba4db0b6	-0.00078464614
20	0xbd8b7c74	-0.06810847
21	0x3d4cb88f	0.049980696
22	0xbe00e331	-0.12586667
23	0xbd9444d3	-0.0723969
24	0xbd5c5033	-0.05378742
25	0xbdce81dd	-0.10083363
26	0xbd71e004	-0.05905153
27	0x3d2d8d61	0.042371158
28	0xbbd32b97	-0.0064444053
29	0x3e076f6f	0.13226102
30	0xbcf8f779	-0.030391442
31	0xbccd3a34	-0.025052167
32	0xbc2eb729	-0.010663786
33	0x3d49b29a	0.049242593
34	0x3d0c8f62	0.034316428
35	0xbd1a3c3b	-0.037655097
36	0x3d2160e3	0.03939904
37	0x3c61f645	0.013791625
38	0x3d9374de	0.07200025
39	0x3df9e5a9	0.12202007
40	0x3d7c6c9f	0.061627027
41	0xbd82dc09	-0.063896246
42	0x3d90e0ef	0.07074153
43	0xbd93b7ae	-0.072127685
44	0x3d40d9de	0.047082774
45	0xbc2f3b14	-0.010695238
46	0xbdca1b6d	-0.09868512
47	0x3d7d1874	0.0617909
48	0xbcb9d7f7	-0.022685988
49	0x3cbc2c0f	0.022970228
50	0x3d0c6b48	0.034282
51	0xbdafe7d9	-0.08589143
52	0xbc2c6fe5	-0.010524725
53	0xbdfb8cc5	-0.12282709
54	0x3cc6b5d4	0.024256624
55	0x3d5cff80	0.0539546
56	0x3ccc7c99	0.024961757
57	0xbdabc561	-0.083872564
58	0xbc1a83dc	-0.009430852
59	0xbc81533d	-0.015786761
60	0x3d585a0b	0.052820247
61	0xbd861cbc	-0.065484494
62	0xbd39af9c	-0.04533349
63	0xbd02c19f	-0.031922933
64	0xbd0ac836	-0.033882342
65	0x3b266f64	0.0025395984
66	0xbd9572f3	-0.072973154
67	0xbc0e7eff	-0.00869727
68	0x3cf766b0	0.030200332
69	0x3c30d08b	0.010791908
70	0xbddeafe2	-0.10873391
71	0xbd04f68c	-0.032461688
72	0x3d16925d	0.036760677
73	0xbd0dd139	-0.03462336
74	0xbad64888	-0.001634852
75	0x3d3d19e0	0.046167254
76	0xbd902f33	-0.070402525
77	0xbd8f4051	-0.06994689
78	0xbccef560	-0.025263488
79	0x3d3884fc	0.0450487
80	0x3d30cf33	0.04316635
81	0x3cc043cd	0.02346983
82	0xbdc32e3b	-0.09530302
83	0xbd6e177b	-0.05812786
84	0xbdb421f9	-0.08795542
85	0xbd557c8d	-0.052120734
86	0x3b83721e	0.0040114066
87	0x3da47b46	0.08031325
88	0xbc8fa4a8	-0.017534569
89	0xbd2783bd	-0.04089712
90	0x3d3a5446	0.045490526
91	0x3c4ef993	0.012632745
92	0x3ce0db34	0.027448274
93	0xbd8035f2	-0.06260289
94	0xbd9c7fc6	-0.07641558
95	0x398f5642	0.00027339353
96	0x3dbb859d	0.09156344
97	0xbdad70f2	-0.08468808
98	0xbdc804f9	-0.097665735
99	0xbde1587d	-0.11003206
100	0xbdcfab39	-0.1014008
101	0xbd27f216	-0.041002356
102	0xbd98a460	-0.07453227
103	0xbdf32cb9	-0.118737645
104	0xbd542ea1	-0.05180228
105	0x3d4ba35f	0.04971635
106	0xbcad0fa6	-0.021125626
107	0xbd4ec9ad	-0.0504853
108	0x38b9d2cb	8.860751e-05
109	0xbd878b98	-0.06618422
110	0xbd1ea5fd	-0.038732518
111	0xbda9b9e4	-0.08287409
112	0xbccabb6d	-0.024747575
113	0x3c7418be	0.014898477
114	0xbd3e93ec	-0.046527788
115	0xbd219f9f	-0.039458867
116	0x3d05a9f9	0.0326328
117	0xbc1295c9	-0.008946844
118	0xbda25729	-0.07926781
119	0x3d48dac9	0.049036775
120	0x3c46dca8	0.0121375695
121	0xbdc9374b	-0.098249994
122	0xbb012308	-0.0019704718
123	0x3ce30f4e	0.027717259
124	0xbd09044f	-0.033451375
125	0x3da7ef01	0.08199883
126	0xbcb339c7	-0.021878136
127	0xbd6b078d	-0.057380248
128	0x3a93a3e3	0.0011264052
129	0x3c71b3ab	0.014752309
130	0x3d8b37c5	0.067977466
131	0xbd9e7c25	-0.077385224
132	0xbd8cb57e	-0.068705544
133	0x3d9db966	0.077013776
134	0xbcc5b286	-0.024132978
135	0xbd080564	-0.033208266
136	0x3c64e7ce	0.013971282
137	0xbc455b8b	-0.012045751
138	0x3d0bb476	0.034107648
139	0xbd55ed22	-0.0522281
140	0xbda038be	-0.07823323
141	0x3cecb254	0.028893627
142	0x3d974f8f	0.073882215
143	0xbb842faa	-0.0040340023
144	0xbb607606	-0.0034250035
145	0xbd8d72b9	-0.06906647
146	0x3d9d1f3a	0.076719716
147	0xbce18e35	-0.02753363
148	0xbd9c951c	-0.07645628
149	0xbcc6ba0e	-0.02425864
150	0xb96367cb	-0.00021687073
151	0xbbcae5d1	-0.006191947
152	0xbb5416ea	-0.003236229
153	0xbd7f2ff6	-0.0623016
154	0xbcfcaba5	-0.030843565
155	0x3d68e0b4	0.05685492
156	0xbc996ddd	-0.018729145
157	0x3d9cf643	0.07664158
158	0x3c344d18	0.011004709
159	0x3b00710f	0.0019598638
160	0xbcdf358e	-0.027247217
161	0xbd7f8fbc	-0.062392935
162	0xbc54991d	-0.012975958
163	0xbdc3307e	-0.095307335
164	0xbd3ef45d	-0.04661976
165	0x3ca19972	0.019726489
166	0xbd257694	-0.040396288
167	0x3dae1890	0.08500779
168	0x3dacb7a1	0.08433462
169	0x3c79b3c7	0.015240616
170	0x3c8ba087	0.017044319
171	0xbd72ea9f	-0.059305783
172	0xbd73a7f9	-0.059486363
173	0x3d999134	0.074983984
174	0x3d755ab7	0.059900966
175	0xbd1709bb	-0.036874514
176	0x3b9ca990	0.0047809556
177	0x3d575f7c	0.052581295
178	0xbd7d69c9	-0.061868463
179	0xbcbe9667	-0.023265077
180	0xbd850aea	-0.06496222
181	0x3b8388a6	0.0040140925
182	0xbdb29ddf	-0.08721518
183	0xbd89f883	-0.06736853
184	0x3cdc9c09	0.026929872
185	0xbb367a06	-0.0027843728
186	0x3cb517ba	0.02210604
187	0x3ca0b695	0.019618312
188	0x3d0e613a	0.03476069
189	0xbd15b6ae	-0.03655117
190	0xbc9fae00	-0.01949215
191	0xbc66e080	-0.014091611
192	0x3d7ef8a5	0.062248845
193	0xbbf13419	-0.007360947
194	0x3d391e4a	0.0451949
195	0xbd173052	-0.036911316
196	0x3d456aa4	0.048197404
197	0xbcdd19c4	-0.026989825
198	0xbd1a99c2	-0.03774429
199	0x3d386e87	0.045027282
200	0x3d769450	0.060200036
201	0x3c51ffca	0.0128173325
202	0x3bf7b723	0.0075596734
203	0x3bb792eb	0.005602231
204	0xbce75688	-0.028239504
205	0xbd1da524	-0.03848757
206	0xbda3a93d	-0.07991264
207	0x3d81c537	0.06336444
208	0xbdc13ade	-0.09435056
209	0x3d8d7abd	0.06908176
210	0x3cf66d81	0.030081512
211	0xbd05c4f0	-0.032658517
212	0xbd862382	-0.06549741
213	0x3d69535e	0.05696427
214	0xbd26e1c0	-0.040742636
215	0x3d921e60	0.071347
216	0x3d421b56	0.04738935
217	0x3d07e848	0.033180505
218	0x3c9ac7ef	0.018894164
219	0x3d01e93c	0.03171657
220	0x3da88da3	0.0823014
221	0xbd781b19	-0.060572717
222	0xbd77f8a4	-0.060539857
223	0xbd6222b5	-0.05520888
224	0x3da20f17	0.079130344
225	0xbd2ce786	-0.042212985
226	0x3d8c515a	0.06851454
227	0xbca76eac	-0.020438515
228	0x3d1182cf	0.03552514
229	0xbd8fa550	-0.07013953
230	0xbc4a8a9e	-0.0123621505
231	0xbd6e9a57	-0.05825266
232	0x3c09be91	0.008407251
233	0xbdb5a779	-0.088698335
234	0xbd0ddedf	-0.034636375
235	0xbd4b7b1f	-0.049677964
236	0x3c860b26	0.016362738
237	0xbd2796d1	-0.040915314
238	0x3d41beec	0.047301218
239	0x3d386d3d	0.045026053
240	0x3b93ce5d	0.0045106844
241	0x3d4f3e68	0.050596625
242	0x3bc963a0	0.0061459094
243	0x3d462abb	0.048380595
244	0x3d8f7b4b	0.07005938
245	0xbd5b71ed	-0.053575445
246	0x3da5afff	0.08090209
247	0x3be0a9b4	0.0068561677
248	0xbcf19737	-0.02949105
249	0xbb0e3ac1	-0.00217025
250	0xbc6f3a40	-0.01460129
251	0xbda9011b	-0.08252164
252	0x3d008e41	0.031385664
253	0x3b525558	0.0032094326
254	0xbdb2da65	-0.08733062
255	0xbd530100	-0.051514626

hidden_3.bias f4 [128]
0	0xbc598334	-0.01327591
1	0xbcdcfbae	-0.026975479
2	0xbe18e71d	-0.14931913
3	0xbcc82a16	-0.02443413
4	0xba9cd405	-0.0011965042
5	0xbd99bb22	-0.07506396
6	0xbc592f56	-0.013255915
7	0xbc6e409a	-0.014541769
8	0x3d42b771	0.047538225
9	0x3e201c09	0.15635695
10	0xbd23325c	-0.03984295
11	0xbc1b1558	-0.009465538
12	0xbd8bee35	-0.06832544
13	0xbd5d2ace	-0.0539959
14	0x3e596a67	0.21231996
15	0xbe00e36e	-0.12586758
16	0x3d028294	0.03186281
17	0xbe0489d1	-0.12943198
18	0xbcdbea49	-0.026845114
19	0xbdd31a25	-0.10307721
20	0x3cb67418	0.022272155
21	0xbdb177e3	-0.08665445
22	0xbdb27798	-0.08714217
23	0x3c34c3e3	0.011033031
24	0xbd1cfe03	-0.038328182
25	0x3b293331	0.0025817866
26	0xbd34b23a	-0.044115283
27	0xbd413f73	-0.04717965
28	0xbd8805b1	-0.066417105
29	0xbdce5118	-0.10074061
30	0xbe027623	-0.12740378
31	0xbe321432	-0.17390516
32	0xbd93460b	-0.07191094
33	0xbb5257b9	-0.0032095744
34	0xbc363aa3	-0.0111223785
35	0xbda9da75	-0.082936205
36	0xbe26921e	-0.16266677
37	0x3d216aa1	0.03940833
38	0xbdf5b627	-0.119976334
39	0xbdf5533d	-0.11978767
40	0xbe0f1ede	-0.13976619
41	0xbd8f92b5	-0.07010404
42	0x3d169007	0.03675845
43	0x3b0f09b3	0.002182585
44	0xbcdf4504	-0.027254589
45	0x3ec747d7	0.38921997
46	0x3eab68d7	0.33478424
47	0xbd35835a	-0.04431472
48	0x3c9c72f8	0.01909779
49	0xbdeb27ff	-0.11482238
50	0xbd80032a	-0.062506035
51	0x3e59e626	0.21279201
52	0xbcf0627f	-0.029343842
53	0xbde7afe3	-0.113128446
54	0xbd00fa11	-0.031488482
55	0xbd65bf73	-0.056090783
56	0xbd3f5154	-0.04670842
57	0xbdb9a6e0	-0.09065032
58	0xbdc7e643	-0.09760716
59	0x3e00e80a	0.12588516
60	0x3e566219	0.20935859
61	0xbd3e7030	-0.04649371
62	0xbd17588d	-0.036949683
63	0xbccb3bfa	-0.024808872
64	0xbc9b2e57	-0.018942995
65	0xbd8b8737	-0.068128996
66	0xbc4d553b	-0.012532528
67	0xbce6cbd2	-0.028173361
68	0x3d9522fc	0.07282063
69	0xbdafabdb	-0.08577701
70	0xbdeb476f	-0.11488234
71	0x3cba7106	0.022758972
72	0xbd3556db	-0.044272285
73	0xbdf96879	-0.1217813
74	0xbc9ae0f5	-0.018906096
75	0xbd475745	-0.04866721
76	0x3ccf7900	0.025326252
77	0xbdc9257c	-0.09821603
78	0xbd9ba1e2	-0.07599236
79	0x3c817aef	0.01580569
80	0xbd2abf08	-0.041686088
81	0xbc98ad56	-0.01863734
82	0xbd2a9634	-0.04164715
83	0xbdb81c0f	-0.08989727
84	0x3ec24154	0.37940466
85	0xbb86ed69	-0.004117657
86	0x3c430384	0.011902694
87	0xbafc74cc	-0.0019260882
88	0x3c6fa44f	0.014626577
89	0xbd56c8c2	-0.05243755
90	0xbe11734b	-0.14204137
91	0xbdcd4ecc	-0.10024795
92	0xbc360a0e	-0.011110796
93	0xbd2c2d47	-0.042035367
94	0x3c2e495e	0.010637609
95	0x3e30063a	0.17189875
96	0xbd8a4061	-0.067505606
97	0xbdbef450	-0.09323943
98	0x3d7cff06	0.061766647
99	0xbda3160a	-0.07963188
100	0xbde4b22c	-0.11166796
101	0xbd7e7802	-0.062126167
102	0xbc830d1b	-0.01599746
103	0x3ce3c755	0.02780501
104	0xbe0c5ed3	-0.13708048
105	0xbd402d28	-0.046918064
106	0xbd141627	-0.03615394
107	0x3c61bda9	0.013778129
108	0xbd012c7f	-0.031536575
109	0x3e6bab07	0.2301446
110	0xbdb80a0f	-0.089862935
111	0xbdbc8a9f	-0.092061274
112	0x3b2c92df	0.002633266
113	0xbd2243fc	-0.039615616
114	0xbd7c0627	-0.061529305
115	0xbd978a18	-0.07399386
116	0xbd4e05b3	-0.050298404
117	0xbcbbd872	-0.022930358
118	0x3e0dc293	0.13843755
119	0x3d866ba8	0.065635026
120	0x3e40e497	0.188372
121	0x3cc83ee3	0.02444405
122	0xbda9d0c2	-0.082917705
123	0x3dea681d	0.11445639
124	0xbc7b533d	-0.01533967
125	0xbd6e4c6b	-0.058178347
126	0xbd65f068	-0.056137472
127	0xbcf4f132	-0.029900167

output_layer.weight f4 [5, 128]
0	0x3c8f4990	0.017491132
1	0x3d4b5396	0.04964026
2	0x3c097f4f	0.008392169
3	0x3d0fcea9	0.035109196
4	0xbdc36d4c	-0.09542331
5	0xbd3df843	-0.04637934
6	0x3ca93615	0.020655671
7	0x3cb91145	0.022591243
8	0x3d28482a	0.041084446
9	0xbdaaefa4	-0.08346489
10	0x3c1f47e1	0.009721727
11	0x3d33d9b3	0.043908786
12	0xbd7109ac	-0.058847114
13	0x3c8eda5a	0.017438103
14	0x3d191142	0.037369974
15	0xbd5683c1	-0.052371744
16	0x3d084f01	0.03327847
17	0x3d3fc397	0.04681739
18	0x3d02dc6e	0.0319485
19	0xbceb8228	-0.028748587
20	0x3be2d93f	0.0069228704
21	0xbd9772e6	-0.07394962
22	0xbbc8cc7f	-0.0061278935
23	0x3d12c6e3	0.035834204
24	0x3da12de7	0.07870083
25	0x3c807dad	0.015684927
26	0xbd0689ef	-0.032846387
27	0x3d235c0a	0.039882697
28	0x3d4f091d	0.0505458
29	0x3d379def	0.04482835
30	0x3d826b91	0.06368173
31	0x3e275737	0.16341864
32	0x3e0e2cfb	0.13884346
33	0x3d39f099	0.045395467
34	0x3ceb2e42	0.02870858
35	0x3d008e80	0.0313859
36	0x3b0b54ee	0.0021260339
37	0xbda343e0	-0.079719305
38	0xbd31b976	-0.04338976
39	0x3d13b8ec	0.036065027
40	0x3b13edca	0.0022572153
41	0x3d44397f	0.047906395
42	0x3c8d18a0	0.017223656
43	0x3d618ac0	0.055063963
44	0x3b381e2d	0.0028094158
45	0xbeabd73d	-0.3356265
46	0xbe9e6b0d	-0.30941048
47	0x3d8a8642	0.06763889
48	0xbc48a992	-0.01224746
49	0xbd9502ae	-0.07275902
50	0x3d8886ed	0.0666636
51	0xbe3f052b	-0.18654315
52	0xbd622250	-0.055208504
53	0xbc407f22	-0.011749061
54	0xbd5b45e6	-0.053533457
55	0xbd049daa	-0.032376923
56	0x3d276f0f	0.040877398
57	0x3d179fd3	0.037017655
58	0xbbecc451	-0.007225551
59	0xbe9fd5de	-0.31217855
60	0xbe74249b	-0.23842089
61	0x3cb50b63	0.022100156
62	0xbd00ccbc	-0.03144525
63	0x3cbd2222	0.023087565
64	0x3d18a8c0	0.037270308
65	0xbd88b8a6	-0.06675844
66	0x3d53c6ba	0.051703192
67	0x3db778b3	0.089585684
68	0xbe550c56	-0.20805487
69	0x3b2b4a4a	0.002613681
70	0x3db56918	0.08857936
71	0x3d057b7c	0.032588467
72	0x3cae1441	0.021249892
73	0x3ca83d88	0.020537153
74	0x3d6ead5d	0.0582708
75	0xbbd3be18	-0.00646187
76	0x3dcfd9d1	0.10148967
77	0xbd73a000	-0.05947876
78	0x3d1e2567	0.03860989
79	0x3c494716	0.012285015
80	0xbc949870	-0.018139094
81	0xbbcb8021	-0.0062103425
82	0xbd142eeb	-0.036177557
83	0x3cb39441	0.021921279
84	0xbe953b4a	-0.29146796
85	0x3cc4c4e9	0.024019675
86	0xbc49ae11	-0.012309567
87	0x3ca49382	0.020089868
88	0x3d3cbf13	0.04608066
89	0x3d982a9a	0.074300006
90	0xbd5b413c	-0.05352901
91	0x3d9ef137	0.07760852
92	0x3e644c0d	0.22294636
93	0x3c19eff4	0.009395588
94	0x3cabf3a0	0.020990193
95	0xbe74432e	-0.23853752
96	0x3d9595bc	0.0730395
97	0xbd1477ec	-0.03624718
98	0xbe0849bc	-0.13309377
99	0xbc1eb4c3	-0.009686652
100	0xbdec19f9	-0.115283914
101	0xbd3478f8	-0.044060677
102	0x3b42384c	0.0029635606
103	0x3ca8e890	0.020618707
104	0x3d584b05	0.05280592
105	0xbcd06e0b	-0.025443098
106	0x3c38b99f	0.011274724
107	0x3d9fa6dc	0.07795498
108	0xbbc28b9e	-0.005937054
109	0xbe2c2edf	-0.16814755
110	0x3d88ec98	0.06685752
111	0xbd90a5a4	-0.070628434
112	0x3d2b2dbd	0.041791666
113	0x3b0cdeea	0.0021495172
114	0x3c0e5fd0	0.008689836
115	0xbdacf03e	-0.0844426
116	0xbd84ade5	-0.0647848
117	0xbb982cd5	-0.0046440163
118	0xbdd71e99	-0.10503883
119	0xbc9d417d	-0.019196266
120	0xbde91590	-0.11381066
121	0x3d2085ce	0.039190106
122	0x3d224c42	0.039623506
123	0xbe03ae74	-0.12859517
124	0x3a172f55	0.0005767246
125	0x3c8124ea	0.015764672
126	0xbd90ba7e	-0.070668206
127	0xbd4669a0	-0.048440576
128	0x3d9fe6d8	0.07807702
129	0x3ca14243	0.019684916
130	0xbd719c60	-0.05898702
131	0x3d745983	0.059655678
132	0xbe14f310	-0.14545846
133	0x3ce4941e	0.027902659
134	0x3d8d5baa	0.06902249
135	0x3d12e389	0.035861526
136	0x3d68946b	0.056782167
137	0xbe2e58c7	-0.17026053
138	0x3d3c8f69	0.046035204
139	0x3ded0dca	0.11574896
140	0xbda8c9ef	-0.08241641
141	0x3dad28f8	0.0845508
142	0x3b33c0fc	0.002742826
143	0xbd57aa4e	-0.05265265
144	0xbe05b66e	-0.13057873
145	0x3e329a8c	0.17441767
146	0x3da33d04	0.07970622
147	0xbd47aeed	-0.048750807
148	0x3de98552	0.11402382
149	0xbcecf236	-0.028924089
150	0x3d50ef50	0.051009476
151	0x3d468949	0.04847077
152	0x3df15eab	0.117856346
153	0x3d2887cd	0.041145135
154	0xbaa58a7a	-0.001262977
155	0x3dee9422	0.11649348
156	0x3db09c4a	0.0862356
157	0x3d8cfac9	0.06883771
158	0x3d853391	0.06503976
159	0x3d0fe414	0.03512962
160	0x3cda9337	0.026681526
161	0x3e0373c6	0.12837133
162	0x3d6d5596	0.05794295
163	0xbd2b8dd1	-0.041883294
164	0xbdd99b95	-0.10625378
165	0xbd3bfb78	-0.045894116
166	0xbe15e70e	-0.14638922
167	0x3d818d27	0.06325751
168	0xbca6ab5c	-0.020345382
169	0x3d401b1d	0.046900857
170	0xbd077313	-0.033068728
171	0x3e123d6b	0.14281242
172	0x3cb24394	0.02176074
173	0xbd482497	-0.04886302
174	0xbe3a5eba	-0.18200198
175	0x3cb2f3df	0.021844802
176	0xbd7dc94d	-0.061959554
177	0x3b88b115	0.0041715004
178	0x3dfbd07f	0.12295627
179	0xbe0fc5bb	-0.14040272
180	0xbdda784a	-0.106674746
181	0x3d382274	0.044954732
182	0xbdb0447c	-0.08606812
183	0xbcf643ce	-0.030061629
184	0x3e01daf2	0.12681177
185	0x3d759b31	0.059962455
186	0xbcee37cb	-0.029079339
187	0xbe225cbc	-0.15855688
188	0xbe28064b	-0.1640865
189	0x3dc9782e	0.098373756
190	0xbd80c0a9	-0.06286747
191	0x3d9ec4c0	0.07752371
192	0xbd8860ed	-0.06659112
193	0xbdb31034	-0.08743325
194	0x3db37126	0.08761816
195	0xbcabc2c8	-0.020966902
196	0xbda961c6	-0.08270602
197	0xbd6e351a	-0.05815611
198	0x3cc46ae4	0.02397675
199	0xbbce7b88	-0.006301347
200	0x3bb380a9	0.005477984
201	0x3db48578	0.0881452
202	0x3dfad425	0.122474946
203	0xbaf2d56b	-0.0018526738
204	0xbda50314	-0.08057228
205	0x3be88d93	0.007096955
206	0x3c59fb21	0.013304503
207	0x3d435bb4	0.047694877
208	0x3db79f40	0.089659214
209	0x3d1243c6	0.035709165
210	0xbc825b93	-0.015912807
211	0x393c02e3	0.00017930153
212	0xbde60064	-0.11230543
213	0x3de4ba28	0.11168319
214	0x3d730f4e	0.059340768
215	0x3d5b0d9f	0.053479787
216	0xbd821e22	-0.06353404
217	0x3e1c95a7	0.15291463
218	0x3cf588a9	0.029972391
219	0x3db632fe	0.08896445
220	0xbc9a942b	-0.01886948
221	0xbd12da10	-0.03585249
222	0x3d0d45bf	0.034490343
223	0xbe42e786	-0.19033632
224	0x3e0a35fe	0.13497159
225	0x3d1a82de	0.03772246
226	0xbc9a81d3	-0.018860733
227	0xbc28f2bf	-0.010311781
228	0xbd9858ae	-0.07438789
229	0xbdbd3b52	-0.0923983
230	0x3da9d448	0.082924426
231	0x3ca3f1e6	0.020012807
232	0xbdba4b3c	-0.09096381
233	0xbda1db12	-0.079031125
234	0xbcc0b1d7	-0.0235223
235	0xbd1506e1	-0.036383513
236	0xbcc4bae6	-0.024014901
237	0xbd2d10e1	-0.042252425
238	0x3df15398	0.11783522
239	0x3d4b4745	0.049628515
240	0x3caffd61	0.021483125
241	0x3dc21347	0.09476333
242	0x3b68fff9	0.0035552962
243	0xbc7fca07	-0.015612132
244	0xbcf2d463	-0.02964229
245	0xbb9786c6	-0.0046242205
246	0xbe5ee5a4	-0.21767288
247	0x3d8dc2c5	0.06921915
248	0xbe4f14ca	-0.20222774
249	0x3d7016dc	0.05861555
250	0xbcb1f64b	-0.021723887
251	0xbe743a94	-0.23850471
252	0x3e1e185e	0.15438983
253	0x3dbe748b	0.092995726
254	0xbd433b87	-0.04766419
255	0xba90ebe7	-0.0011056633

output_layer.bias f4 [5]
0	0xbd99af99	-0.07504196
1	0x3dc8c9f6	0.09804146
2	0x3cd7bc13	0.026334798
3	0x3e5d1484	0.21589857
4	0xbdb23249	-0.087009974
