criticHRes.pth (torch, 242082 bytes, 10 tensors)

input_layer.weight f4 [128, 72]
0	0xbde3572b	-0.1110061
1	0x3d580ffd	0.052749623
2	0xbd9108f6	-0.07081787
3	0xbe26e9c9	-0.1630012
4	0xbdf936ab	-0.1216863
5	0x3dbfcca9	0.09365208
6	0xbd615a44	-0.055017725
7	0xbe499cc4	-0.19688708
8	0x3d464d71	0.048413698
9	0x3c9a9ab9	0.018872606
10	0xba57a370	-0.0008225953
11	0xbc3cbb49	-0.011519262
12	0x3b651dc1	0.0034960362
13	0xbc4a1ff2	-0.012336718
14	0x3c8f33b2	0.017480705
15	0x3bd22af0	0.00641381
16	0x3c7c4db0	0.0153993815
17	0xbb9ff28c	-0.0048812088
18	0xbdb68429	-0.08911926
19	0xbd27f622	-0.041006215
20	0x3d8b856a	0.06812556
21	0x3d7df6c2	0.062002905
22	0xbe03daa9	-0.12876381
23	0xbe32d4f9	-0.17464055
24	0xbce76095	-0.028244296
25	0x3d8ad60b	0.06779107
26	0xbd494861	-0.04914129
27	0x3d3dc9e6	0.046335123
28	0xbdb9cc8d	-0.09072218
29	0xbcd8ac28	-0.026449278
30	0x3cf6b548	0.030115739
31	0xbdb04753	-0.08607354
32	0xbe013805	-0.12619026
33	0xbcccba40	-0.024991155
34	0x3e5999e7	0.21250115
35	0xbe0a1341	-0.13483907
36	0x3c4fa9e5	0.012674783
37	0x3d3a361f	0.04546177
38	0x3d170cf2	0.03687758
39	0xbd03925b	-0.032121997
40	0xbd86203a	-0.065491155
41	0xbdf0d4e0	-0.11759353
42	0xbde8d95c	-0.11369583
43	0xbd9345ba	-0.07191034
44	0xbc427ef3	-0.011871087
45	0x3bf4beb9	0.007469025
46	0x3d826de9	0.0636862
47	0xbc63ceaf	-0.013904258
48	0xbd7d66f3	-0.06186576
49	0xbcb8533f	-0.022500632
50	0x3db7bce2	0.089715734
51	0xbdb7f40b	-0.089820944
52	0xba883825	-0.0010392709
53	0x3dc03f34	0.09387055
54	0x3c7dbd2d	0.015486998
55	0xbe180334	-0.14844972
56	0x3d24abbd	0.040202845
57	0x3d9e90a8	0.07742435
58	0xbdfdf8d3	-0.12400975
59	0xbd9d2a28	-0.07674056
60	0xbd48c293	-0.049013685
61	0xbd2cf25a	-0.042223312
62	0x3d53999e	0.051660173
63	0xbe4ef69f	-0.20211266
64	0xbe80cf48	-0.25158143
65	0x3cf05f17	0.029342217
66	0x3dd1042f	0.10205876
67	0xbdd151a7	-0.10220652
68	0xbe267fea	-0.16259733
69	0xbcb6802a	-0.02227791
70	0xbd022ae2	-0.031779177
71	0xbdf355ef	-0.11881625
72	0xbe07a175	-0.13245185
73	0xbc929aec	-0.017896138
74	0x3db02063	0.08599927
75	0xbe34af81	-0.17645074
76	0x3d028ca4	0.031872407
77	0xbc575a3c	-0.013144072
78	0x3cd4019b	0.025879672
79	0xbe0d8d55	-0.13823445
80	0x3d723dd4	0.059140995
81	0xbd7f455c	-0.062322006
82	0xbe0e3bed	-0.13890047
83	0xbe08ab4f	-0.13346599
84	0x3d738ce2	0.05946053
85	0x3e207e15	0.15673096
86	0x3d76f3ce	0.060291104
87	0xbde3a029	-0.111145325
88	0x3d8afbf7	0.0678634
89	0x3d81c3bb	0.06336161
90	0xbd5968e6	-0.053078555
91	0x3e0e3258	0.13886392
92	0x3d68f0bc	0.056870207
93	0x3be44b36	0.0069669737
94	0xbe7ba654	-0.24575168
95	0x3dda3a2a	0.10655625
96	0x3e37cf02	0.17950061
97	0xbcf099d4	-0.029370226
98	0xbd7e7e6b	-0.06213228
99	0xbdbe7925	-0.0930045
100	0xbde5cbc5	-0.112205066
101	0x3e5f5076	0.21808037
102	0xbe4327ad	-0.19058104
103	0xbe0fd88c	-0.1404745
104	0xbe84c6b0	-0.25932837
105	0xbe318cfd	-0.17338939
106	0xbd95165b	-0.072796546
107	0xbd74f4b3	-0.059803676
108	0xbe333ce0	-0.1750369
109	0xbe815cad	-0.25266019
110	0x3d191933	0.037377547
111	0x3ba58bdc	0.005052073
112	0xbdff86da	-0.12476893
113	0x3c9607b8	0.018314227
114	0xbc904e1a	-0.017615367
115	0xbdbc8496	-0.09204976
116	0xbdb1f283	-0.086888336
117	0x3bc2601d	0.0059318678
118	0xbd4e17da	-0.050315715
119	0xbdfeb2ea	-0.12436469
120	0xbde7aab5	-0.11311857
121	0xbd162dfb	-0.036664944
122	0x3e63e114	0.22253829
123	0x3d435401	0.047687534
124	0x3d960fd7	0.0732724
125	0xbde0d7a8	-0.10978633
126	0x3ca95b90	0.020673543
127	0xbdecd6bf	-0.11564397
128	0xbe20b493	-0.15693884
129	0x3dcb08bf	0.099137776
130	0x3d943f61	0.07238651
131	0x3d6ad115	0.057328302
132	0xbe1ea5fb	-0.15493004
133	0xbd04082e	-0.032234363
134	0x3dee8c25	0.11647824
135	0xbe54b969	-0.20773853
136	0xbeb8da15	-0.36103883
137	0x3e1c8437	0.15284811
138	0x3e0597a9	0.13046135
139	0xbe9aa2b7	-0.30202267
140	0xbe9fc32a	-0.31203586
141	0x3e950109	0.29102352
142	0x3e870199	0.26368406
143	0xbe77c9f6	-0.24198136
144	0x3e1308c6	0.14358816
145	0x3cfb68bc	0.03068959
146	0xbd98056f	-0.074229114
147	0xbe0080a1	-0.12549068
148	0x3e27c4a7	0.1638361
149	0x3e4af4a1	0.19819881
150	0x3e54506a	0.207338
151	0x3ca5c57b	0.020235768
152	0xbd90e233	-0.07074394
153	0xbe44ec33	-0.19230728
154	0xbc63307c	-0.01386654
155	0x3c84ae9f	0.016196547
156	0x3c865893	0.016399657
157	0x3df2d06b	0.11856159
158	0xbd2e72b8	-0.042589873
159	0x3d829bf7	0.06377404
160	0xbdb32058	-0.087464035
161	0xbe3e44a5	-0.18580873
162	0x3e1d3af3	0.15354519
163	0xbce074e4	-0.027399488
164	0x3def9aac	0.11699423
165	0x3c88c34c	0.016694687
166	0xbc917cea	-0.017759759
167	0x3e188f40	0.14898396
168	0x3d25fdca	0.040525235
169	0xbd535fbb	-0.051604968
170	0x3d48b1a3	0.048997533
171	0xbe24ab4e	-0.16080973
172	0xbe196218	-0.14978826
173	0x3e111097	0.14166485
174	0xbdd26ba1	-0.10274435
175	0xbdb1e5e3	-0.086864255
176	0x3cfc5b10	0.03080514
177	0x3d1e92f6	0.03871437
178	0x3df112b3	0.11771145
179	0xbc083652	-0.008313732
180	0xbe430516	-0.19044909
181	0xbd5b3a94	-0.05352266
182	0x3e98f0d3	0.29871234
183	0x3d024110	0.03180033
184	0xbde25733	-0.11051788
185	0x3d864bbe	0.065574154
186	0x3db4e051	0.088318475
187	0xbc7697b0	-0.015050814
188	0x3b1339d4	0.0022464888
189	0x3de2ec6e	0.11080252
190	0xbdabff4a	-0.08398302
191	0xbe2e3589	-0.1701261
192	0xbd8294a1	-0.06376005
193	0xbdab2198	-0.08356017
194	0x3d5b3d25	0.05352511
195	0xbe0b6e7e	-0.13616368
196	0xbdd10269	-0.10205538
197	0x3caa2bbe	0.020772811
198	0xbd03abcd	-0.032146264
199	0xbe009f3e	-0.12560746
200	0xbe719499	-0.23591842
201	0xbc87596d	-0.016522134
202	0xbe1b2e9c	-0.15154499
203	0xbe55ee7c	-0.20891756
204	0xbe618522	-0.22023442
205	0x3c8d2680	0.017230272
206	0xbd5d04a0	-0.05395949
207	0xbe96f55f	-0.29484078
208	0xbe82fbdf	-0.25582787
209	0x3e111bc6	0.14170751
210	0x3de5df08	0.112241805
211	0xbe3b99cc	-0.18320388
212	0xbe964246	-0.29347438
213	0x3ec4b352	0.3841806
214	0x3dddc63c	0.10828826
215	0xbe5ac748	-0.21365082
216	0xbe54d7ba	-0.20785418
217	0x3e17b417	0.14814793
218	0xbd396fa4	-0.045272484
219	0xbbc25248	-0.005930219
220	0x3ccbbb2f	0.02486953
221	0xbcc1cce7	-0.023657275
222	0xbe6831da	-0.22675267
223	0xbd7bd683	-0.06148387
224	0x3dc4d06a	0.09610064
225	0xbd3661eb	-0.044526976
226	0xbe03173e	-0.12801835
227	0xbd983d9a	-0.074336246
228	0xbd6443b3	-0.055728626
229	0xbd3490f1	-0.04408354
230	0x3e33200c	0.17492694
231	0x3e1ed236	0.15509877
232	0xbce6e481	-0.028185131
233	0x3e58356b	0.21114127
234	0xbe74e617	-0.23915897
235	0x3d6a5aa9	0.057215367
236	0x3c9d81f0	0.019226998
237	0x3dd6bcab	0.10485204
238	0x3d4eba31	0.050470535
239	0x3c88a619	0.016680764
240	0xbc8fabba	-0.01753794
241	0x3e9d4080	0.30713272
242	0x3d2e94c7	0.042622354
243	0xbd8f23f3	-0.06989279
244	0x3e5c9023	0.21539359
245	0x3e6d18a9	0.23153938
246	0x3ca2e0b7	0.019882543
247	0x3d9d3d1c	0.07677671
248	0xbcd2a412	-0.025713
249	0x3d76bd4e	0.06023913
250	0x3d35d022	0.044387944
251	0xbd8d5d31	-0.069025405
252	0xbdbede5d	-0.09319756
253	0xbba37640	-0.0049884617
254	0x3d9c60c4	0.07635644
255	0x3da4d9f0	0.08049381

input_layer.bias f4 [128]
0	0xbe02f2dd	-0.12787957
1	0xbe4491a7	-0.19196187
2	0xbd8755bf	-0.06608152
3	0xbd1a6025	-0.037689347
4	0xbd9e3ba7	-0.077262215
5	0x3df89e47	0.12139564
6	0xbe3ffe8e	-0.18749449
7	0xbe24db6b	-0.16099326
8	0xbe162caf	-0.14665483
9	0xbdd73cc6	-0.105096385
10	0xbe0c10e3	-0.13678317
11	0xbdb69770	-0.08915603
12	0xbe09ea37	-0.13468252
13	0xbe2b1e60	-0.16710806
14	0xbda8f71a	-0.08250256
15	0xbd91b3c5	-0.071143664
16	0x3e21f673	0.15816669
17	0xbe20c9fe	-0.15702054
18	0xbc9fc474	-0.019502856
19	0xbe0d4956	-0.13797507
20	0x3e4888ba	0.19583407
21	0xbe2b6875	-0.16739066
22	0xbe12701a	-0.14300576
23	0x3d27ac92	0.04093606
24	0xbe1154b1	-0.14192463
25	0x3cedf789	0.029048698
26	0xbdcbedd8	-0.099574745
27	0xbdbd6bd4	-0.09249082
28	0xbe4237f0	-0.18966651
29	0xbd799cc5	-0.060940523
30	0xbe147988	-0.14499485
31	0xbd87f1ea	-0.06637938
32	0x3b857a50	0.0040734187
33	0x3e82387a	0.25433713
34	0xbd52c513	-0.051457476
35	0xbdec4805	-0.11537174
36	0xbd2bce64	-0.041944876
37	0xbdf64491	-0.12024797
38	0xbdcbfa3c	-0.09959838
39	0xbe140b61	-0.14457466
40	0xbd20599b	-0.039147954
41	0xbe27c7e1	-0.16384842
42	0xbd8dffa1	-0.06933523
43	0xbd3ef041	-0.046615843
44	0xbe1d9e39	-0.15392388
45	0x3d9cfa77	0.0766496
46	0xbe0d21ad	-0.13782378
47	0x3d208a7e	0.039194576
48	0xbc8930b7	-0.016746862
49	0xbe3503c1	-0.17677213
50	0xbd46bf12	-0.048522063
51	0xbd34ea56	-0.044168793
52	0xbe431c9a	-0.1905388
53	0xbd6946db	-0.05695234
54	0xbb10299e	-0.0021997462
55	0xbdc6d1d0	-0.09707987
56	0xbda8368a	-0.082135275
57	0xbe145bf1	-0.14488198
58	0x3bb9735f	0.0056595053
59	0xbe1795ac	-0.14803189
60	0x3e050490	0.12990022
61	0xbd7bcb53	-0.061473202
62	0xbc4fc7a2	-0.0126818735
63	0xbdfa5f9e	-0.12225269
64	0xbe2ee67e	-0.17080113
65	0xbe0283b7	-0.12745558
66	0xbd577358	-0.052600235
67	0xbdbd9ffb	-0.092590295
68	0xbd303a20	-0.043024182
69	0xbd6e50df	-0.058182593
70	0xbc68ac50	-0.014201239
71	0x3e2c5320	0.16828585
72	0xbdc1d121	-0.09463716
73	0xbe4be607	-0.19911967
74	0x3e81f177	0.25379536
75	0xbd9c5e8d	-0.07635222
76	0xbe4f2149	-0.20227541
77	0xbdce68fd	-0.10078619
78	0xbc5892c1	-0.013218583
79	0xbde510c9	-0.11184842
80	0xbdb93a50	-0.09044325
81	0xbe2e3bd6	-0.17015013
82	0xba20e106	-0.0006137047
83	0x3cd33cb6	0.025785785
84	0xbd088e63	-0.033338916
85	0xbe131527	-0.14363538
86	0xbe156ccb	-0.14592282
87	0xbdb304f9	-0.08741183
88	0xbdbf4135	-0.09338609
89	0xbe068d5b	-0.1313986
90	0xbde43e02	-0.111446396
91	0xbe1eb378	-0.1549815
92	0x3e06310d	0.13104649
93	0xbe17a2e7	-0.14808236
94	0xbd6dbba9	-0.058040295
95	0xbd2a4acf	-0.04157525
96	0x3cc329ea	0.023823697
97	0xbe153e18	-0.14574468
98	0xbe5ad3eb	-0.21369903
99	0xbd997f79	-0.074950166
100	0xbe24d382	-0.16096309
101	0xbdf94845	-0.121719874
102	0xbcfc221b	-0.030777982
103	0xbdc5e245	-0.09662298
104	0xbe605f45	-0.21911342
105	0xbe0cd2bd	-0.13752265
106	0xbe440201	-0.1914139
107	0xbda4bf71	-0.08044327
108	0xbd96840a	-0.07349403
109	0xbb32d94b	-0.0027290161
110	0xbda84190	-0.0821563
111	0xbe1f7279	-0.15571012
112	0xbe4a04c2	-0.19728377
113	0x3d849aff	0.06474876
114	0xbd6e067f	-0.058111664
115	0x3bdf5477	0.006815489
116	0xbdfdf0c6	-0.123994395
117	0xbdff7e53	-0.12475266
118	0xbd6c41bd	-0.05767988
119	0xbda5b4e9	-0.080911465
120	0xbd145d3f	-0.03622174
121	0x3e7d1065	0.24713285
122	0xbc949791	-0.018138679
123	0x3c2f0155	0.01068147
124	0x3e31a84e	0.1734936
125	0xbd9575aa	-0.07297833
126	0xbe57ab22	-0.21061376
127	0xbe61e111	-0.22058512

hidden_1.weight f4 [128, 128]
0	0xbd17084e	-0.036873154
1	0x3a564a10	0.00081744883
2	0x3dd71211	0.10501493
3	0xbd13e1e6	-0.036104105
4	0xbd5a0465	-0.053226847
5	0xbd9c7892	-0.076401845
6	0x3d14f935	0.036370475
7	0xbdadd763	-0.084883474
8	0x3e46523e	0.1936731
9	0xbcd14679	-0.0255463
10	0x3d523838	0.051323146
11	0x3d5668c5	0.05234601
12	0x3dbddfc9	0.09271199
13	0x3d558dcf	0.052137192
14	0xbe0a6bdb	-0.13517706
15	0xbd0f4ee0	-0.03498733
16	0x3dd9e24c	0.10638866
17	0x3ce377ed	0.027767146
18	0x3e5c8599	0.21535338
19	0x3d7f1905	0.06227972
20	0x3dfbf864	0.12303236
21	0x3e2c5c33	0.16832046
22	0x3df92d78	0.121668756
23	0xbd5608b2	-0.052254386
24	0xbd5065fc	-0.05087851
25	0xbd8d70d7	-0.06906288
26	0x3db13345	0.08652357
27	0x3e7e4e6c	0.24834603
28	0x3e4d21bc	0.200324
29	0x3d8d094c	0.06886539
30	0x3e132029	0.14367737
31	0x3e189977	0.14902292
32	0x3d979947	0.07402282
33	0x3e17d2bd	0.14826484
34	0xbd55c4a7	-0.052189495
35	0x3e991f22	0.29906565
36	0xbb5a401b	-0.003330237
37	0xbe2deb5a	-0.16984311
38	0x3d9e403a	0.07727094
39	0x3d58656d	0.052831102
40	0x3d770cf6	0.060315095
41	0x3cc489e4	0.023991533
42	0xbd5ff684	-0.054678455
43	0x3de542c3	0.111943744
44	0xbe614fca	-0.22003093
45	0x3d6de0a9	0.05807558
46	0xbdc61852	-0.096726075
47	0xbded3e54	-0.11584154
48	0x3e1bd45e	0.1521773
49	0xbdc507d3	-0.09620633
50	0xbd9eee36	-0.07760279
51	0xbd212eeb	-0.039351385
52	0xbd9453d3	-0.07242551
53	0x3d9de960	0.077105284
54	0xbd2ac47b	-0.041691285
55	0xbd9d5d33	-0.07683792
56	0x3ae11884	0.0017173444
57	0xbe431b26	-0.19053325
58	0xbe0bec4f	-0.13664363
59	0x3e27b560	0.16377783
60	0x3cba8fa4	0.022773571
61	0x3e5de239	0.21668328
62	0x3d877e02	0.06615831
63	0xbd809e51	-0.062801965
64	0x3e1d00d1	0.15332343
65	0x3cc7fac8	0.024411574
66	0x3daf0f4e	0.08547841
67	0x3e7250c6	0.23663625
68	0x3b25cf8c	0.002530071
69	0xbc734b4a	-0.014849493
70	0x3c201e03	0.00977278
71	0x3ec5aec4	0.38609898
72	0xbc977e96	-0.018492978
73	0xbe168a7c	-0.14701265
74	0x3d3dce6d	0.04633944
75	0x3e7535c0	0.23946285
76	0xbda902ac	-0.08252463
77	0x3d1304ca	0.03589324
78	0x3e3682f7	0.17823397
79	0xbdeee7de	-0.11665319
80	0xbd280528	-0.041020542
81	0xbe25748d	-0.16157742
82	0xbd2e5524	-0.042561665
83	0xbd4fbf28	-0.05071941
84	0x3cf0b4a0	0.029383004
85	0xbd25b078	-0.040451497
86	0x3e2fe75e	0.17178103
87	0xbdb0fcac	-0.08641943
88	0x3e29bb0e	0.16575262
89	0x3a9c79ad	0.0011938118
90	0xbc4a8fcb	-0.0123633845
91	0x3dc0a3a5	0.09406213
92	0x3e92d828	0.2868054
93	0x3dd64b3d	0.10463569
94	0x3c6913eb	0.01422594
95	0x3da016cb	0.078168474
96	0x3e9caaa0	0.30598927
97	0x3d268f76	0.04066416
98	0x3d376967	0.044778254
99	0xbe42234c	-0.18958777
100	0x3ce09a21	0.027417244
101	0x3ca0fcb5	0.01965175
102	0x3e43c2d0	0.19117284
103	0x3c0b387c	0.008497354
104	0x3d7bbdde	0.06146037
105	0x3d9aa1ef	0.07550418
106	0x3d7906ee	0.060797624
107	0x3e289c8c	0.16465968
108	0x3e27c531	0.16383816
109	0x3dcbaa68	0.09944612
110	0xbdb95d2f	-0.090509765
111	0x3d2ad288	0.041704684
112	0xbe3c9a25	-0.18418176
113	0x3d92c2b0	0.0716604
114	0x3dfc62c1	0.12323523
115	0x3e152758	0.1456579
116	0x3dc35ea9	0.09539539
117	0x3d55b8ee	0.052178316
118	0xbe4e4e45	-0.20147045
119	0x3e1ab9db	0.1510996
120	0x3da91e6e	0.08257757
121	0xbdca4fe4	-0.09878519
122	0xbdb7cf59	-0.08975095
123	0xbe1e40e9	-0.15454449
124	0x3ce37d61	0.027769746
125	0xbddc0d33	-0.10744705
126	0x3dc91af1	0.09819592
127	0x3d1464ce	0.036228947
128	0x3b6213a9	0.0034496582
129	0x3d74b477	0.059742417
130	0xbccac36a	-0.024751384
131	0x3ca013f4	0.019540764
132	0xbb39ace8	-0.002833182
133	0xbe1b66a2	-0.1517587
134	0xbd5fe90e	-0.054665618
135	0x3c57d125	0.013172423
136	0xbcd5d6ff	-0.026103495
137	0xbddcd83f	-0.10783433
138	0x3ca5c1c1	0.02023399
139	0xbd9dd92f	-0.0770744
140	0x3d737cc1	0.059445146
141	0xbde4c1fd	-0.11169813
142	0x3da6e970	0.081499934
143	0xbd9169a9	-0.07100231
144	0x3d19b442	0.037525423
145	0x3d063905	0.03276922
146	0xbd31526d	-0.043291498
147	0xba084dc3	-0.00051995757
148	0xbd14d212	-0.03633315
149	0xbd604d7c	-0.054761395
150	0xbcf1ad7d	-0.029501671
151	0x3df13cd2	0.11779179
152	0xbdcf2353	-0.101141594
153	0xbdf570bc	-0.11984393
154	0x3b4ce99f	0.0031267179
155	0xbda6bd2b	-0.0814155
156	0x3c8f0548	0.017458573
157	0xbcb30566	-0.02185316
158	0x3bb4cb3e	0.0055173924
159	0xbdb544aa	-0.08850987
160	0xbe38ab5a	-0.18034115
161	0xbd1420ed	-0.036164213
162	0xbe127770	-0.14303374
163	0xbd8a301b	-0.06747457
164	0x3da5cc50	0.0809561
165	0xbe08df62	-0.13366464
166	0xbdefd323	-0.11710193
167	0xbdaddac2	-0.0848899
168	0xbca13d7d	-0.01968264
169	0xbd15f538	-0.036610812
170	0xbdf0508d	-0.11734114
171	0xbdc1045a	-0.09424658
172	0xbd02f487	-0.03197148
173	0xbdea157a	-0.114298776
174	0xbd772656	-0.060339294
175	0xbdefe019	-0.11712665
176	0xbdca9a26	-0.09892683
177	0x3d8284dd	0.06372998
178	0xbdb7d8b5	-0.089768805
179	0xbdb9e33d	-0.090765454
180	0x3d717cb0	0.058956802
181	0xbdeff1a3	-0.117160104
182	0x3dc1ff1a	0.09472485
183	0x3cf6c813	0.0301247
184	0xbdc9769d	-0.09837077
185	0xbd4e45c8	-0.050359517
186	0xbc1a2dac	-0.009410303
187	0x3c82a16f	0.015946118
188	0xbdd373e9	-0.103248425
189	0xbcfa8ebe	-0.030585643
190	0xbbb5b2a0	-0.0055449754
191	0x3d9264f3	0.07148161
192	0xbe211c8f	-0.1573355
193	0xb9d00353	-0.00039675328
194	0xbdae2ddd	-0.085048415
195	0xbdfeb692	-0.12437166
196	0xbdedf990	-0.11619866
197	0x3db180c2	0.08667137
198	0x3c394124	0.011307035
199	0x3d8f95ac	0.070109695
200	0xbc6a9b53	-0.014319259
201	0xbe1b3c38	-0.1515969
202	0xbdd93f55	-0.10607783
203	0xbd35d91e	-0.044396512
204	0x3c7424d6	0.0149013605
205	0x3c205eec	0.009788256
206	0xbdb2eb58	-0.087362945
207	0xbd6dc1be	-0.058046095
208	0x3cd7d813	0.02634815
209	0xbdfab1c6	-0.12240939
210	0xbde22d0c	-0.11043748
211	0xbcec4add	-0.028844291
212	0xbe167b20	-0.14695406
213	0xbcd04b3b	-0.025426498
214	0xbdd641c3	-0.10461762
215	0xbdcfd990	-0.10148919
216	0x398573fc	0.00025454152
217	0x3dd8efbc	0.10592601
218	0xbe1865e6	-0.14882621
219	0x3c84f35f	0.01622933
220	0xbe154a4f	-0.14579128
221	0x3c29bc0b	0.010359774
222	0xbd22e598	-0.03976974
223	0xbd17183a	-0.03688834
224	0xbdcbb623	-0.09946849
225	0x3cb3df97	0.021957202
226	0x3ccc18c4	0.024914153
227	0xbbb96a54	-0.0056584273
228	0xbd8354aa	-0.06412633
229	0x3c059edd	0.008155552
230	0xbcec9630	-0.028880209
231	0xbba32a4c	-0.0049794074
232	0xbd818beb	-0.06325515
233	0x3cc4fb41	0.024045588
234	0xbcff179b	-0.031139186
235	0xbde23324	-0.110449106
236	0x3d4ad7af	0.0495221
237	0xbde66677	-0.11250012
238	0xbe169b5e	-0.14707705
239	0xbc08af18	-0.008342527
240	0x3c63427b	0.013870831
241	0xbd8c2a63	-0.06844022
242	0xbe32984b	-0.17440908
243	0xbd4dcd6c	-0.050244734
244	0x3c90e93a	0.017689336
245	0xbd3c125e	-0.045915954
246	0xbe39c8ba	-0.18142977
247	0xbd89c014	-0.06726089
248	0xbdff97d8	-0.12480134
249	0xbd490fab	-0.049087208
250	0x3d9481eb	0.072513424
251	0x3d3d228d	0.04617553
252	0xbdb5c129	-0.08874733
253	0xbb959a8b	-0.004565542
254	0xbcec8ee0	-0.028876722
255	0x3cd3c231	0.025849434

hidden_1.bias f4 [128]
0	0x3d88c595	0.06678311
1	0xbd5ac83e	-0.053413622
2	0xbdb62a62	-0.08894803
3	0xbe022ff6	-0.12713608
4	0x3e306d87	0.17229281
5	0xbdba7054	-0.09103456
6	0x3d71f5d9	0.05907235
7	0x3c13dd85	0.009024982
8	0x3d219a3e	0.039453737
9	0xbc042e29	-0.008067646
10	0xbd125121	-0.0357219
11	0xbe2abfe4	-0.16674763
12	0xbcd24a09	-0.025670068
13	0x3e842d99	0.25816038
14	0xbddd5270	-0.10806739
15	0xbd2f411f	-0.042786714
16	0xbd93b560	-0.07212329
17	0x3c558874	0.013033021
18	0xbd376cf9	-0.04478166
19	0x3de417c8	0.111373484
20	0xbdbc9805	-0.09208683
21	0x3d318344	0.043338075
22	0x3d3ab019	0.045578096
23	0x3dfda76f	0.12385451
24	0xbb02df62	-0.0019969572
25	0xbcb45ef6	-0.022017937
26	0x3d2b8ba0	0.041881204
27	0xbc29615c	-0.010338154
28	0xbda320a5	-0.07965211
29	0x3d8f82c6	0.07007365
30	0xbd19b68a	-0.0375276
31	0xbe00c047	-0.12573348
32	0x3ceccbb1	0.028905721
33	0xbdcc0be2	-0.09963204
34	0xbcc94059	-0.024566816
35	0xbe1f37fe	-0.15548703
36	0xbdde23cc	-0.108466715
37	0xbce98564	-0.028505988
38	0x3dc83767	0.09776192
39	0x3db4b2a4	0.088231355
40	0x3cbcd63e	0.023051377
41	0x3d878d58	0.06618756
42	0xbe65bd92	-0.22435597
43	0x3d738485	0.059452552
44	0xbc325211	-0.010883824
45	0xbc7c942a	-0.015416184
46	0x3d44e96e	0.04807418
47	0xbbc15f03	-0.005901219
48	0xbdd7af5d	-0.10531495
49	0xbd114b0e	-0.03547197
50	0xbbe23de3	-0.00690435
51	0xbdb29f3c	-0.08721778
52	0x3e3608c9	0.17776789
53	0x3c9a7739	0.018855678
54	0x3e0a59b6	0.13510785
55	0x3de4c865	0.11171035
56	0x3d017da4	0.03161396
57	0xbe01fc6d	-0.12693949
58	0xbdbeb085	-0.09311012
59	0xbd11d0ca	-0.035599507
60	0xbdc4384d	-0.09581051
61	0xbc2596b7	-0.010106734
62	0xbd4b9310	-0.049700797
63	0x3e7b0b58	0.24516046
64	0xbda8e084	-0.08245948
65	0xbd584488	-0.05279973
66	0xbd52120d	-0.051286746
67	0x3dad9216	0.08475129
68	0x3df53bb5	0.11974279
69	0xbd7a92ec	-0.061175272
70	0x3c890a4a	0.016728539
71	0x3cf8bb95	0.030362884
72	0xbd44637d	-0.047946442
73	0xbdc672b4	-0.09689847
74	0xbcdab7fc	-0.026699059
75	0xbcbe3691	-0.023219379
76	0xbd9a5ffc	-0.07537839
77	0xbd0a9681	-0.033834938
78	0x3e1b3603	0.15157323
79	0xbd98d74b	-0.07462939
80	0x3e160d59	0.14653529
81	0xbcaec9a3	-0.021336382
82	0xbde45687	-0.11149316
83	0xbdb99011	-0.090606816
84	0xbbfe1f3a	-0.0077551873
85	0x3cc51eb8	0.0240625
86	0x3db68354	0.089117676
87	0x3e1d0763	0.15334849
88	0xbd013ed6	-0.031554066
89	0xbd791433	-0.06081028
90	0xbcd3f408	-0.0258732
91	0xbcbb1e07	-0.022841467
92	0x3cbecb68	0.023290351
93	0x3c99b3f5	0.018762568
94	0xbcf1ada6	-0.029501747
95	0x3e09ea55	0.13468297
96	0x3d96abe6	0.07357006
97	0xbcf6dfe4	-0.030136056
98	0xbdce7c22	-0.1008227
99	0x3b6d964a	0.003625291
100	0x3cd0e522	0.025499884
101	0xbce8331c	-0.028344683
102	0xbbc4b5b3	-0.0060031055
103	0x3c60cacd	0.0137202265
104	0xbdfab07f	-0.12240695
105	0x3db69393	0.08914866
106	0x3c2ded96	0.010615727
107	0x3cbdfec2	0.023192767
108	0xbe0df0e7	-0.13861428
109	0xbd163ccd	-0.036679078
110	0xbc986ba8	-0.018606022
111	0x3c3bdd7e	0.011466382
112	0x3dadeba5	0.08492211
113	0xbcd64cc7	-0.026159657
114	0xbc9e26b5	-0.019305566
115	0xbda9459f	-0.08265232
116	0xbe0f69fd	-0.14005275
117	0x3db42a44	0.08797124
118	0x39e79061	0.00044167324
119	0xbc92f72c	-0.017940126
120	0xbdf95835	-0.12175027
121	0xbcf6ce45	-0.030127654
122	0xbda26c47	-0.079308085
123	0xbc48e3ba	-0.0122613255
124	0x3d06b53f	0.032887693
125	0x3b3cb003	0.0028791435
126	0x3d64785e	0.055778854
127	0xbb9bc0b0	-0.0047531947

hidden_2.weight f4 [128, 128]
0	0x3df7b49d	0.12094996
1	0xbd890eb2	-0.06692256
2	0x3d67c4c5	0.05658414
3	0x3d85f659	0.06541128
4	0xbd138ade	-0.036021106
5	0xbea21410	-0.3165593
6	0x3b262188	0.0025349576
7	0xbdf85adb	-0.12126704
8	0xbdd8b926	-0.10582189
9	0x3ec8da5b	0.39229092
10	0x3ec8c275	0.3921086
11	0x3dc73eae	0.09728752
12	0xbe3e859d	-0.18605657
13	0xbe9cb3c4	-0.306059
14	0x3db3958b	0.087687574
15	0xbd900239	-0.07031674
16	0x3d851c7d	0.06499574
17	0xb8a693c7	-7.9430225e-05
18	0x3de56743	0.11201336
19	0xbe6672e7	-0.2250477
20	0xbc28993b	-0.010290439
21	0xb9758732	-0.00023415385
22	0x3e38596b	0.1800286
23	0xbec44cf0	-0.3833995
24	0x3cc4774d	0.023982668
25	0xbe33e0a7	-0.17566167
26	0x3e8bab0f	0.27278945
27	0x3e1b703e	0.15179536
28	0xbe16817b	-0.1469783
29	0x3dfacd28	0.12246162
30	0xbc86caca	-0.01645412
31	0xbcdbac08	-0.02681543
32	0xbae16cde	-0.0017198583
33	0xbd9ff637	-0.07810634
34	0x3e63cb13	0.22245435
35	0x3d9243ee	0.07141863
36	0x3d0dd802	0.03462983
37	0x3d1239e7	0.03569975
38	0x3c453cdf	0.012038439
39	0x3dded6fb	0.10880848
40	0x3d396019	0.04525766
41	0xbcd661bf	-0.026169656
42	0xbe3a4f68	-0.18194354
43	0xbe0fef33	-0.14056091
44	0x3e1ff088	0.15619099
45	0xbe11b9cb	-0.1423103
46	0xbda015dd	-0.0781667
47	0xbc1b9c45	-0.009497707
48	0x3dbe7b89	0.09300906
49	0x3debb1e6	0.11508541
50	0x3e16994e	0.14706919
51	0x3dd76918	0.10518092
52	0x3cf96fd9	0.03044884
53	0x3dbb36fa	0.09141345
54	0xbd864c95	-0.065575756
55	0x3e9513b4	0.29116595
56	0xbdcc3a0e	-0.099720106
57	0xbde79161	-0.11307026
58	0x3dd04d1f	0.1017096
59	0x3dec1dde	0.11529134
60	0x3df91c63	0.121636175
61	0xbd612fe9	-0.05497733
62	0xbc1cb6f3	-0.009565103
63	0xbdbb9679	-0.0915956
64	0x3cfc1908	0.030773655
65	0x3bcbcda9	0.006219585
66	0xbd1315e1	-0.035909537
67	0xbe2a753a	-0.16646281
68	0xbde22a70	-0.110432506
69	0x3c8e68b9	0.01738392
70	0xbe2402cc	-0.16016692
71	0x3d2eeb81	0.042705063
72	0x3bc7ccb1	0.006097399
73	0x3ddb9439	0.107216306
74	0xbd02166e	-0.031759672
75	0xbe379011	-0.1792605
76	0xbd39dcd6	-0.04537662
77	0x3db43c8d	0.08800612
78	0xbbe3c5b2	-0.0069510574
79	0xbce0f72b	-0.027461609
80	0xbe0bb794	-0.13644248
81	0x3dbac863	0.09120252
82	0x3e261284	0.16218
83	0x3c9771a2	0.018486802
84	0xbd2b2582	-0.041783817
85	0xbe389f89	-0.18029608
86	0x3d9272a6	0.07150774
87	0xbdfca7a6	-0.12336664
88	0xbd8dc243	-0.06921818
89	0xbd8d5dd0	-0.06902659
90	0x3b2f272d	0.0026726231
91	0x3e22cb75	0.15897925
92	0x3dd55a8a	0.104176596
93	0xbddcc3d2	-0.10779537
94	0xbc193806	-0.009351736
95	0xbe437b74	-0.19090062
96	0xbe08e928	-0.13370192
97	0xbdf7e985	-0.12105087
98	0xbeac34e7	-0.3363411
99	0xbdb65666	-0.08903198
100	0x3d4c0236	0.049806796
101	0xbcf5f20f	-0.03002265
102	0x3db87d27	0.09008246
103	0xbdaa6f25	-0.083219804
104	0xbd0a58b5	-0.033776004
105	0xbe588fe3	-0.21148638
106	0xbe2e3852	-0.17013672
107	0x3da77454	0.08176485
108	0x3e11c12c	0.14233845
109	0x3cf5a248	0.029984608
110	0x3d58acf7	0.052899327
111	0x3e1bca12	0.15213802
112	0xbd921e80	-0.07134724
113	0xbd1c00f2	-0.03808684
114	0xbe14bb46	-0.14524564
115	0x3bfc886e	0.0077066934
116	0x3d4809ab	0.048837345
117	0xbd28f138	-0.04124567
118	0x3d4840e4	0.04889001
119	0xbd9c69ab	-0.07637342
120	0xbcebb2b9	-0.028771745
121	0x3c303725	0.010755335
122	0xbc8c79ad	-0.017147863
123	0x3da8b9b0	0.08238542
124	0x3d2043f5	0.03912731
125	0x3de4d43e	0.111732945
126	0xbeb37fe3	-0.35058507
127	0xbc798f95	-0.0152319865
128	0xbe037f85	-0.12841614
129	0x3ce1a416	0.027544063
130	0x3dac37d4	0.08409086
131	0x3d3a9580	0.04555273
132	0xbdb9a69d	-0.09064982
133	0x3e3f8155	0.1870168
134	0x3e70ae42	0.23503974
135	0xbdc21204	-0.094760925
136	0x3c742032	0.014900254
137	0xbe8e9dd5	-0.2785479
138	0x3edbc0da	0.42920572
139	0xbdaad610	-0.083416104
140	0xbc957ffe	-0.018249508
141	0xbe2e5efb	-0.1702842
142	0x3e6b6706	0.22988519
143	0x3d2fc500	0.042912483
144	0xbd98d396	-0.07462232
145	0x3d6ab30d	0.057299662
146	0xbd4cfe36	-0.050047122
147	0xbd2014ee	-0.03908246
148	0x3d875e35	0.066097654
149	0xbd521ebf	-0.051298853
150	0xbe1e70f6	-0.15472779
151	0x3d100abf	0.0351665
152	0xbe11eae1	-0.14249755
153	0xbd4a11b8	-0.049333304
154	0x3e48c41e	0.19606063
155	0xbe5a0196	-0.21289667
156	0xbb87bd9c	-0.0041424762
157	0x3d0e3fab	0.034728687
158	0xbd97fdda	-0.07421465
159	0x3d6380c0	0.055542707
160	0x3dab7136	0.08371203
161	0x3babc411	0.005241879
162	0xbd4db60b	-0.050222438
163	0x3d243bc4	0.04009606
164	0xbd95a901	-0.073076256
165	0xbd98700e	-0.07443248
166	0xbe73ce91	-0.23809268
167	0x3d579ac4	0.05263783
168	0xbd474a80	-0.048655033
169	0x3de69b51	0.11260093
170	0xbe3a3101	-0.18182756
171	0xbc1b2b20	-0.009470731
172	0xbdeeb397	-0.11655348
173	0x3dc63e0a	0.09679802
174	0xbd799020	-0.060928464
175	0x3d845201	0.064609535
176	0xbd86398a	-0.065539435
177	0xbdaf78fd	-0.085679986
178	0x3d568ef2	0.052382417
179	0x3cb9ae2a	0.022666056
180	0xbe0e3e47	-0.13890944
181	0xbea84e6c	-0.3287233
182	0xbe9d4f3a	-0.30724508
183	0xbefa1b39	-0.48848894
184	0x3de72370	0.11286056
185	0x3d8a326e	0.067479
186	0xbc74c9aa	-0.014940659
187	0x3caee855	0.021351019
188	0xbddd67c6	-0.10810809
189	0xbda890bf	-0.08230733
190	0x3e0e9c9b	0.13926928
191	0xbcfdb1b2	-0.03096852
192	0x3d3ea79f	0.046546575
193	0x3d8029cd	0.06257973
194	0x3dadc8ff	0.084856026
195	0xbdc52359	-0.09625883
196	0xbe9f5a73	-0.31123695
197	0x3d64d775	0.05586954
198	0x3d5dffb4	0.054198936
199	0xbe4187ed	-0.18899508
200	0xbd3cc7dc	-0.04608904
201	0x3ddd7b38	0.10814518
202	0x3e086b78	0.13322246
203	0x3d9fa126	0.077944085
204	0xbd3f65f8	-0.046728104
205	0x3d683dd4	0.05669959
206	0x3db10ec2	0.08645393
207	0xbc58d6c3	-0.013234797
208	0x3edce174	0.43140757
209	0xbd446898	-0.04795131
210	0xbc256d4a	-0.010096857
211	0xbdae6af2	-0.08516492
212	0x3c29461f	0.01033166
213	0x3e29ac70	0.16569686
214	0xbd5369b8	-0.051614493
215	0xbe046eb0	-0.12932849
216	0xbd0a75ae	-0.033803634
217	0xbd78ead9	-0.060770843
218	0xbcf4fe10	-0.029906303
219	0xbe08944b	-0.1333782
220	0xbbc0006b	-0.005859425
221	0x3d895953	0.0670649
222	0x3d085617	0.033285227
223	0xbe928f16	-0.2862479
224	0x3c703470	0.01466094
225	0xbcfa407a	-0.030548323
226	0xbd0017ba	-0.031272627
227	0xbe61caa3	-0.22049956
228	0xbd17d99b	-0.03707276
229	0xbe1809d3	-0.14847498
230	0x3d29b60f	0.04143339
231	0xbd8e13a0	-0.06937337
232	0x3d9866bf	0.07441472
233	0x3d6a84a3	0.0572554
234	0xbe140673	-0.14455585
235	0x3c2b8115	0.010467787
236	0x3bc49734	0.00599947
237	0x3e3bd1d9	0.1834177
238	0xbe58980b	-0.2115175
239	0xbe4aa28b	-0.19788568
240	0x3d985a4b	0.07439097
241	0x3d9b5efc	0.07586476
242	0x3d51a7b2	0.051185317
243	0x3cc91f7a	0.024551142
244	0xbd204933	-0.03913231
245	0xbdf898ef	-0.12138545
246	0xbda0d5af	-0.07853257
247	0x3d9f4612	0.07777037
248	0xbcbaddbb	-0.022810807
249	0x3d703aa4	0.058649674
250	0xbd507fe6	-0.050903223
251	0x3b1f9a5b	0.0024353478
252	0x3dac5141	0.084139355
253	0x3c6a52d3	0.014301973
254	0x3e312355	0.17298634
255	0xbda3f8ba	-0.08006425

hidden_2.bias f4 [128]
0	0xbd7de936	-0.061989985
1	0xbd8d877b	-0.069106065
2	0x3cecb96a	0.028897006
3	0x3d3fba3b	0.046808463
4	0x3d75d232	0.06001491
5	0xbdf6321d	-0.12021277
6	0x3c831cd7	0.016004963
7	0x3dd9a5eb	0.106273495
8	0xbd8fcbc4	-0.07021287
9	0xbcc77942	-0.024349812
10	0x3da02edf	0.0782144
11	0x3df52f93	0.11971965
12	0x3daa2543	0.08307888
13	0x3caf54c2	0.02140272
14	0xbca20034	-0.019775487
15	0xbe0fec29	-0.14054932
16	0x3e2a616f	0.1663873
17	0xbe0789e3	-0.13236193
18	0x3da7c388	0.081915915
19	0xbd596cd8	-0.053082317
20	0xbe115c7b	-0.14195435
21	0x3df9d7da	0.121993735
22	0xbdaaf879	-0.08348174
23	0x3c8e12a4	0.017342873
24	0x3de711f3	0.112827204
25	0xbd4133f2	-0.04716868
26	0xbdacc81a	-0.08436604
27	0xbcb27faa	-0.02178939
28	0xbde18cd0	-0.11013186
29	0x3dcd5715	0.10026375
30	0xbd874d4c	-0.0660654
31	0xbd3423fe	-0.043979637
32	0xbc9ca72c	-0.019122683
33	0x3e8c275e	0.27373785
34	0xbda71d66	-0.08159904
35	0xbc427aec	-0.011870127
36	0x3d3a9ee7	0.045561697
37	0x3dac1dc8	0.08404118
38	0xbde2f674	-0.110821635
39	0x3cb27387	0.021783603
40	0xbd9537f8	-0.07286066
41	0xbdbfc583	-0.09363844
42	0xbe2ddce6	-0.16978797
43	0xbc86ea92	-0.016469274
44	0xbd695feb	-0.05697624
45	0x3d7ef081	0.06224108
46	0xbd7e246a	-0.062046446
47	0x3c913721	0.017726483
48	0x3d4b3514	0.049611166
49	0xbd342ddb	-0.043989044
50	0xbd1c8eac	-0.038222
51	0xbdc94fd3	-0.098296784
52	0xbc8191e2	-0.015816633
53	0xbdce2a96	-0.100667164
54	0xbdd356a7	-0.10319262
55	0xbe131499	-0.14363326
56	0xbd666df3	-0.0562572
57	0xbd90a5d0	-0.07062876
58	0x3b85611d	0.0040704147
59	0xbe299771	-0.16561677
60	0x3e19a620	0.15004778
61	0xbd56c93b	-0.052438002
62	0x3d1f07f7	0.038825955
63	0xbe0c1539	-0.13679971
64	0x3d67c759	0.056586597
65	0x3dee50ca	0.11636503
66	0xbd68b21a	-0.056810476
67	0xbc6c4a9f	-0.014422088
68	0x3d349dc9	0.04409579
69	0x3cdb56c1	0.026774766
70	0x3de784f9	0.113046594
71	0x3e025a3f	0.12729739
72	0x3c587066	0.013210392
73	0xbe1079b8	-0.14108932
74	0xbd5083e9	-0.05090705
75	0x3d707fe2	0.05871571
76	0xbd568ae9	-0.05237857
77	0xbcd61ef9	-0.026137816
78	0xbe04de9b	-0.12975542
79	0xbd55f41b	-0.05223475
80	0xbe17c75e	-0.14822146
81	0xbe982bdb	-0.2972096
82	0x3da43a57	0.0801894
83	0xbd6f19d8	-0.058374256
84	0xbddb7e7a	-0.10717483
85	0x3e06a0ac	0.13147229
86	0x3d277407	0.040882137
87	0x3df65c3d	0.12029312
88	0x3d8c9f1a	0.06866284
89	0x3c379ea0	0.011207253
90	0xbdfe1c16	-0.12407701
91	0x3d1f12cc	0.038836285
92	0xbe01b2f4	-0.12665921
93	0xbaf11c82	-0.0018395337
94	0x3d9bd662	0.0760925
95	0xbe0d0b50	-0.13773847
96	0xbd97478e	-0.07386695
97	0xbc2d7d43	-0.010588947
98	0x3c777da0	0.015105635
99	0xbde57a75	-0.112049975
100	0xbd176f7d	-0.036971558
101	0xbd9fd474	-0.07804194
102	0xbe16b3e0	-0.14717054
103	0xbd3e220a	-0.04641918
104	0xbdaff367	-0.08591347
105	0x3df04741	0.117323406
106	0x3c741e75	0.01489984
107	0xbce89222	-0.028389994
108	0x3ca815f5	0.020518282
109	0x3d498498	0.049198717
110	0x3d3170ff	0.043320652
111	0x3d353df7	0.044248547
112	0xbc6591ac	-0.014011782
113	0x3d17f92b	0.03710286
114	0x3b829e99	0.0039861915
115	0xbd05b403	-0.032642376
116	0xbd4b1f72	-0.049590535
117	0x3def4a74	0.11684123
118	0xbd72d9ab	-0.059289616
119	0xbdb6445c	-0.08899757
120	0xbda78767	-0.08180123
121	0xbcbd575d	-0.023112947
122	0x3caec2f7	0.0213332
123	0xbdc0d158	-0.09414929
124	0xbdfb0527	-0.12256842
125	0x3bd50f43	0.0065020635
126	0xbd27b942	-0.04094816
127	0x3dba0552	0.09083046

hidden_3.weight f4 [128, 128]
0	0xbd9cad9f	-0.07650303
1	0xbc09ad17	-0.008403084
2	0x3b076cec	0.0020664288
3	0xbc10ae49	-0.008830615
4	0xbc9efe3e	-0.019408341
5	0xbd2848aa	-0.041084923
6	0x3cc3e373	0.023912167
7	0xbd9fd88e	-0.078049764
8	0xbcdce02f	-0.026962368
9	0xbd41fa7c	-0.04735802
10	0xbbfcc66b	-0.007714083
11	0xbd7ab435	-0.061207015
12	0xbdb02d12	-0.086023465
13	0x3d691fbd	0.056915034
14	0xbd26dc96	-0.04073771
15	0xbde0b889	-0.10972697
16	0xbdc3d056	-0.09561221
17	0x3ce04bf0	0.02737996
18	0xbd6e06dc	-0.05811201
19	0x3c504a4f	0.012713029
20	0xbd4e783a	-0.050407626
21	0x3d9c4220	0.076298
22	0xbd81b6cc	-0.06333694
23	0xbbb5d800	-0.005549431
24	0x3d7626bf	0.060095545
25	0xbd63914a	-0.05555848
26	0xbbcc8e48	-0.006242547
27	0xbbe03be0	-0.006843075
28	0xbd972e3b	-0.07381865
29	0x3cb83407	0.022485746
30	0xbd0a1fa9	-0.0337216
31	0x3b36e084	0.0027904818
32	0x3d3614ff	0.044453617
33	0x3d6a57c4	0.057212606
34	0xbd0cc341	-0.034365896
35	0xbd6a276a	-0.057166494
36	0xbde2be77	-0.110714845
37	0x3cfab09d	0.030601794
38	0xbde82851	-0.11335815
39	0xbd803164	-0.062594205
40	0xba4797d1	-0.000761387
41	0xb9439252	-0.00018651158
42	0xbcb9ab0c	-0.02266457
43	0xbbcdd399	-0.006281328
44	0xbd8f0127	-0.06982642
45	0xbcbf6227	-0.023362232
46	0x3a82726c	0.0009952313
47	0x3c14f2e6	0.009091115
48	0xbd460046	-0.048340105
49	0xbd8c1179	-0.0683927
50	0x3d80a5ad	0.062816
51	0xbd7812ea	-0.060564913
52	0x3c811048	0.015754834
53	0xbd59c705	-0.053168315
54	0x3d385063	0.044998538
55	0x3c1d2798	0.009591959
56	0xbc7c9e7e	-0.015418647
57	0x3cba6662	0.022753898
58	0xbd6cc605	-0.057806034
59	0xbd541b2f	-0.051783737
60	0xbcb1a977	-0.021687252
61	0xbd862999	-0.06550903
62	0x3d64e53f	0.05588269
63	0xbdd20693	-0.1025516
64	0x3b8a40c6	0.0042191474
65	0xbd03a9e6	-0.03214445
66	0xbd8c19eb	-0.06840881
67	0xbd04b72f	-0.03240126
68	0x3cc02366	0.02345438
69	0xbcd69a90	-0.026196748
70	0xbe02f0ec	-0.12787217
71	0xbd8891d7	-0.06668442
72	0x3cba38ef	0.022732226
73	0x3d50a11e	0.050934903
74	0x3caf957a	0.02143358
75	0xbd960b16	-0.07326333
76	0x3cc00d24	0.023443766
77	0xbdcbbe9f	-0.099484675
78	0x3beafe8a	0.0071714567
79	0x3d84f37a	0.06491752
80	0xbd5d1cfa	-0.053982712
81	0x3c31bc9d	0.010848192
82	0x3cf7aaa4	0.030232735
83	0xbc024913	-0.007951993
84	0xbd8d6485	-0.06903938
85	0x3d889897	0.06669729
86	0xbd948d52	-0.07253517
87	0xbe12e31f	-0.14344452
88	0xbe175f34	-0.14782411
89	0xbd9bd04b	-0.07608088
90	0xbdbcad50	-0.09212744
91	0xbd5d82b3	-0.054079723
92	0xbd6c1248	-0.05763462
93	0x3cdc98d7	0.026928348
94	0xbd089caa	-0.03335253
95	0xbca9af89	-0.020713584
96	0x3cd72333	0.026261901
97	0xbd1b4f03	-0.03791715
98	0xbd62b272	-0.05534596
99	0x3d132961	0.035928134
100	0xbd27341d	-0.040821183
101	0xbad30fce	-0.0016102733
102	0xbd388cfa	-0.04505632
103	0xbd1d24ad	-0.038365055
104	0x392e35c8	0.00016613968
105	0x3c9402f9	0.018067824
106	0x3cbfb2dc	0.023400716
107	0x38861400	6.393343e-05
108	0xbbace87c	-0.0052767377
109	0xbcd45da2	-0.025923554
110	0x3cc3cb16	0.02390055
111	0xbd7a9745	-0.061179418
112	0xbd157d75	-0.0364966
113	0xbcffcd46	-0.031225812
114	0xbe1f521a	-0.15558663
115	0xbd57cda6	-0.052686356
116	0x3d84a5c3	0.06476929
117	0xbd67ca69	-0.056589518
118	0xbd6de210	-0.058076918
119	0x3d9c93f9	0.07645411
120	0x3d565d3c	0.05233501
121	0xbd7bf2e9	-0.061510954
122	0x3cb09386	0.02155472
123	0xbc7f31ba	-0.015575821
124	0xbc3bf4ad	-0.0114719095
125	0xbd88fe8d	-0.06689177
126	0xbc2c9bdf	-0.010535209
127	0x3d1fa2cf	0.038973626
128	0xbdd231f5	-0.10263435
129	0xbe5ad172	-0.2136896
130	0xbcaef941	-0.021359088
131	0xbd60bc05	-0.05486681
132	0xbdb26a17	-0.08711641
133	0xbe297ab9	-0.16550721
134	0xbe38cbce	-0.18046495
135	0xbea1241f	-0.3147287
136	0x3e403a63	0.18772273
137	0xbdbd56ab	-0.09245046
138	0xbc7e58d0	-0.015524104
139	0xbd253b4e	-0.04033976
140	0x3d124283	0.03570796
141	0xbd28f1b8	-0.041246146
142	0xbc7b0009	-0.015319833
143	0xbd90c659	-0.07069082
144	0xbd2a4488	-0.041569263
145	0xbc9fcde9	-0.019507365
146	0x3e518356	0.20460257
147	0x3e03edfe	0.12883756
148	0xbdb5e64b	-0.088818155
149	0xbd947206	-0.07248311
150	0x3d7237da	0.059135295
151	0xbb10d9ca	-0.0022102469
152	0xbdc67afb	-0.096914254
153	0xbdaee819	-0.08540363
154	0x3e034866	0.12820587
155	0x3b1439c0	0.002261743
156	0xbb3bc58e	-0.0028651687
157	0x3d864662	0.06556393
158	0x3de22c23	0.11043575
159	0xbe4dd924	-0.20102364
160	0x39a21047	0.00030911175
161	0xbe28ad23	-0.16472296
162	0xbe2e22da	-0.17005482
163	0x3d0b0588	0.033940822
164	0x3d85b298	0.06528205
165	0xbe1e3d78	-0.15453136
166	0x3cd129e9	0.02553268
167	0xbdac4ff2	-0.08413686
168	0x3d7eceb4	0.062208846
169	0x3d5d80cc	0.05407791
170	0x3e1c96fe	0.15291974
171	0xbdf9890e	-0.12184344
172	0x3d316db3	0.043317508
173	0xbd30f897	-0.043205824
174	0xbdeea76f	-0.11653029
175	0x3e0448fe	0.1291847
176	0xbc6e77cf	-0.014554932
177	0xbd54fea9	-0.052000675
178	0x3db26dae	0.08712326
179	0xbc44268b	-0.01197208
180	0x3d531f5a	0.05154357
181	0xbe192cb6	-0.14958462
182	0xbd1d1b0b	-0.03835587
183	0x3d247954	0.04015477
184	0xbbaaf799	-0.005217504
185	0xbe51879d	-0.20461889
186	0x3c5b601d	0.013389614
187	0xbd8f109a	-0.06985588
188	0xbdf63831	-0.120224364
189	0x3a4b727c	0.0007760895
190	0x3c0dbb6f	0.008650645
191	0xbe52a6f7	-0.20571505
192	0x3e27fbda	0.16404667
193	0x3e0b8a4a	0.13626972
194	0xbd2c8d80	-0.042127132
195	0xbd0cf6e6	-0.03441515
196	0xbd129f91	-0.035796706
197	0xbce397b6	-0.027782302
198	0xbe1fa81b	-0.15591471
199	0x3efb0e56	0.49034375
200	0x3d7ab804	0.061210647
201	0xbd97d71e	-0.07414077
202	0x3d2b928f	0.041887816
203	0x3d9d41c5	0.0767856
204	0xbc51c485	-0.012803202
205	0xbdd8c877	-0.10585111
206	0x3d8b29da	0.06795092
207	0xbd614351	-0.05499584
208	0x3d8bed26	0.06832342
209	0x3c422e09	0.011851796
210	0xbe19a313	-0.15003614
211	0xbd27aef8	-0.040938348
212	0xbe8061c3	-0.25074586
213	0x3dd910e5	0.105989255
214	0x3cea4bfb	0.028600683
215	0x3df1e171	0.11810578
216	0xbb92227d	-0.0044596777
217	0x3c399978	0.011328094
218	0x3d48b3ca	0.048999585
219	0x3e29952c	0.16560811
220	0x3d6807fa	0.056648232
221	0xbc4eb60f	-0.012616648
222	0x3d23c54b	0.039983075
223	0xbe592d7e	-0.2120876
224	0xbd3ace2f	-0.04560679
225	0x3dc54add	0.0963342
226	0xbdd957a3	-0.106124185
227	0xbe7708a5	-0.24124391
228	0xbd9bac85	-0.07601265
229	0x3da62fb1	0.08114565
230	0x3c431be2	0.011908503
231	0x3ccd3354	0.02504889
232	0xbea7919b	-0.32728276
233	0xbdf54f09	-0.119779654
234	0xbba06f24	-0.0048960615
235	0x3c59f93f	0.013304054
236	0x3e783134	0.2423752
237	0xbd4b7476	-0.049671613
238	0xbc5a64f7	-0.013329736
239	0xbd639e17	-0.055570688
240	0xbdde375b	-0.10850402
241	0x3d1de95e	0.038552634
242	0x3d8cbdd6	0.06872146
243	0x3d9b7df5	0.07592384
244	0x3d621f41	0.055205587
245	0xbe008125	-0.12549265
246	0xbd733e31	-0.059385482
247	0xbb7527c7	-0.0037407742
248	0x3dfcc6df	0.12342619
249	0xbd8a61fb	-0.067569695
250	0xbe2bc92f	-0.16775964
251	0x3da79056	0.08181827
252	0xbe1b9252	-0.15192536
253	0x3b6f681e	0.0036530565
254	0x3db68b9c	0.08913347
255	0xbda7a680	-0.08186054

hidden_3.bias f4 [128]
0	0xbe56024d	-0.20899315
1	0x3c87c09e	0.01657134
2	0xbe06fbc8	-0.13181984
3	0xbd7c0a02	-0.06153298
4	0xbd8ec419	-0.069709964
5	0xbc9a1b3a	-0.01881181
6	0xbd887b24	-0.06664112
7	0x3d6e02d9	0.058108184
8	0x3de48c88	0.11159617
9	0xbe2de452	-0.16981629
10	0x3cfec499	0.031099604
11	0xbc242c5e	-0.010020344
12	0xbdd1c7de	-0.102432
13	0xbe0e3423	-0.13887076
14	0xbdf10564	-0.11768606
15	0xbcb2efff	-0.021842955
16	0xbdb27d14	-0.08715263
17	0x3d3cde72	0.046110578
18	0xbd1074a4	-0.035267487
19	0x3e25cb3b	0.16190808
20	0x3b80127d	0.003908454
21	0xbe52ea8b	-0.20597284
22	0x3d81da0b	0.063404165
23	0xbbc6e5e1	-0.006069884
24	0xbdb015c2	-0.085979
25	0xbd9e0fcd	-0.077178575
26	0xbd86bdf5	-0.065792
27	0xbe468b7b	-0.19389145
28	0x3dc3022a	0.09521897
29	0x3d557971	0.05211777
30	0xbdae9217	-0.08523958
31	0xbe26a6a3	-0.16274504
32	0xbe22a935	-0.1588486
33	0x3e098955	0.13431294
34	0x3d8f1dd1	0.06988109
35	0x3db0c1f6	0.08630745
36	0xbd9de586	-0.07709794
37	0xbd1a4f66	-0.037673377
38	0xbe19ce27	-0.15020047
39	0x3c8335f7	0.016016943
40	0x3e048bac	0.12943906
41	0xbce54877	-0.027988655
42	0xbe03ac0b	-0.12858598
43	0x3de9d463	0.11417463
44	0xbbb6741f	-0.005568042
45	0xbdc13768	-0.09434396
46	0xbc03abdc	-0.00803658
47	0xbd85c321	-0.065313585
48	0x3ba2c587	0.0049673948
49	0xbdf391f3	-0.11893072
50	0x3e0327f2	0.12808207
51	0x3d90fb14	0.07079139
52	0xbd54b857	-0.051933613
53	0xb929cc12	-0.00016193118
54	0xbd8d5388	-0.06900698
55	0xbb8f72de	-0.004377707
56	0xbe42f6a2	-0.19039395
57	0xbd4d0133	-0.05004997
58	0xbe01d35f	-0.12678288
59	0x3d7b2849	0.061317716
60	0xbd957da2	-0.07299353
61	0x3d9367a8	0.07197505
62	0x3d11038c	0.035403773
63	0xbd1d49cf	-0.038400467
64	0x3d2e739a	0.042590715
65	0xbb8f7db7	-0.004379
66	0xbbac0938	-0.0052501224
67	0xbc98a12f	-0.018631546
68	0xbd87da6a	-0.06633456
69	0x3e0fab64	0.14030224
70	0x3e22bd8e	0.15892622
71	0x3d054564	0.03253688
72	0x3d3b1976	0.04567858
73	0xbd2fd5ea	-0.042928614
74	0xbe46b644	-0.19405466
75	0x3d79dac9	0.060999665
76	0xbde3e6e6	-0.11128025
77	0xbd6a59d6	-0.05721458
78	0xbddfb6ee	-0.10923563
79	0xbca93960	-0.020657241
80	0xbd9d4508	-0.07679182
81	0x3dcad511	0.099039204
82	0x3c510fa3	0.012760076
83	0x3d0f7b19	0.035029504
84	0x3d9d4f10	0.076810956
85	0xbcb144b0	-0.021639198
86	0x3dae0ea0	0.08498883
87	0xbd810628	-0.06300002
88	0xba826fc1	-0.0009951518
89	0x3a38b305	0.0007045719
90	0x3d11f664	0.035635367
91	0xbddb76ec	-0.10716042
92	0x3dfeb898	0.12437552
93	0xbdb94b0b	-0.090475164
94	0x3d8346e9	0.064100094
95	0xbda74c19	-0.08168811
96	0x3cfae52a	0.030626852
97	0xbd707993	-0.058709692
98	0x3c2fd1e8	0.010731198
99	0x3d9f0b0a	0.077657774
100	0x3b53bda3	0.0032309077
101	0xbc4e84d3	-0.01260491
102	0xbda5b04d	-0.08090267
103	0x3d0926d5	0.0334843
104	0xbe6675ae	-0.22505829
105	0xbd24243f	-0.04007363
106	0xbd305061	-0.043045405
107	0xbe453641	-0.19258977
108	0x3c8eb5ba	0.017420638
109	0xbda1587d	-0.07878206
110	0x3d9d2191	0.07672418
111	0xb9dc5c63	-0.00042030503
112	0xbd962126	-0.07330541
113	0x3d7d83da	0.06189332
114	0xbcf58e06	-0.029974949
115	0xbc1c31d0	-0.009533361
116	0xbd7cf5e2	-0.06175793
117	0x3d0ebe7b	0.034849625
118	0xbc098ed5	-0.00839587
119	0xbd2a114b	-0.041520398
120	0xbbb06a91	-0.0053837975
121	0xbd8678c3	-0.06566002
122	0xbc836826	-0.016040873
123	0x3cd4b95a	0.025967289
124	0x3b980722	0.004639522
125	0xbdade3f2	-0.08490743
126	0xbd254ab8	-0.04035446
127	0xbc90b903	-0.017666345

output_layer.weight f4 [5, 128]
0	0xbe023081	-0.12713815
1	0x3d35a00e	0.044342093
2	0xbb6fbcad	-0.0036580965
3	0x3d5640f8	0.052308053
4	0xbc999ac4	-0.018750556
5	0x3e0003f9	0.12501515
6	0x3db354db	0.08756419
7	0x3d19332f	0.037402328
8	0x3d24fe92	0.04028184
9	0x3d35ad4e	0.04435473
10	0xbc52c7f5	-0.012865056
11	0x3e6a4d36	0.22881016
12	0x3e1e0c44	0.15434366
13	0xbe158247	-0.14600478
14	0x3d1b37cb	0.037895005
15	0x3d9cfd16	0.0766546
16	0x3e1cc0dd	0.15307947
17	0xbdbbe48e	-0.09174453
18	0x3da74dd3	0.08169141
19	0x3d2bc673	0.041937303
20	0xbd14835b	-0.036258083
21	0xbcb4b295	-0.02205781
22	0x3d271818	0.040794462
23	0x3d2410fd	0.040055264
24	0x3e0cc224	0.13745934
25	0xbbd91e05	-0.006625893
26	0x3c85d834	0.016338445
27	0x3bfc30fc	0.007696269
28	0x3d72efae	0.059310608
29	0x3e1f870b	0.15578859
30	0x3e1e204b	0.15442006
31	0x3d91203b	0.070862256
32	0x3d186622	0.037206776
33	0xbe28c473	-0.1648119
34	0x3d1caff9	0.038253758
35	0x3d49604d	0.049164105
36	0xba31b1a3	-0.0006778484
37	0x3b9d7788	0.004805509
38	0xbd9cc7b7	-0.0765528
39	0x3de970af	0.11398446
40	0x3bf1cb12	0.007378944
41	0x3d803d3d	0.0626168
42	0xbe045601	-0.12923433
43	0x3b6308e5	0.0034642753
44	0xbd3117f7	-0.043235745
45	0x3d7168aa	0.058937706
46	0x3c93204c	0.017959736
47	0xbc7878f5	-0.015165557
48	0x3d197072	0.03746075
49	0xb9902606	-0.0002749415
50	0x3d4d7602	0.05016137
51	0x3d84fa1d	0.06493018
52	0x3e0941e7	0.13404046
53	0x3cf0fffd	0.02941894
54	0x3e4f2cca	0.2023193
55	0x3cb2845c	0.02179163
56	0xbd588ec5	-0.05287053
57	0x3c007225	0.007839714
58	0x3d95ab2d	0.0730804
59	0x3df88313	0.121343754
60	0x3d9930db	0.074800216
61	0x3e1cc133	0.15308075
62	0x3d22a4c3	0.03970791
63	0x3c4220b3	0.011848616
64	0x3dc65f5e	0.096861586
65	0xbdb2b89d	-0.087266184
66	0x3dbc4171	0.091921695
67	0x3db58b3c	0.088644475
68	0xbe16bb85	-0.1471997
69	0x3dd04fca	0.101714686
70	0x3e77cf0a	0.24200073
71	0xbcb8e59f	-0.02257043
72	0x3e56abe1	0.20964004
73	0xbcfbdd43	-0.030745154
74	0x3dba5d53	0.090998314
75	0x3bdc30c9	0.006719683
76	0x3e472aae	0.19449875
77	0x3e0bbe97	0.13646923
78	0x3dd2ff3d	0.10302589
79	0x3e0b9a60	0.13633108
80	0x3d946b93	0.07247081
81	0x3bfe3492	0.0077577317
82	0x3e0c4636	0.13698658
83	0xbc749ef0	-0.014930472
84	0x3d9fc371	0.07800949
85	0x3c338002	0.010955812
86	0x3dd4b091	0.1038524
87	0x3e016c60	0.12638998
88	0x3d729cbf	0.059231516
89	0xbe16fc36	-0.14744648
90	0x3d794775	0.060859162
91	0x3d803947	0.06260925
92	0x3dbbc2f7	0.09168046
93	0xbde732a3	-0.11288955
94	0xbca948be	-0.020664569
95	0xbdc8d0ae	-0.098054275
96	0x3dad91d9	0.08475084
97	0x3e3ca168	0.18420947
98	0x3d031e5c	0.032011375
99	0x3eb85f83	0.3601037
100	0xbc03c2ce	-0.0080420505
101	0x3cfa2e79	0.030539738
102	0xbd93f71a	-0.07224865
103	0xbc75cb02	-0.015002014
104	0xbe62c37b	-0.22144882
105	0xbce674c5	-0.028131852
106	0xbdb82d6b	-0.08993038
107	0x3e4f340e	0.20234701
108	0x3df3ed57	0.11910503
109	0x3c97d429	0.018533783
110	0xbdbaecc7	-0.09127193
111	0x3d8e255c	0.069407195
112	0x3a53ca25	0.0008079133
113	0xbe080f08	-0.13286984
114	0x3d952c55	0.07283846
115	0xbc86bf6e	-0.016448703
116	0x3d1d610a	0.03842262
117	0xbcea13f9	-0.028573977
118	0x3e2d71f5	0.16938002
119	0x3db1d102	0.08682443
120	0xbdad67b1	-0.08467043
121	0x3afa35cd	0.001908952
122	0x3d35b2f2	0.04436011
123	0xbe0abed9	-0.13549365
124	0x3e118c24	0.14213616
125	0x3dcf2be6	0.10115795
126	0xbd6fed1f	-0.058575746
127	0xbddec939	-0.10878224
128	0x3db5eaed	0.08882699
129	0xbcfa78e5	-0.030575225
130	0x3d95453c	0.07288596
131	0x3e5cd3c9	0.21565165
132	0x3e0ed4c5	0.13948353
133	0xbe201e94	-0.15636665
134	0x3a6b5321	0.0008976926
135	0xbda589de	-0.08082937
136	0xbddf1e16	-0.1089441
137	0x3d037a74	0.032099202
138	0x3e258839	0.16165246
139	0xbe91e273	-0.2849308
140	0xbd68ed7a	-0.0568671
141	0x3cf429a3	0.02980501
142	0x3c981425	0.018564293
143	0xbe39e2dc	-0.18152946
144	0xbdb71a6b	-0.08940586
145	0xbd69100a	-0.05690006
146	0xbe4ba397	-0.19886623
147	0x3dc98ced	0.098413326
148	0xbd996bdd	-0.074912764
149	0x3dddd5b1	0.10831774
150	0xbe4001ed	-0.18750735
151	0xbde03789	-0.109480925
152	0xbdc43028	-0.095794976
153	0x3b9135fb	0.004431484
154	0xbd043f15	-0.032286722
155	0xbd0fc85d	-0.03510319
156	0xbe09b6b8	-0.13448608
157	0x3d4e9fc6	0.05044534
158	0x3d5842cc	0.052798077
159	0x3c1724cb	0.009225081
160	0x3d8cebcf	0.068809144
161	0x3e15b777	0.14620768
162	0xbd4f1be8	-0.050563723
163	0xbe0869a7	-0.13321553
164	0x3d5f04ab	0.05444781
165	0x3d356344	0.04428412
166	0xbe218788	-0.15774357
167	0xbe14b66b	-0.14522712
168	0xbe20c148	-0.15698731
169	0xbd717652	-0.05895073
170	0x3e4d767b	0.20064728
171	0xbe7a15a3	-0.24422316
172	0x3e05677d	0.13027759
173	0xbc92675a	-0.017871547
174	0xbe4e7105	-0.20160301
175	0x3cb09de5	0.021559665
176	0xbd78a62a	-0.06070534
177	0xbe0e3857	-0.1388868
178	0xbe35c304	-0.17750174
179	0x3e33eb96	0.17570338
180	0x3d8d87be	0.069106564
181	0x3e21b1ad	0.15790434
182	0x3e87c786	0.26519412
183	0xbdb90203	-0.09033587
184	0x3d33929a	0.043840982
185	0x3b93f507	0.0045152935
186	0xbbf3cba1	-0.007440046
187	0x3e6d2c73	0.23161487
188	0x3e4ead6e	0.20183346
189	0xbd1cad52	-0.03825123
190	0xbdc52897	-0.096268825
191	0xbcafd818	-0.021465346
192	0xbe61d67c	-0.22054476
193	0x3ca6a656	0.020342987
194	0xbe08bda4	-0.13353592
195	0xbe2b82e5	-0.16749151
196	0xbe00e1b1	-0.12586094
197	0xbddb211e	-0.10699676
198	0x3cba3d28	0.02273424
199	0x3e22a7b2	0.15884283
200	0xbd64dfc5	-0.055877466
201	0x3cb8e7eb	0.022571525
202	0x3da470d8	0.08029336
203	0x3e44d813	0.19223051
204	0xbde38221	-0.111088045
205	0x3d015b08	0.031580955
206	0x3e19249d	0.14955373
207	0xbc213b4e	-0.0098407995
208	0x3c9c2bbf	0.019063829
209	0x3c58961d	0.013219384
210	0x3cc363fb	0.023851385
211	0x3e3d1a46	0.18467054
212	0x3e233e95	0.15941842
213	0xbe2f3db9	-0.17113389
214	0xbdc295ad	-0.09501205
215	0xbdad54a0	-0.084634066
216	0xbdf8fdae	-0.121577606
217	0xbea6a713	-0.32549343
218	0xbe2323e6	-0.15931663
219	0x3d3d52ac	0.04622142
220	0xbe77bde5	-0.24193533
221	0xbd9626fe	-0.07331656
222	0xbe7f3c25	-0.24925287
223	0xbe163266	-0.14667663
224	0xbe5fc9fe	-0.21854398
225	0x3d4388a6	0.04773774
226	0x3ca6e5c8	0.02037324
227	0x3dd4f349	0.103979655
228	0xbe1a2196	-0.15051875
229	0x3e2d5850	0.1692822
230	0xbe0987a9	-0.13430656
231	0x3e500050	0.20312619
232	0x3d90eddb	0.07076617
233	0x3dc9939e	0.09842609
234	0xbdb9e898	-0.09077567
235	0x3d9f6d6d	0.07784543
236	0x3e0eda6e	0.13950512
237	0x3ccd0b66	0.02502985
238	0x3e2bcbff	0.16777037
239	0xbe57852c	-0.21046895
240	0x3c4725cd	0.0121550085
241	0xbdaa5e99	-0.08318824
242	0x3d6a91c3	0.057267915
243	0x3d10b30c	0.035327002
244	0xbe0dc8a4	-0.1384607
245	0x3deaec6a	0.11470874
246	0xbe3299aa	-0.1744143
247	0x3e5adae2	0.2137256
248	0xbdee1edc	-0.1162698
249	0x3d99cbda	0.07509585
250	0x3e222802	0.15835574
251	0xbdb3acfc	-0.087732285
252	0xbdbd4d70	-0.09243286
253	0x3ba5938a	0.0050529884
254	0x3d39824b	0.045290273
255	0x3e59d988	0.21274388

output_layer.bias f4 [5]
0	0x3db164f3	0.08661833
1	0x3dd4d40a	0.10392006
2	0x3db7b7dc	0.08970615
3	0xbde01576	-0.10941593
4	0x3d7328af	0.05936497
